{
  "format": "layers-model",
  "generatedBy": "keras v2.2.4",
  "convertedBy": "TensorFlow.js Converter v1.1.2",
  "modelTopology": {
    "keras_version": "2.2.4",
    "backend": "tensorflow",
    "model_config": {
      "class_name": "Model",
      "config": {
        "name": "model_1",
        "layers": [
          {
            "name": "input_1",
            "class_name": "InputLayer",
            "config": {
              "batch_input_shape": [
                null,
                368,
                368,
                3
              ],
              "dtype": "float32",
              "sparse": false,
              "name": "input_1"
            },
            "inbound_nodes": []
          },
          {
            "name": "sub_stages/sub_conv1",
            "class_name": "Conv2D",
            "config": {
              "name": "sub_stages/sub_conv1",
              "trainable": true,
              "filters": 64,
              "kernel_size": [
                3,
                3
              ],
              "strides": [
                1,
                1
              ],
              "padding": "same",
              "data_format": "channels_last",
              "dilation_rate": [
                1,
                1
              ],
              "activation": "relu",
              "use_bias": true,
              "kernel_initializer": {
                "class_name": "VarianceScaling",
                "config": {
                  "scale": 1.0,
                  "mode": "fan_avg",
                  "distribution": "uniform",
                  "seed": null
                }
              },
              "bias_initializer": {
                "class_name": "Zeros",
                "config": {}
              },
              "kernel_regularizer": null,
              "bias_regularizer": null,
              "activity_regularizer": null,
              "kernel_constraint": null,
              "bias_constraint": null
            },
            "inbound_nodes": [
              [
                [
                  "input_1",
                  0,
                  0,
                  {}
                ]
              ]
            ]
          },
          {
            "name": "sub_stages/sub_conv2",
            "class_name": "Conv2D",
            "config": {
              "name": "sub_stages/sub_conv2",
              "trainable": true,
              "filters": 64,
              "kernel_size": [
                3,
                3
              ],
              "strides": [
                1,
                1
              ],
              "padding": "same",
              "data_format": "channels_last",
              "dilation_rate": [
                1,
                1
              ],
              "activation": "relu",
              "use_bias": true,
              "kernel_initializer": {
                "class_name": "VarianceScaling",
                "config": {
                  "scale": 1.0,
                  "mode": "fan_avg",
                  "distribution": "uniform",
                  "seed": null
                }
              },
              "bias_initializer": {
                "class_name": "Zeros",
                "config": {}
              },
              "kernel_regularizer": null,
              "bias_regularizer": null,
              "activity_regularizer": null,
              "kernel_constraint": null,
              "bias_constraint": null
            },
            "inbound_nodes": [
              [
                [
                  "sub_stages/sub_conv1",
                  0,
                  0,
                  {}
                ]
              ]
            ]
          },
          {
            "name": "sub_stages/sub_pool1",
            "class_name": "MaxPooling2D",
            "config": {
              "name": "sub_stages/sub_pool1",
              "trainable": true,
              "pool_size": [
                2,
                2
              ],
              "padding": "valid",
              "strides": [
                2,
                2
              ],
              "data_format": "channels_last"
            },
            "inbound_nodes": [
              [
                [
                  "sub_stages/sub_conv2",
                  0,
                  0,
                  {}
                ]
              ]
            ]
          },
          {
            "name": "sub_stages/sub_conv3",
            "class_name": "Conv2D",
            "config": {
              "name": "sub_stages/sub_conv3",
              "trainable": true,
              "filters": 128,
              "kernel_size": [
                3,
                3
              ],
              "strides": [
                1,
                1
              ],
              "padding": "same",
              "data_format": "channels_last",
              "dilation_rate": [
                1,
                1
              ],
              "activation": "relu",
              "use_bias": true,
              "kernel_initializer": {
                "class_name": "VarianceScaling",
                "config": {
                  "scale": 1.0,
                  "mode": "fan_avg",
                  "distribution": "uniform",
                  "seed": null
                }
              },
              "bias_initializer": {
                "class_name": "Zeros",
                "config": {}
              },
              "kernel_regularizer": null,
              "bias_regularizer": null,
              "activity_regularizer": null,
              "kernel_constraint": null,
              "bias_constraint": null
            },
            "inbound_nodes": [
              [
                [
                  "sub_stages/sub_pool1",
                  0,
                  0,
                  {}
                ]
              ]
            ]
          },
          {
            "name": "sub_stages/sub_conv4",
            "class_name": "Conv2D",
            "config": {
              "name": "sub_stages/sub_conv4",
              "trainable": true,
              "filters": 128,
              "kernel_size": [
                3,
                3
              ],
              "strides": [
                1,
                1
              ],
              "padding": "same",
              "data_format": "channels_last",
              "dilation_rate": [
                1,
                1
              ],
              "activation": "relu",
              "use_bias": true,
              "kernel_initializer": {
                "class_name": "VarianceScaling",
                "config": {
                  "scale": 1.0,
                  "mode": "fan_avg",
                  "distribution": "uniform",
                  "seed": null
                }
              },
              "bias_initializer": {
                "class_name": "Zeros",
                "config": {}
              },
              "kernel_regularizer": null,
              "bias_regularizer": null,
              "activity_regularizer": null,
              "kernel_constraint": null,
              "bias_constraint": null
            },
            "inbound_nodes": [
              [
                [
                  "sub_stages/sub_conv3",
                  0,
                  0,
                  {}
                ]
              ]
            ]
          },
          {
            "name": "sub_stages/sub_pool2",
            "class_name": "MaxPooling2D",
            "config": {
              "name": "sub_stages/sub_pool2",
              "trainable": true,
              "pool_size": [
                2,
                2
              ],
              "padding": "valid",
              "strides": [
                2,
                2
              ],
              "data_format": "channels_last"
            },
            "inbound_nodes": [
              [
                [
                  "sub_stages/sub_conv4",
                  0,
                  0,
                  {}
                ]
              ]
            ]
          },
          {
            "name": "sub_stages/sub_conv5",
            "class_name": "Conv2D",
            "config": {
              "name": "sub_stages/sub_conv5",
              "trainable": true,
              "filters": 256,
              "kernel_size": [
                3,
                3
              ],
              "strides": [
                1,
                1
              ],
              "padding": "same",
              "data_format": "channels_last",
              "dilation_rate": [
                1,
                1
              ],
              "activation": "relu",
              "use_bias": true,
              "kernel_initializer": {
                "class_name": "VarianceScaling",
                "config": {
                  "scale": 1.0,
                  "mode": "fan_avg",
                  "distribution": "uniform",
                  "seed": null
                }
              },
              "bias_initializer": {
                "class_name": "Zeros",
                "config": {}
              },
              "kernel_regularizer": null,
              "bias_regularizer": null,
              "activity_regularizer": null,
              "kernel_constraint": null,
              "bias_constraint": null
            },
            "inbound_nodes": [
              [
                [
                  "sub_stages/sub_pool2",
                  0,
                  0,
                  {}
                ]
              ]
            ]
          },
          {
            "name": "sub_stages/sub_conv6",
            "class_name": "Conv2D",
            "config": {
              "name": "sub_stages/sub_conv6",
              "trainable": true,
              "filters": 256,
              "kernel_size": [
                3,
                3
              ],
              "strides": [
                1,
                1
              ],
              "padding": "same",
              "data_format": "channels_last",
              "dilation_rate": [
                1,
                1
              ],
              "activation": "relu",
              "use_bias": true,
              "kernel_initializer": {
                "class_name": "VarianceScaling",
                "config": {
                  "scale": 1.0,
                  "mode": "fan_avg",
                  "distribution": "uniform",
                  "seed": null
                }
              },
              "bias_initializer": {
                "class_name": "Zeros",
                "config": {}
              },
              "kernel_regularizer": null,
              "bias_regularizer": null,
              "activity_regularizer": null,
              "kernel_constraint": null,
              "bias_constraint": null
            },
            "inbound_nodes": [
              [
                [
                  "sub_stages/sub_conv5",
                  0,
                  0,
                  {}
                ]
              ]
            ]
          },
          {
            "name": "sub_stages/sub_conv7",
            "class_name": "Conv2D",
            "config": {
              "name": "sub_stages/sub_conv7",
              "trainable": true,
              "filters": 256,
              "kernel_size": [
                3,
                3
              ],
              "strides": [
                1,
                1
              ],
              "padding": "same",
              "data_format": "channels_last",
              "dilation_rate": [
                1,
                1
              ],
              "activation": "relu",
              "use_bias": true,
              "kernel_initializer": {
                "class_name": "VarianceScaling",
                "config": {
                  "scale": 1.0,
                  "mode": "fan_avg",
                  "distribution": "uniform",
                  "seed": null
                }
              },
              "bias_initializer": {
                "class_name": "Zeros",
                "config": {}
              },
              "kernel_regularizer": null,
              "bias_regularizer": null,
              "activity_regularizer": null,
              "kernel_constraint": null,
              "bias_constraint": null
            },
            "inbound_nodes": [
              [
                [
                  "sub_stages/sub_conv6",
                  0,
                  0,
                  {}
                ]
              ]
            ]
          },
          {
            "name": "sub_stages/sub_conv8",
            "class_name": "Conv2D",
            "config": {
              "name": "sub_stages/sub_conv8",
              "trainable": true,
              "filters": 256,
              "kernel_size": [
                3,
                3
              ],
              "strides": [
                1,
                1
              ],
              "padding": "same",
              "data_format": "channels_last",
              "dilation_rate": [
                1,
                1
              ],
              "activation": "relu",
              "use_bias": true,
              "kernel_initializer": {
                "class_name": "VarianceScaling",
                "config": {
                  "scale": 1.0,
                  "mode": "fan_avg",
                  "distribution": "uniform",
                  "seed": null
                }
              },
              "bias_initializer": {
                "class_name": "Zeros",
                "config": {}
              },
              "kernel_regularizer": null,
              "bias_regularizer": null,
              "activity_regularizer": null,
              "kernel_constraint": null,
              "bias_constraint": null
            },
            "inbound_nodes": [
              [
                [
                  "sub_stages/sub_conv7",
                  0,
                  0,
                  {}
                ]
              ]
            ]
          },
          {
            "name": "sub_stages/sub_pool3",
            "class_name": "MaxPooling2D",
            "config": {
              "name": "sub_stages/sub_pool3",
              "trainable": true,
              "pool_size": [
                2,
                2
              ],
              "padding": "valid",
              "strides": [
                2,
                2
              ],
              "data_format": "channels_last"
            },
            "inbound_nodes": [
              [
                [
                  "sub_stages/sub_conv8",
                  0,
                  0,
                  {}
                ]
              ]
            ]
          },
          {
            "name": "sub_stages/sub_conv9",
            "class_name": "Conv2D",
            "config": {
              "name": "sub_stages/sub_conv9",
              "trainable": true,
              "filters": 512,
              "kernel_size": [
                3,
                3
              ],
              "strides": [
                1,
                1
              ],
              "padding": "same",
              "data_format": "channels_last",
              "dilation_rate": [
                1,
                1
              ],
              "activation": "relu",
              "use_bias": true,
              "kernel_initializer": {
                "class_name": "VarianceScaling",
                "config": {
                  "scale": 1.0,
                  "mode": "fan_avg",
                  "distribution": "uniform",
                  "seed": null
                }
              },
              "bias_initializer": {
                "class_name": "Zeros",
                "config": {}
              },
              "kernel_regularizer": null,
              "bias_regularizer": null,
              "activity_regularizer": null,
              "kernel_constraint": null,
              "bias_constraint": null
            },
            "inbound_nodes": [
              [
                [
                  "sub_stages/sub_pool3",
                  0,
                  0,
                  {}
                ]
              ]
            ]
          },
          {
            "name": "sub_stages/sub_conv10",
            "class_name": "Conv2D",
            "config": {
              "name": "sub_stages/sub_conv10",
              "trainable": true,
              "filters": 512,
              "kernel_size": [
                3,
                3
              ],
              "strides": [
                1,
                1
              ],
              "padding": "same",
              "data_format": "channels_last",
              "dilation_rate": [
                1,
                1
              ],
              "activation": "relu",
              "use_bias": true,
              "kernel_initializer": {
                "class_name": "VarianceScaling",
                "config": {
                  "scale": 1.0,
                  "mode": "fan_avg",
                  "distribution": "uniform",
                  "seed": null
                }
              },
              "bias_initializer": {
                "class_name": "Zeros",
                "config": {}
              },
              "kernel_regularizer": null,
              "bias_regularizer": null,
              "activity_regularizer": null,
              "kernel_constraint": null,
              "bias_constraint": null
            },
            "inbound_nodes": [
              [
                [
                  "sub_stages/sub_conv9",
                  0,
                  0,
                  {}
                ]
              ]
            ]
          },
          {
            "name": "sub_stages/sub_conv11",
            "class_name": "Conv2D",
            "config": {
              "name": "sub_stages/sub_conv11",
              "trainable": true,
              "filters": 512,
              "kernel_size": [
                3,
                3
              ],
              "strides": [
                1,
                1
              ],
              "padding": "same",
              "data_format": "channels_last",
              "dilation_rate": [
                1,
                1
              ],
              "activation": "relu",
              "use_bias": true,
              "kernel_initializer": {
                "class_name": "VarianceScaling",
                "config": {
                  "scale": 1.0,
                  "mode": "fan_avg",
                  "distribution": "uniform",
                  "seed": null
                }
              },
              "bias_initializer": {
                "class_name": "Zeros",
                "config": {}
              },
              "kernel_regularizer": null,
              "bias_regularizer": null,
              "activity_regularizer": null,
              "kernel_constraint": null,
              "bias_constraint": null
            },
            "inbound_nodes": [
              [
                [
                  "sub_stages/sub_conv10",
                  0,
                  0,
                  {}
                ]
              ]
            ]
          },
          {
            "name": "sub_stages/sub_conv12",
            "class_name": "Conv2D",
            "config": {
              "name": "sub_stages/sub_conv12",
              "trainable": true,
              "filters": 512,
              "kernel_size": [
                3,
                3
              ],
              "strides": [
                1,
                1
              ],
              "padding": "same",
              "data_format": "channels_last",
              "dilation_rate": [
                1,
                1
              ],
              "activation": "relu",
              "use_bias": true,
              "kernel_initializer": {
                "class_name": "VarianceScaling",
                "config": {
                  "scale": 1.0,
                  "mode": "fan_avg",
                  "distribution": "uniform",
                  "seed": null
                }
              },
              "bias_initializer": {
                "class_name": "Zeros",
                "config": {}
              },
              "kernel_regularizer": null,
              "bias_regularizer": null,
              "activity_regularizer": null,
              "kernel_constraint": null,
              "bias_constraint": null
            },
            "inbound_nodes": [
              [
                [
                  "sub_stages/sub_conv11",
                  0,
                  0,
                  {}
                ]
              ]
            ]
          },
          {
            "name": "sub_stages/sub_conv13",
            "class_name": "Conv2D",
            "config": {
              "name": "sub_stages/sub_conv13",
              "trainable": true,
              "filters": 512,
              "kernel_size": [
                3,
                3
              ],
              "strides": [
                1,
                1
              ],
              "padding": "same",
              "data_format": "channels_last",
              "dilation_rate": [
                1,
                1
              ],
              "activation": "relu",
              "use_bias": true,
              "kernel_initializer": {
                "class_name": "VarianceScaling",
                "config": {
                  "scale": 1.0,
                  "mode": "fan_avg",
                  "distribution": "uniform",
                  "seed": null
                }
              },
              "bias_initializer": {
                "class_name": "Zeros",
                "config": {}
              },
              "kernel_regularizer": null,
              "bias_regularizer": null,
              "activity_regularizer": null,
              "kernel_constraint": null,
              "bias_constraint": null
            },
            "inbound_nodes": [
              [
                [
                  "sub_stages/sub_conv12",
                  0,
                  0,
                  {}
                ]
              ]
            ]
          },
          {
            "name": "sub_stages/sub_conv14",
            "class_name": "Conv2D",
            "config": {
              "name": "sub_stages/sub_conv14",
              "trainable": true,
              "filters": 512,
              "kernel_size": [
                3,
                3
              ],
              "strides": [
                1,
                1
              ],
              "padding": "same",
              "data_format": "channels_last",
              "dilation_rate": [
                1,
                1
              ],
              "activation": "relu",
              "use_bias": true,
              "kernel_initializer": {
                "class_name": "VarianceScaling",
                "config": {
                  "scale": 1.0,
                  "mode": "fan_avg",
                  "distribution": "uniform",
                  "seed": null
                }
              },
              "bias_initializer": {
                "class_name": "Zeros",
                "config": {}
              },
              "kernel_regularizer": null,
              "bias_regularizer": null,
              "activity_regularizer": null,
              "kernel_constraint": null,
              "bias_constraint": null
            },
            "inbound_nodes": [
              [
                [
                  "sub_stages/sub_conv13",
                  0,
                  0,
                  {}
                ]
              ]
            ]
          },
          {
            "name": "sub_stages/sub_stage_img_feature",
            "class_name": "Conv2D",
            "config": {
              "name": "sub_stages/sub_stage_img_feature",
              "trainable": true,
              "filters": 128,
              "kernel_size": [
                3,
                3
              ],
              "strides": [
                1,
                1
              ],
              "padding": "same",
              "data_format": "channels_last",
              "dilation_rate": [
                1,
                1
              ],
              "activation": "relu",
              "use_bias": true,
              "kernel_initializer": {
                "class_name": "VarianceScaling",
                "config": {
                  "scale": 1.0,
                  "mode": "fan_avg",
                  "distribution": "uniform",
                  "seed": null
                }
              },
              "bias_initializer": {
                "class_name": "Zeros",
                "config": {}
              },
              "kernel_regularizer": null,
              "bias_regularizer": null,
              "activity_regularizer": null,
              "kernel_constraint": null,
              "bias_constraint": null
            },
            "inbound_nodes": [
              [
                [
                  "sub_stages/sub_conv14",
                  0,
                  0,
                  {}
                ]
              ]
            ]
          },
          {
            "name": "stage_1/conv1",
            "class_name": "Conv2D",
            "config": {
              "name": "stage_1/conv1",
              "trainable": true,
              "filters": 512,
              "kernel_size": [
                1,
                1
              ],
              "strides": [
                1,
                1
              ],
              "padding": "same",
              "data_format": "channels_last",
              "dilation_rate": [
                1,
                1
              ],
              "activation": "relu",
              "use_bias": true,
              "kernel_initializer": {
                "class_name": "VarianceScaling",
                "config": {
                  "scale": 1.0,
                  "mode": "fan_avg",
                  "distribution": "uniform",
                  "seed": null
                }
              },
              "bias_initializer": {
                "class_name": "Zeros",
                "config": {}
              },
              "kernel_regularizer": null,
              "bias_regularizer": null,
              "activity_regularizer": null,
              "kernel_constraint": null,
              "bias_constraint": null
            },
            "inbound_nodes": [
              [
                [
                  "sub_stages/sub_stage_img_feature",
                  0,
                  0,
                  {}
                ]
              ]
            ]
          },
          {
            "name": "stage_1/stage_heatmap",
            "class_name": "Conv2D",
            "config": {
              "name": "stage_1/stage_heatmap",
              "trainable": true,
              "filters": 22,
              "kernel_size": [
                1,
                1
              ],
              "strides": [
                1,
                1
              ],
              "padding": "same",
              "data_format": "channels_last",
              "dilation_rate": [
                1,
                1
              ],
              "activation": "relu",
              "use_bias": true,
              "kernel_initializer": {
                "class_name": "VarianceScaling",
                "config": {
                  "scale": 1.0,
                  "mode": "fan_avg",
                  "distribution": "uniform",
                  "seed": null
                }
              },
              "bias_initializer": {
                "class_name": "Zeros",
                "config": {}
              },
              "kernel_regularizer": null,
              "bias_regularizer": null,
              "activity_regularizer": null,
              "kernel_constraint": null,
              "bias_constraint": null
            },
            "inbound_nodes": [
              [
                [
                  "stage_1/conv1",
                  0,
                  0,
                  {}
                ]
              ]
            ]
          },
          {
            "name": "concatenate_1",
            "class_name": "Concatenate",
            "config": {
              "name": "concatenate_1",
              "trainable": true,
              "axis": 3
            },
            "inbound_nodes": [
              [
                [
                  "stage_1/stage_heatmap",
                  0,
                  0,
                  {}
                ],
                [
                  "sub_stages/sub_stage_img_feature",
                  0,
                  0,
                  {}
                ]
              ]
            ]
          },
          {
            "name": "stage_2/mid_conv1",
            "class_name": "Conv2D",
            "config": {
              "name": "stage_2/mid_conv1",
              "trainable": true,
              "filters": 128,
              "kernel_size": [
                7,
                7
              ],
              "strides": [
                1,
                1
              ],
              "padding": "same",
              "data_format": "channels_last",
              "dilation_rate": [
                1,
                1
              ],
              "activation": "relu",
              "use_bias": true,
              "kernel_initializer": {
                "class_name": "VarianceScaling",
                "config": {
                  "scale": 1.0,
                  "mode": "fan_avg",
                  "distribution": "uniform",
                  "seed": null
                }
              },
              "bias_initializer": {
                "class_name": "Zeros",
                "config": {}
              },
              "kernel_regularizer": null,
              "bias_regularizer": null,
              "activity_regularizer": null,
              "kernel_constraint": null,
              "bias_constraint": null
            },
            "inbound_nodes": [
              [
                [
                  "concatenate_1",
                  0,
                  0,
                  {}
                ]
              ]
            ]
          },
          {
            "name": "stage_2/mid_conv2",
            "class_name": "Conv2D",
            "config": {
              "name": "stage_2/mid_conv2",
              "trainable": true,
              "filters": 128,
              "kernel_size": [
                7,
                7
              ],
              "strides": [
                1,
                1
              ],
              "padding": "same",
              "data_format": "channels_last",
              "dilation_rate": [
                1,
                1
              ],
              "activation": "relu",
              "use_bias": true,
              "kernel_initializer": {
                "class_name": "VarianceScaling",
                "config": {
                  "scale": 1.0,
                  "mode": "fan_avg",
                  "distribution": "uniform",
                  "seed": null
                }
              },
              "bias_initializer": {
                "class_name": "Zeros",
                "config": {}
              },
              "kernel_regularizer": null,
              "bias_regularizer": null,
              "activity_regularizer": null,
              "kernel_constraint": null,
              "bias_constraint": null
            },
            "inbound_nodes": [
              [
                [
                  "stage_2/mid_conv1",
                  0,
                  0,
                  {}
                ]
              ]
            ]
          },
          {
            "name": "stage_2/mid_conv3",
            "class_name": "Conv2D",
            "config": {
              "name": "stage_2/mid_conv3",
              "trainable": true,
              "filters": 128,
              "kernel_size": [
                7,
                7
              ],
              "strides": [
                1,
                1
              ],
              "padding": "same",
              "data_format": "channels_last",
              "dilation_rate": [
                1,
                1
              ],
              "activation": "relu",
              "use_bias": true,
              "kernel_initializer": {
                "class_name": "VarianceScaling",
                "config": {
                  "scale": 1.0,
                  "mode": "fan_avg",
                  "distribution": "uniform",
                  "seed": null
                }
              },
              "bias_initializer": {
                "class_name": "Zeros",
                "config": {}
              },
              "kernel_regularizer": null,
              "bias_regularizer": null,
              "activity_regularizer": null,
              "kernel_constraint": null,
              "bias_constraint": null
            },
            "inbound_nodes": [
              [
                [
                  "stage_2/mid_conv2",
                  0,
                  0,
                  {}
                ]
              ]
            ]
          },
          {
            "name": "stage_2/mid_conv4",
            "class_name": "Conv2D",
            "config": {
              "name": "stage_2/mid_conv4",
              "trainable": true,
              "filters": 128,
              "kernel_size": [
                7,
                7
              ],
              "strides": [
                1,
                1
              ],
              "padding": "same",
              "data_format": "channels_last",
              "dilation_rate": [
                1,
                1
              ],
              "activation": "relu",
              "use_bias": true,
              "kernel_initializer": {
                "class_name": "VarianceScaling",
                "config": {
                  "scale": 1.0,
                  "mode": "fan_avg",
                  "distribution": "uniform",
                  "seed": null
                }
              },
              "bias_initializer": {
                "class_name": "Zeros",
                "config": {}
              },
              "kernel_regularizer": null,
              "bias_regularizer": null,
              "activity_regularizer": null,
              "kernel_constraint": null,
              "bias_constraint": null
            },
            "inbound_nodes": [
              [
                [
                  "stage_2/mid_conv3",
                  0,
                  0,
                  {}
                ]
              ]
            ]
          },
          {
            "name": "stage_2/mid_conv5",
            "class_name": "Conv2D",
            "config": {
              "name": "stage_2/mid_conv5",
              "trainable": true,
              "filters": 128,
              "kernel_size": [
                7,
                7
              ],
              "strides": [
                1,
                1
              ],
              "padding": "same",
              "data_format": "channels_last",
              "dilation_rate": [
                1,
                1
              ],
              "activation": "relu",
              "use_bias": true,
              "kernel_initializer": {
                "class_name": "VarianceScaling",
                "config": {
                  "scale": 1.0,
                  "mode": "fan_avg",
                  "distribution": "uniform",
                  "seed": null
                }
              },
              "bias_initializer": {
                "class_name": "Zeros",
                "config": {}
              },
              "kernel_regularizer": null,
              "bias_regularizer": null,
              "activity_regularizer": null,
              "kernel_constraint": null,
              "bias_constraint": null
            },
            "inbound_nodes": [
              [
                [
                  "stage_2/mid_conv4",
                  0,
                  0,
                  {}
                ]
              ]
            ]
          },
          {
            "name": "stage_2/mid_conv6",
            "class_name": "Conv2D",
            "config": {
              "name": "stage_2/mid_conv6",
              "trainable": true,
              "filters": 128,
              "kernel_size": [
                1,
                1
              ],
              "strides": [
                1,
                1
              ],
              "padding": "same",
              "data_format": "channels_last",
              "dilation_rate": [
                1,
                1
              ],
              "activation": "relu",
              "use_bias": true,
              "kernel_initializer": {
                "class_name": "VarianceScaling",
                "config": {
                  "scale": 1.0,
                  "mode": "fan_avg",
                  "distribution": "uniform",
                  "seed": null
                }
              },
              "bias_initializer": {
                "class_name": "Zeros",
                "config": {}
              },
              "kernel_regularizer": null,
              "bias_regularizer": null,
              "activity_regularizer": null,
              "kernel_constraint": null,
              "bias_constraint": null
            },
            "inbound_nodes": [
              [
                [
                  "stage_2/mid_conv5",
                  0,
                  0,
                  {}
                ]
              ]
            ]
          },
          {
            "name": "stage_2/mid_conv7",
            "class_name": "Conv2D",
            "config": {
              "name": "stage_2/mid_conv7",
              "trainable": true,
              "filters": 22,
              "kernel_size": [
                1,
                1
              ],
              "strides": [
                1,
                1
              ],
              "padding": "same",
              "data_format": "channels_last",
              "dilation_rate": [
                1,
                1
              ],
              "activation": "relu",
              "use_bias": true,
              "kernel_initializer": {
                "class_name": "VarianceScaling",
                "config": {
                  "scale": 1.0,
                  "mode": "fan_avg",
                  "distribution": "uniform",
                  "seed": null
                }
              },
              "bias_initializer": {
                "class_name": "Zeros",
                "config": {}
              },
              "kernel_regularizer": null,
              "bias_regularizer": null,
              "activity_regularizer": null,
              "kernel_constraint": null,
              "bias_constraint": null
            },
            "inbound_nodes": [
              [
                [
                  "stage_2/mid_conv6",
                  0,
                  0,
                  {}
                ]
              ]
            ]
          },
          {
            "name": "concatenate_2",
            "class_name": "Concatenate",
            "config": {
              "name": "concatenate_2",
              "trainable": true,
              "axis": 3
            },
            "inbound_nodes": [
              [
                [
                  "stage_2/mid_conv7",
                  0,
                  0,
                  {}
                ],
                [
                  "sub_stages/sub_stage_img_feature",
                  0,
                  0,
                  {}
                ]
              ]
            ]
          },
          {
            "name": "stage_3/mid_conv1",
            "class_name": "Conv2D",
            "config": {
              "name": "stage_3/mid_conv1",
              "trainable": true,
              "filters": 128,
              "kernel_size": [
                7,
                7
              ],
              "strides": [
                1,
                1
              ],
              "padding": "same",
              "data_format": "channels_last",
              "dilation_rate": [
                1,
                1
              ],
              "activation": "relu",
              "use_bias": true,
              "kernel_initializer": {
                "class_name": "VarianceScaling",
                "config": {
                  "scale": 1.0,
                  "mode": "fan_avg",
                  "distribution": "uniform",
                  "seed": null
                }
              },
              "bias_initializer": {
                "class_name": "Zeros",
                "config": {}
              },
              "kernel_regularizer": null,
              "bias_regularizer": null,
              "activity_regularizer": null,
              "kernel_constraint": null,
              "bias_constraint": null
            },
            "inbound_nodes": [
              [
                [
                  "concatenate_2",
                  0,
                  0,
                  {}
                ]
              ]
            ]
          },
          {
            "name": "stage_3/mid_conv2",
            "class_name": "Conv2D",
            "config": {
              "name": "stage_3/mid_conv2",
              "trainable": true,
              "filters": 128,
              "kernel_size": [
                7,
                7
              ],
              "strides": [
                1,
                1
              ],
              "padding": "same",
              "data_format": "channels_last",
              "dilation_rate": [
                1,
                1
              ],
              "activation": "relu",
              "use_bias": true,
              "kernel_initializer": {
                "class_name": "VarianceScaling",
                "config": {
                  "scale": 1.0,
                  "mode": "fan_avg",
                  "distribution": "uniform",
                  "seed": null
                }
              },
              "bias_initializer": {
                "class_name": "Zeros",
                "config": {}
              },
              "kernel_regularizer": null,
              "bias_regularizer": null,
              "activity_regularizer": null,
              "kernel_constraint": null,
              "bias_constraint": null
            },
            "inbound_nodes": [
              [
                [
                  "stage_3/mid_conv1",
                  0,
                  0,
                  {}
                ]
              ]
            ]
          },
          {
            "name": "stage_3/mid_conv3",
            "class_name": "Conv2D",
            "config": {
              "name": "stage_3/mid_conv3",
              "trainable": true,
              "filters": 128,
              "kernel_size": [
                7,
                7
              ],
              "strides": [
                1,
                1
              ],
              "padding": "same",
              "data_format": "channels_last",
              "dilation_rate": [
                1,
                1
              ],
              "activation": "relu",
              "use_bias": true,
              "kernel_initializer": {
                "class_name": "VarianceScaling",
                "config": {
                  "scale": 1.0,
                  "mode": "fan_avg",
                  "distribution": "uniform",
                  "seed": null
                }
              },
              "bias_initializer": {
                "class_name": "Zeros",
                "config": {}
              },
              "kernel_regularizer": null,
              "bias_regularizer": null,
              "activity_regularizer": null,
              "kernel_constraint": null,
              "bias_constraint": null
            },
            "inbound_nodes": [
              [
                [
                  "stage_3/mid_conv2",
                  0,
                  0,
                  {}
                ]
              ]
            ]
          },
          {
            "name": "stage_3/mid_conv4",
            "class_name": "Conv2D",
            "config": {
              "name": "stage_3/mid_conv4",
              "trainable": true,
              "filters": 128,
              "kernel_size": [
                7,
                7
              ],
              "strides": [
                1,
                1
              ],
              "padding": "same",
              "data_format": "channels_last",
              "dilation_rate": [
                1,
                1
              ],
              "activation": "relu",
              "use_bias": true,
              "kernel_initializer": {
                "class_name": "VarianceScaling",
                "config": {
                  "scale": 1.0,
                  "mode": "fan_avg",
                  "distribution": "uniform",
                  "seed": null
                }
              },
              "bias_initializer": {
                "class_name": "Zeros",
                "config": {}
              },
              "kernel_regularizer": null,
              "bias_regularizer": null,
              "activity_regularizer": null,
              "kernel_constraint": null,
              "bias_constraint": null
            },
            "inbound_nodes": [
              [
                [
                  "stage_3/mid_conv3",
                  0,
                  0,
                  {}
                ]
              ]
            ]
          },
          {
            "name": "stage_3/mid_conv5",
            "class_name": "Conv2D",
            "config": {
              "name": "stage_3/mid_conv5",
              "trainable": true,
              "filters": 128,
              "kernel_size": [
                7,
                7
              ],
              "strides": [
                1,
                1
              ],
              "padding": "same",
              "data_format": "channels_last",
              "dilation_rate": [
                1,
                1
              ],
              "activation": "relu",
              "use_bias": true,
              "kernel_initializer": {
                "class_name": "VarianceScaling",
                "config": {
                  "scale": 1.0,
                  "mode": "fan_avg",
                  "distribution": "uniform",
                  "seed": null
                }
              },
              "bias_initializer": {
                "class_name": "Zeros",
                "config": {}
              },
              "kernel_regularizer": null,
              "bias_regularizer": null,
              "activity_regularizer": null,
              "kernel_constraint": null,
              "bias_constraint": null
            },
            "inbound_nodes": [
              [
                [
                  "stage_3/mid_conv4",
                  0,
                  0,
                  {}
                ]
              ]
            ]
          },
          {
            "name": "stage_3/mid_conv6",
            "class_name": "Conv2D",
            "config": {
              "name": "stage_3/mid_conv6",
              "trainable": true,
              "filters": 128,
              "kernel_size": [
                1,
                1
              ],
              "strides": [
                1,
                1
              ],
              "padding": "same",
              "data_format": "channels_last",
              "dilation_rate": [
                1,
                1
              ],
              "activation": "relu",
              "use_bias": true,
              "kernel_initializer": {
                "class_name": "VarianceScaling",
                "config": {
                  "scale": 1.0,
                  "mode": "fan_avg",
                  "distribution": "uniform",
                  "seed": null
                }
              },
              "bias_initializer": {
                "class_name": "Zeros",
                "config": {}
              },
              "kernel_regularizer": null,
              "bias_regularizer": null,
              "activity_regularizer": null,
              "kernel_constraint": null,
              "bias_constraint": null
            },
            "inbound_nodes": [
              [
                [
                  "stage_3/mid_conv5",
                  0,
                  0,
                  {}
                ]
              ]
            ]
          },
          {
            "name": "stage_3/mid_conv7",
            "class_name": "Conv2D",
            "config": {
              "name": "stage_3/mid_conv7",
              "trainable": true,
              "filters": 22,
              "kernel_size": [
                1,
                1
              ],
              "strides": [
                1,
                1
              ],
              "padding": "same",
              "data_format": "channels_last",
              "dilation_rate": [
                1,
                1
              ],
              "activation": "relu",
              "use_bias": true,
              "kernel_initializer": {
                "class_name": "VarianceScaling",
                "config": {
                  "scale": 1.0,
                  "mode": "fan_avg",
                  "distribution": "uniform",
                  "seed": null
                }
              },
              "bias_initializer": {
                "class_name": "Zeros",
                "config": {}
              },
              "kernel_regularizer": null,
              "bias_regularizer": null,
              "activity_regularizer": null,
              "kernel_constraint": null,
              "bias_constraint": null
            },
            "inbound_nodes": [
              [
                [
                  "stage_3/mid_conv6",
                  0,
                  0,
                  {}
                ]
              ]
            ]
          },
          {
            "name": "concatenate_3",
            "class_name": "Concatenate",
            "config": {
              "name": "concatenate_3",
              "trainable": true,
              "axis": 3
            },
            "inbound_nodes": [
              [
                [
                  "stage_3/mid_conv7",
                  0,
                  0,
                  {}
                ],
                [
                  "sub_stages/sub_stage_img_feature",
                  0,
                  0,
                  {}
                ]
              ]
            ]
          },
          {
            "name": "stage_4/mid_conv1",
            "class_name": "Conv2D",
            "config": {
              "name": "stage_4/mid_conv1",
              "trainable": true,
              "filters": 128,
              "kernel_size": [
                7,
                7
              ],
              "strides": [
                1,
                1
              ],
              "padding": "same",
              "data_format": "channels_last",
              "dilation_rate": [
                1,
                1
              ],
              "activation": "relu",
              "use_bias": true,
              "kernel_initializer": {
                "class_name": "VarianceScaling",
                "config": {
                  "scale": 1.0,
                  "mode": "fan_avg",
                  "distribution": "uniform",
                  "seed": null
                }
              },
              "bias_initializer": {
                "class_name": "Zeros",
                "config": {}
              },
              "kernel_regularizer": null,
              "bias_regularizer": null,
              "activity_regularizer": null,
              "kernel_constraint": null,
              "bias_constraint": null
            },
            "inbound_nodes": [
              [
                [
                  "concatenate_3",
                  0,
                  0,
                  {}
                ]
              ]
            ]
          },
          {
            "name": "stage_4/mid_conv2",
            "class_name": "Conv2D",
            "config": {
              "name": "stage_4/mid_conv2",
              "trainable": true,
              "filters": 128,
              "kernel_size": [
                7,
                7
              ],
              "strides": [
                1,
                1
              ],
              "padding": "same",
              "data_format": "channels_last",
              "dilation_rate": [
                1,
                1
              ],
              "activation": "relu",
              "use_bias": true,
              "kernel_initializer": {
                "class_name": "VarianceScaling",
                "config": {
                  "scale": 1.0,
                  "mode": "fan_avg",
                  "distribution": "uniform",
                  "seed": null
                }
              },
              "bias_initializer": {
                "class_name": "Zeros",
                "config": {}
              },
              "kernel_regularizer": null,
              "bias_regularizer": null,
              "activity_regularizer": null,
              "kernel_constraint": null,
              "bias_constraint": null
            },
            "inbound_nodes": [
              [
                [
                  "stage_4/mid_conv1",
                  0,
                  0,
                  {}
                ]
              ]
            ]
          },
          {
            "name": "stage_4/mid_conv3",
            "class_name": "Conv2D",
            "config": {
              "name": "stage_4/mid_conv3",
              "trainable": true,
              "filters": 128,
              "kernel_size": [
                7,
                7
              ],
              "strides": [
                1,
                1
              ],
              "padding": "same",
              "data_format": "channels_last",
              "dilation_rate": [
                1,
                1
              ],
              "activation": "relu",
              "use_bias": true,
              "kernel_initializer": {
                "class_name": "VarianceScaling",
                "config": {
                  "scale": 1.0,
                  "mode": "fan_avg",
                  "distribution": "uniform",
                  "seed": null
                }
              },
              "bias_initializer": {
                "class_name": "Zeros",
                "config": {}
              },
              "kernel_regularizer": null,
              "bias_regularizer": null,
              "activity_regularizer": null,
              "kernel_constraint": null,
              "bias_constraint": null
            },
            "inbound_nodes": [
              [
                [
                  "stage_4/mid_conv2",
                  0,
                  0,
                  {}
                ]
              ]
            ]
          },
          {
            "name": "stage_4/mid_conv4",
            "class_name": "Conv2D",
            "config": {
              "name": "stage_4/mid_conv4",
              "trainable": true,
              "filters": 128,
              "kernel_size": [
                7,
                7
              ],
              "strides": [
                1,
                1
              ],
              "padding": "same",
              "data_format": "channels_last",
              "dilation_rate": [
                1,
                1
              ],
              "activation": "relu",
              "use_bias": true,
              "kernel_initializer": {
                "class_name": "VarianceScaling",
                "config": {
                  "scale": 1.0,
                  "mode": "fan_avg",
                  "distribution": "uniform",
                  "seed": null
                }
              },
              "bias_initializer": {
                "class_name": "Zeros",
                "config": {}
              },
              "kernel_regularizer": null,
              "bias_regularizer": null,
              "activity_regularizer": null,
              "kernel_constraint": null,
              "bias_constraint": null
            },
            "inbound_nodes": [
              [
                [
                  "stage_4/mid_conv3",
                  0,
                  0,
                  {}
                ]
              ]
            ]
          },
          {
            "name": "stage_4/mid_conv5",
            "class_name": "Conv2D",
            "config": {
              "name": "stage_4/mid_conv5",
              "trainable": true,
              "filters": 128,
              "kernel_size": [
                7,
                7
              ],
              "strides": [
                1,
                1
              ],
              "padding": "same",
              "data_format": "channels_last",
              "dilation_rate": [
                1,
                1
              ],
              "activation": "relu",
              "use_bias": true,
              "kernel_initializer": {
                "class_name": "VarianceScaling",
                "config": {
                  "scale": 1.0,
                  "mode": "fan_avg",
                  "distribution": "uniform",
                  "seed": null
                }
              },
              "bias_initializer": {
                "class_name": "Zeros",
                "config": {}
              },
              "kernel_regularizer": null,
              "bias_regularizer": null,
              "activity_regularizer": null,
              "kernel_constraint": null,
              "bias_constraint": null
            },
            "inbound_nodes": [
              [
                [
                  "stage_4/mid_conv4",
                  0,
                  0,
                  {}
                ]
              ]
            ]
          },
          {
            "name": "stage_4/mid_conv6",
            "class_name": "Conv2D",
            "config": {
              "name": "stage_4/mid_conv6",
              "trainable": true,
              "filters": 128,
              "kernel_size": [
                1,
                1
              ],
              "strides": [
                1,
                1
              ],
              "padding": "same",
              "data_format": "channels_last",
              "dilation_rate": [
                1,
                1
              ],
              "activation": "relu",
              "use_bias": true,
              "kernel_initializer": {
                "class_name": "VarianceScaling",
                "config": {
                  "scale": 1.0,
                  "mode": "fan_avg",
                  "distribution": "uniform",
                  "seed": null
                }
              },
              "bias_initializer": {
                "class_name": "Zeros",
                "config": {}
              },
              "kernel_regularizer": null,
              "bias_regularizer": null,
              "activity_regularizer": null,
              "kernel_constraint": null,
              "bias_constraint": null
            },
            "inbound_nodes": [
              [
                [
                  "stage_4/mid_conv5",
                  0,
                  0,
                  {}
                ]
              ]
            ]
          },
          {
            "name": "stage_4/mid_conv7",
            "class_name": "Conv2D",
            "config": {
              "name": "stage_4/mid_conv7",
              "trainable": true,
              "filters": 22,
              "kernel_size": [
                1,
                1
              ],
              "strides": [
                1,
                1
              ],
              "padding": "same",
              "data_format": "channels_last",
              "dilation_rate": [
                1,
                1
              ],
              "activation": "relu",
              "use_bias": true,
              "kernel_initializer": {
                "class_name": "VarianceScaling",
                "config": {
                  "scale": 1.0,
                  "mode": "fan_avg",
                  "distribution": "uniform",
                  "seed": null
                }
              },
              "bias_initializer": {
                "class_name": "Zeros",
                "config": {}
              },
              "kernel_regularizer": null,
              "bias_regularizer": null,
              "activity_regularizer": null,
              "kernel_constraint": null,
              "bias_constraint": null
            },
            "inbound_nodes": [
              [
                [
                  "stage_4/mid_conv6",
                  0,
                  0,
                  {}
                ]
              ]
            ]
          },
          {
            "name": "concatenate_4",
            "class_name": "Concatenate",
            "config": {
              "name": "concatenate_4",
              "trainable": true,
              "axis": 3
            },
            "inbound_nodes": [
              [
                [
                  "stage_4/mid_conv7",
                  0,
                  0,
                  {}
                ],
                [
                  "sub_stages/sub_stage_img_feature",
                  0,
                  0,
                  {}
                ]
              ]
            ]
          },
          {
            "name": "stage_5/mid_conv1",
            "class_name": "Conv2D",
            "config": {
              "name": "stage_5/mid_conv1",
              "trainable": true,
              "filters": 128,
              "kernel_size": [
                7,
                7
              ],
              "strides": [
                1,
                1
              ],
              "padding": "same",
              "data_format": "channels_last",
              "dilation_rate": [
                1,
                1
              ],
              "activation": "relu",
              "use_bias": true,
              "kernel_initializer": {
                "class_name": "VarianceScaling",
                "config": {
                  "scale": 1.0,
                  "mode": "fan_avg",
                  "distribution": "uniform",
                  "seed": null
                }
              },
              "bias_initializer": {
                "class_name": "Zeros",
                "config": {}
              },
              "kernel_regularizer": null,
              "bias_regularizer": null,
              "activity_regularizer": null,
              "kernel_constraint": null,
              "bias_constraint": null
            },
            "inbound_nodes": [
              [
                [
                  "concatenate_4",
                  0,
                  0,
                  {}
                ]
              ]
            ]
          },
          {
            "name": "stage_5/mid_conv2",
            "class_name": "Conv2D",
            "config": {
              "name": "stage_5/mid_conv2",
              "trainable": true,
              "filters": 128,
              "kernel_size": [
                7,
                7
              ],
              "strides": [
                1,
                1
              ],
              "padding": "same",
              "data_format": "channels_last",
              "dilation_rate": [
                1,
                1
              ],
              "activation": "relu",
              "use_bias": true,
              "kernel_initializer": {
                "class_name": "VarianceScaling",
                "config": {
                  "scale": 1.0,
                  "mode": "fan_avg",
                  "distribution": "uniform",
                  "seed": null
                }
              },
              "bias_initializer": {
                "class_name": "Zeros",
                "config": {}
              },
              "kernel_regularizer": null,
              "bias_regularizer": null,
              "activity_regularizer": null,
              "kernel_constraint": null,
              "bias_constraint": null
            },
            "inbound_nodes": [
              [
                [
                  "stage_5/mid_conv1",
                  0,
                  0,
                  {}
                ]
              ]
            ]
          },
          {
            "name": "stage_5/mid_conv3",
            "class_name": "Conv2D",
            "config": {
              "name": "stage_5/mid_conv3",
              "trainable": true,
              "filters": 128,
              "kernel_size": [
                7,
                7
              ],
              "strides": [
                1,
                1
              ],
              "padding": "same",
              "data_format": "channels_last",
              "dilation_rate": [
                1,
                1
              ],
              "activation": "relu",
              "use_bias": true,
              "kernel_initializer": {
                "class_name": "VarianceScaling",
                "config": {
                  "scale": 1.0,
                  "mode": "fan_avg",
                  "distribution": "uniform",
                  "seed": null
                }
              },
              "bias_initializer": {
                "class_name": "Zeros",
                "config": {}
              },
              "kernel_regularizer": null,
              "bias_regularizer": null,
              "activity_regularizer": null,
              "kernel_constraint": null,
              "bias_constraint": null
            },
            "inbound_nodes": [
              [
                [
                  "stage_5/mid_conv2",
                  0,
                  0,
                  {}
                ]
              ]
            ]
          },
          {
            "name": "stage_5/mid_conv4",
            "class_name": "Conv2D",
            "config": {
              "name": "stage_5/mid_conv4",
              "trainable": true,
              "filters": 128,
              "kernel_size": [
                7,
                7
              ],
              "strides": [
                1,
                1
              ],
              "padding": "same",
              "data_format": "channels_last",
              "dilation_rate": [
                1,
                1
              ],
              "activation": "relu",
              "use_bias": true,
              "kernel_initializer": {
                "class_name": "VarianceScaling",
                "config": {
                  "scale": 1.0,
                  "mode": "fan_avg",
                  "distribution": "uniform",
                  "seed": null
                }
              },
              "bias_initializer": {
                "class_name": "Zeros",
                "config": {}
              },
              "kernel_regularizer": null,
              "bias_regularizer": null,
              "activity_regularizer": null,
              "kernel_constraint": null,
              "bias_constraint": null
            },
            "inbound_nodes": [
              [
                [
                  "stage_5/mid_conv3",
                  0,
                  0,
                  {}
                ]
              ]
            ]
          },
          {
            "name": "stage_5/mid_conv5",
            "class_name": "Conv2D",
            "config": {
              "name": "stage_5/mid_conv5",
              "trainable": true,
              "filters": 128,
              "kernel_size": [
                7,
                7
              ],
              "strides": [
                1,
                1
              ],
              "padding": "same",
              "data_format": "channels_last",
              "dilation_rate": [
                1,
                1
              ],
              "activation": "relu",
              "use_bias": true,
              "kernel_initializer": {
                "class_name": "VarianceScaling",
                "config": {
                  "scale": 1.0,
                  "mode": "fan_avg",
                  "distribution": "uniform",
                  "seed": null
                }
              },
              "bias_initializer": {
                "class_name": "Zeros",
                "config": {}
              },
              "kernel_regularizer": null,
              "bias_regularizer": null,
              "activity_regularizer": null,
              "kernel_constraint": null,
              "bias_constraint": null
            },
            "inbound_nodes": [
              [
                [
                  "stage_5/mid_conv4",
                  0,
                  0,
                  {}
                ]
              ]
            ]
          },
          {
            "name": "stage_5/mid_conv6",
            "class_name": "Conv2D",
            "config": {
              "name": "stage_5/mid_conv6",
              "trainable": true,
              "filters": 128,
              "kernel_size": [
                1,
                1
              ],
              "strides": [
                1,
                1
              ],
              "padding": "same",
              "data_format": "channels_last",
              "dilation_rate": [
                1,
                1
              ],
              "activation": "relu",
              "use_bias": true,
              "kernel_initializer": {
                "class_name": "VarianceScaling",
                "config": {
                  "scale": 1.0,
                  "mode": "fan_avg",
                  "distribution": "uniform",
                  "seed": null
                }
              },
              "bias_initializer": {
                "class_name": "Zeros",
                "config": {}
              },
              "kernel_regularizer": null,
              "bias_regularizer": null,
              "activity_regularizer": null,
              "kernel_constraint": null,
              "bias_constraint": null
            },
            "inbound_nodes": [
              [
                [
                  "stage_5/mid_conv5",
                  0,
                  0,
                  {}
                ]
              ]
            ]
          },
          {
            "name": "stage_5/mid_conv7",
            "class_name": "Conv2D",
            "config": {
              "name": "stage_5/mid_conv7",
              "trainable": true,
              "filters": 22,
              "kernel_size": [
                1,
                1
              ],
              "strides": [
                1,
                1
              ],
              "padding": "same",
              "data_format": "channels_last",
              "dilation_rate": [
                1,
                1
              ],
              "activation": "relu",
              "use_bias": true,
              "kernel_initializer": {
                "class_name": "VarianceScaling",
                "config": {
                  "scale": 1.0,
                  "mode": "fan_avg",
                  "distribution": "uniform",
                  "seed": null
                }
              },
              "bias_initializer": {
                "class_name": "Zeros",
                "config": {}
              },
              "kernel_regularizer": null,
              "bias_regularizer": null,
              "activity_regularizer": null,
              "kernel_constraint": null,
              "bias_constraint": null
            },
            "inbound_nodes": [
              [
                [
                  "stage_5/mid_conv6",
                  0,
                  0,
                  {}
                ]
              ]
            ]
          },
          {
            "name": "concatenate_5",
            "class_name": "Concatenate",
            "config": {
              "name": "concatenate_5",
              "trainable": true,
              "axis": 3
            },
            "inbound_nodes": [
              [
                [
                  "stage_5/mid_conv7",
                  0,
                  0,
                  {}
                ],
                [
                  "sub_stages/sub_stage_img_feature",
                  0,
                  0,
                  {}
                ]
              ]
            ]
          },
          {
            "name": "stage_6/mid_conv1",
            "class_name": "Conv2D",
            "config": {
              "name": "stage_6/mid_conv1",
              "trainable": true,
              "filters": 128,
              "kernel_size": [
                7,
                7
              ],
              "strides": [
                1,
                1
              ],
              "padding": "same",
              "data_format": "channels_last",
              "dilation_rate": [
                1,
                1
              ],
              "activation": "relu",
              "use_bias": true,
              "kernel_initializer": {
                "class_name": "VarianceScaling",
                "config": {
                  "scale": 1.0,
                  "mode": "fan_avg",
                  "distribution": "uniform",
                  "seed": null
                }
              },
              "bias_initializer": {
                "class_name": "Zeros",
                "config": {}
              },
              "kernel_regularizer": null,
              "bias_regularizer": null,
              "activity_regularizer": null,
              "kernel_constraint": null,
              "bias_constraint": null
            },
            "inbound_nodes": [
              [
                [
                  "concatenate_5",
                  0,
                  0,
                  {}
                ]
              ]
            ]
          },
          {
            "name": "stage_6/mid_conv2",
            "class_name": "Conv2D",
            "config": {
              "name": "stage_6/mid_conv2",
              "trainable": true,
              "filters": 128,
              "kernel_size": [
                7,
                7
              ],
              "strides": [
                1,
                1
              ],
              "padding": "same",
              "data_format": "channels_last",
              "dilation_rate": [
                1,
                1
              ],
              "activation": "relu",
              "use_bias": true,
              "kernel_initializer": {
                "class_name": "VarianceScaling",
                "config": {
                  "scale": 1.0,
                  "mode": "fan_avg",
                  "distribution": "uniform",
                  "seed": null
                }
              },
              "bias_initializer": {
                "class_name": "Zeros",
                "config": {}
              },
              "kernel_regularizer": null,
              "bias_regularizer": null,
              "activity_regularizer": null,
              "kernel_constraint": null,
              "bias_constraint": null
            },
            "inbound_nodes": [
              [
                [
                  "stage_6/mid_conv1",
                  0,
                  0,
                  {}
                ]
              ]
            ]
          },
          {
            "name": "stage_6/mid_conv3",
            "class_name": "Conv2D",
            "config": {
              "name": "stage_6/mid_conv3",
              "trainable": true,
              "filters": 128,
              "kernel_size": [
                7,
                7
              ],
              "strides": [
                1,
                1
              ],
              "padding": "same",
              "data_format": "channels_last",
              "dilation_rate": [
                1,
                1
              ],
              "activation": "relu",
              "use_bias": true,
              "kernel_initializer": {
                "class_name": "VarianceScaling",
                "config": {
                  "scale": 1.0,
                  "mode": "fan_avg",
                  "distribution": "uniform",
                  "seed": null
                }
              },
              "bias_initializer": {
                "class_name": "Zeros",
                "config": {}
              },
              "kernel_regularizer": null,
              "bias_regularizer": null,
              "activity_regularizer": null,
              "kernel_constraint": null,
              "bias_constraint": null
            },
            "inbound_nodes": [
              [
                [
                  "stage_6/mid_conv2",
                  0,
                  0,
                  {}
                ]
              ]
            ]
          },
          {
            "name": "stage_6/mid_conv4",
            "class_name": "Conv2D",
            "config": {
              "name": "stage_6/mid_conv4",
              "trainable": true,
              "filters": 128,
              "kernel_size": [
                7,
                7
              ],
              "strides": [
                1,
                1
              ],
              "padding": "same",
              "data_format": "channels_last",
              "dilation_rate": [
                1,
                1
              ],
              "activation": "relu",
              "use_bias": true,
              "kernel_initializer": {
                "class_name": "VarianceScaling",
                "config": {
                  "scale": 1.0,
                  "mode": "fan_avg",
                  "distribution": "uniform",
                  "seed": null
                }
              },
              "bias_initializer": {
                "class_name": "Zeros",
                "config": {}
              },
              "kernel_regularizer": null,
              "bias_regularizer": null,
              "activity_regularizer": null,
              "kernel_constraint": null,
              "bias_constraint": null
            },
            "inbound_nodes": [
              [
                [
                  "stage_6/mid_conv3",
                  0,
                  0,
                  {}
                ]
              ]
            ]
          },
          {
            "name": "stage_6/mid_conv5",
            "class_name": "Conv2D",
            "config": {
              "name": "stage_6/mid_conv5",
              "trainable": true,
              "filters": 128,
              "kernel_size": [
                7,
                7
              ],
              "strides": [
                1,
                1
              ],
              "padding": "same",
              "data_format": "channels_last",
              "dilation_rate": [
                1,
                1
              ],
              "activation": "relu",
              "use_bias": true,
              "kernel_initializer": {
                "class_name": "VarianceScaling",
                "config": {
                  "scale": 1.0,
                  "mode": "fan_avg",
                  "distribution": "uniform",
                  "seed": null
                }
              },
              "bias_initializer": {
                "class_name": "Zeros",
                "config": {}
              },
              "kernel_regularizer": null,
              "bias_regularizer": null,
              "activity_regularizer": null,
              "kernel_constraint": null,
              "bias_constraint": null
            },
            "inbound_nodes": [
              [
                [
                  "stage_6/mid_conv4",
                  0,
                  0,
                  {}
                ]
              ]
            ]
          },
          {
            "name": "stage_6/mid_conv6",
            "class_name": "Conv2D",
            "config": {
              "name": "stage_6/mid_conv6",
              "trainable": true,
              "filters": 128,
              "kernel_size": [
                1,
                1
              ],
              "strides": [
                1,
                1
              ],
              "padding": "same",
              "data_format": "channels_last",
              "dilation_rate": [
                1,
                1
              ],
              "activation": "relu",
              "use_bias": true,
              "kernel_initializer": {
                "class_name": "VarianceScaling",
                "config": {
                  "scale": 1.0,
                  "mode": "fan_avg",
                  "distribution": "uniform",
                  "seed": null
                }
              },
              "bias_initializer": {
                "class_name": "Zeros",
                "config": {}
              },
              "kernel_regularizer": null,
              "bias_regularizer": null,
              "activity_regularizer": null,
              "kernel_constraint": null,
              "bias_constraint": null
            },
            "inbound_nodes": [
              [
                [
                  "stage_6/mid_conv5",
                  0,
                  0,
                  {}
                ]
              ]
            ]
          },
          {
            "name": "stage_6/mid_conv7",
            "class_name": "Conv2D",
            "config": {
              "name": "stage_6/mid_conv7",
              "trainable": true,
              "filters": 22,
              "kernel_size": [
                1,
                1
              ],
              "strides": [
                1,
                1
              ],
              "padding": "same",
              "data_format": "channels_last",
              "dilation_rate": [
                1,
                1
              ],
              "activation": "relu",
              "use_bias": true,
              "kernel_initializer": {
                "class_name": "VarianceScaling",
                "config": {
                  "scale": 1.0,
                  "mode": "fan_avg",
                  "distribution": "uniform",
                  "seed": null
                }
              },
              "bias_initializer": {
                "class_name": "Zeros",
                "config": {}
              },
              "kernel_regularizer": null,
              "bias_regularizer": null,
              "activity_regularizer": null,
              "kernel_constraint": null,
              "bias_constraint": null
            },
            "inbound_nodes": [
              [
                [
                  "stage_6/mid_conv6",
                  0,
                  0,
                  {}
                ]
              ]
            ]
          }
        ],
        "input_layers": [
          [
            "input_1",
            0,
            0
          ]
        ],
        "output_layers": [
          [
            "stage_1/stage_heatmap",
            0,
            0
          ],
          [
            "stage_2/mid_conv7",
            0,
            0
          ],
          [
            "stage_3/mid_conv7",
            0,
            0
          ],
          [
            "stage_4/mid_conv7",
            0,
            0
          ],
          [
            "stage_5/mid_conv7",
            0,
            0
          ],
          [
            "stage_6/mid_conv7",
            0,
            0
          ]
        ]
      }
    },
    "training_config": {
      "optimizer_config": {
        "class_name": "RMSprop",
        "config": {
          "lr": 0.0010000000474974513,
          "rho": 0.8999999761581421,
          "decay": 0.0,
          "epsilon": 1e-07
        }
      },
      "loss": "categorical_crossentropy",
      "metrics": [
        "accuracy"
      ],
      "sample_weight_mode": null,
      "loss_weights": null
    }
  },
  "weightsManifest": [
    {
      "paths": [
        "group1-shard1of18.bin",
        "group1-shard2of18.bin",
        "group1-shard3of18.bin",
        "group1-shard4of18.bin",
        "group1-shard5of18.bin",
        "group1-shard6of18.bin",
        "group1-shard7of18.bin",
        "group1-shard8of18.bin",
        "group1-shard9of18.bin",
        "group1-shard10of18.bin",
        "group1-shard11of18.bin",
        "group1-shard12of18.bin",
        "group1-shard13of18.bin",
        "group1-shard14of18.bin",
        "group1-shard15of18.bin",
        "group1-shard16of18.bin",
        "group1-shard17of18.bin",
        "group1-shard18of18.bin"
      ],
      "weights": [
        {
          "name": "stage_1/conv1/kernel",
          "shape": [
            1,
            1,
            128,
            512
          ],
          "dtype": "float32",
          "quantization": {
            "min": -0.21440286643242068,
            "scale": 6.325128077187381e-06,
            "dtype": "uint16"
          }
        },
        {
          "name": "stage_1/conv1/bias",
          "shape": [
            512
          ],
          "dtype": "float32",
          "quantization": {
            "min": -0.18704963685073395,
            "scale": 3.9915844060249235e-06,
            "dtype": "uint16"
          }
        },
        {
          "name": "stage_1/stage_heatmap/kernel",
          "shape": [
            1,
            1,
            512,
            22
          ],
          "dtype": "float32",
          "quantization": {
            "min": -0.32346663640930984,
            "scale": 1.2182383112733875e-05,
            "dtype": "uint16"
          }
        },
        {
          "name": "stage_1/stage_heatmap/bias",
          "shape": [
            22
          ],
          "dtype": "float32",
          "quantization": {
            "min": -0.0017775876217978543,
            "scale": 2.4244239249834346e-07,
            "dtype": "uint16"
          }
        },
        {
          "name": "stage_2/mid_conv1/kernel",
          "shape": [
            7,
            7,
            150,
            128
          ],
          "dtype": "float32",
          "quantization": {
            "min": -0.16209300233350607,
            "scale": 6.2393857474693435e-06,
            "dtype": "uint16"
          }
        },
        {
          "name": "stage_2/mid_conv1/bias",
          "shape": [
            128
          ],
          "dtype": "float32",
          "quantization": {
            "min": -0.5753850611053652,
            "scale": 1.1547887871901522e-05,
            "dtype": "uint16"
          }
        },
        {
          "name": "stage_2/mid_conv2/kernel",
          "shape": [
            7,
            7,
            128,
            128
          ],
          "dtype": "float32",
          "quantization": {
            "min": -0.20126446566283773,
            "scale": 8.248881743630383e-06,
            "dtype": "uint16"
          }
        },
        {
          "name": "stage_2/mid_conv2/bias",
          "shape": [
            128
          ],
          "dtype": "float32",
          "quantization": {
            "min": -0.4874689038125258,
            "scale": 1.7363095416296554e-05,
            "dtype": "uint16"
          }
        },
        {
          "name": "stage_2/mid_conv3/kernel",
          "shape": [
            7,
            7,
            128,
            128
          ],
          "dtype": "float32",
          "quantization": {
            "min": -0.29494261362373103,
            "scale": 1.570514449540634e-05,
            "dtype": "uint16"
          }
        },
        {
          "name": "stage_2/mid_conv3/bias",
          "shape": [
            128
          ],
          "dtype": "float32",
          "quantization": {
            "min": -0.6946054602434208,
            "scale": 1.7493274743582262e-05,
            "dtype": "uint16"
          }
        },
        {
          "name": "stage_2/mid_conv4/kernel",
          "shape": [
            7,
            7,
            128,
            128
          ],
          "dtype": "float32",
          "quantization": {
            "min": -0.21711530394245634,
            "scale": 1.1035085333797019e-05,
            "dtype": "uint16"
          }
        },
        {
          "name": "stage_2/mid_conv4/bias",
          "shape": [
            128
          ],
          "dtype": "float32",
          "quantization": {
            "min": -0.6869539980794869,
            "scale": 2.4981053786664494e-05,
            "dtype": "uint16"
          }
        },
        {
          "name": "stage_2/mid_conv5/kernel",
          "shape": [
            7,
            7,
            128,
            128
          ],
          "dtype": "float32",
          "quantization": {
            "min": -0.2651849495652448,
            "scale": 8.219730629385804e-06,
            "dtype": "uint16"
          }
        },
        {
          "name": "stage_2/mid_conv5/bias",
          "shape": [
            128
          ],
          "dtype": "float32",
          "quantization": {
            "min": -2.903739631753533,
            "scale": 6.161389474948084e-05,
            "dtype": "uint16"
          }
        },
        {
          "name": "stage_2/mid_conv6/kernel",
          "shape": [
            1,
            1,
            128,
            128
          ],
          "dtype": "float32",
          "quantization": {
            "min": -0.30260522182940747,
            "scale": 7.612901502664405e-06,
            "dtype": "uint16"
          }
        },
        {
          "name": "stage_2/mid_conv6/bias",
          "shape": [
            128
          ],
          "dtype": "float32",
          "quantization": {
            "min": -0.9662658628541017,
            "scale": 2.5226239109599564e-05,
            "dtype": "uint16"
          }
        },
        {
          "name": "stage_2/mid_conv7/kernel",
          "shape": [
            1,
            1,
            128,
            22
          ],
          "dtype": "float32",
          "quantization": {
            "min": -0.3489095728748622,
            "scale": 9.541129723942743e-06,
            "dtype": "uint16"
          }
        },
        {
          "name": "stage_2/mid_conv7/bias",
          "shape": [
            22
          ],
          "dtype": "float32",
          "quantization": {
            "min": -0.008352263265072577,
            "scale": 8.750406773255711e-07,
            "dtype": "uint16"
          }
        },
        {
          "name": "stage_3/mid_conv1/kernel",
          "shape": [
            7,
            7,
            150,
            128
          ],
          "dtype": "float32",
          "quantization": {
            "min": -0.16277942452285568,
            "scale": 6.874131103161135e-06,
            "dtype": "uint16"
          }
        },
        {
          "name": "stage_3/mid_conv1/bias",
          "shape": [
            128
          ],
          "dtype": "float32",
          "quantization": {
            "min": -0.4780014756001988,
            "scale": 9.543805043430144e-06,
            "dtype": "uint16"
          }
        },
        {
          "name": "stage_3/mid_conv2/kernel",
          "shape": [
            7,
            7,
            128,
            128
          ],
          "dtype": "float32",
          "quantization": {
            "min": -0.17360537292560396,
            "scale": 5.5741009126859515e-06,
            "dtype": "uint16"
          }
        },
        {
          "name": "stage_3/mid_conv2/bias",
          "shape": [
            128
          ],
          "dtype": "float32",
          "quantization": {
            "min": -0.33351179884947474,
            "scale": 1.0932662389348808e-05,
            "dtype": "uint16"
          }
        },
        {
          "name": "stage_3/mid_conv3/kernel",
          "shape": [
            7,
            7,
            128,
            128
          ],
          "dtype": "float32",
          "quantization": {
            "min": -0.21396978595459262,
            "scale": 9.352643848002126e-06,
            "dtype": "uint16"
          }
        },
        {
          "name": "stage_3/mid_conv3/bias",
          "shape": [
            128
          ],
          "dtype": "float32",
          "quantization": {
            "min": -0.4676032875530451,
            "scale": 1.2847303007199634e-05,
            "dtype": "uint16"
          }
        },
        {
          "name": "stage_3/mid_conv4/kernel",
          "shape": [
            7,
            7,
            128,
            128
          ],
          "dtype": "float32",
          "quantization": {
            "min": -0.16871214616286853,
            "scale": 7.0549530050543e-06,
            "dtype": "uint16"
          }
        },
        {
          "name": "stage_3/mid_conv4/bias",
          "shape": [
            128
          ],
          "dtype": "float32",
          "quantization": {
            "min": -0.661902154354188,
            "scale": 2.126183400321827e-05,
            "dtype": "uint16"
          }
        },
        {
          "name": "stage_3/mid_conv5/kernel",
          "shape": [
            7,
            7,
            128,
            128
          ],
          "dtype": "float32",
          "quantization": {
            "min": -0.19636443153511443,
            "scale": 7.784825227367366e-06,
            "dtype": "uint16"
          }
        },
        {
          "name": "stage_3/mid_conv5/bias",
          "shape": [
            128
          ],
          "dtype": "float32",
          "quantization": {
            "min": -2.455409406042212,
            "scale": 5.378536331468965e-05,
            "dtype": "uint16"
          }
        },
        {
          "name": "stage_3/mid_conv6/kernel",
          "shape": [
            1,
            1,
            128,
            128
          ],
          "dtype": "float32",
          "quantization": {
            "min": -0.3127890154531766,
            "scale": 7.735218128277979e-06,
            "dtype": "uint16"
          }
        },
        {
          "name": "stage_3/mid_conv6/bias",
          "shape": [
            128
          ],
          "dtype": "float32",
          "quantization": {
            "min": -0.6533646816832437,
            "scale": 1.7102444354716742e-05,
            "dtype": "uint16"
          }
        },
        {
          "name": "stage_3/mid_conv7/kernel",
          "shape": [
            1,
            1,
            128,
            22
          ],
          "dtype": "float32",
          "quantization": {
            "min": -0.2934251779698485,
            "scale": 1.1008260287745208e-05,
            "dtype": "uint16"
          }
        },
        {
          "name": "stage_3/mid_conv7/bias",
          "shape": [
            22
          ],
          "dtype": "float32",
          "quantization": {
            "min": -0.08511424530469472,
            "scale": 1.3644914121115572e-06,
            "dtype": "uint16"
          }
        },
        {
          "name": "stage_4/mid_conv1/kernel",
          "shape": [
            7,
            7,
            150,
            128
          ],
          "dtype": "float32",
          "quantization": {
            "min": -0.1255972497548902,
            "scale": 6.95598414681492e-06,
            "dtype": "uint16"
          }
        },
        {
          "name": "stage_4/mid_conv1/bias",
          "shape": [
            128
          ],
          "dtype": "float32",
          "quantization": {
            "min": -0.21655723327988116,
            "scale": 6.1579672215395445e-06,
            "dtype": "uint16"
          }
        },
        {
          "name": "stage_4/mid_conv2/kernel",
          "shape": [
            7,
            7,
            128,
            128
          ],
          "dtype": "float32",
          "quantization": {
            "min": -0.1323177746270499,
            "scale": 5.2515389199495916e-06,
            "dtype": "uint16"
          }
        },
        {
          "name": "stage_4/mid_conv2/bias",
          "shape": [
            128
          ],
          "dtype": "float32",
          "quantization": {
            "min": -0.26906197372645746,
            "scale": 7.499985330354215e-06,
            "dtype": "uint16"
          }
        },
        {
          "name": "stage_4/mid_conv3/kernel",
          "shape": [
            7,
            7,
            128,
            128
          ],
          "dtype": "float32",
          "quantization": {
            "min": -0.12256624753243538,
            "scale": 6.987415058003271e-06,
            "dtype": "uint16"
          }
        },
        {
          "name": "stage_4/mid_conv3/bias",
          "shape": [
            128
          ],
          "dtype": "float32",
          "quantization": {
            "min": -0.3843550839790301,
            "scale": 9.146738154233125e-06,
            "dtype": "uint16"
          }
        },
        {
          "name": "stage_4/mid_conv4/kernel",
          "shape": [
            7,
            7,
            128,
            128
          ],
          "dtype": "float32",
          "quantization": {
            "min": -0.17334819658016135,
            "scale": 8.76602763995759e-06,
            "dtype": "uint16"
          }
        },
        {
          "name": "stage_4/mid_conv4/bias",
          "shape": [
            128
          ],
          "dtype": "float32",
          "quantization": {
            "min": -0.5618937032914156,
            "scale": 1.535102869413479e-05,
            "dtype": "uint16"
          }
        },
        {
          "name": "stage_4/mid_conv5/kernel",
          "shape": [
            7,
            7,
            128,
            128
          ],
          "dtype": "float32",
          "quantization": {
            "min": -0.22875214683897682,
            "scale": 6.956547360002944e-06,
            "dtype": "uint16"
          }
        },
        {
          "name": "stage_4/mid_conv5/bias",
          "shape": [
            128
          ],
          "dtype": "float32",
          "quantization": {
            "min": -2.8781061314805254,
            "scale": 5.6721509853580444e-05,
            "dtype": "uint16"
          }
        },
        {
          "name": "stage_4/mid_conv6/kernel",
          "shape": [
            1,
            1,
            128,
            128
          ],
          "dtype": "float32",
          "quantization": {
            "min": -0.2741208247523782,
            "scale": 7.669646197710701e-06,
            "dtype": "uint16"
          }
        },
        {
          "name": "stage_4/mid_conv6/bias",
          "shape": [
            128
          ],
          "dtype": "float32",
          "quantization": {
            "min": -0.6439942707497567,
            "scale": 1.6469178087352805e-05,
            "dtype": "uint16"
          }
        },
        {
          "name": "stage_4/mid_conv7/kernel",
          "shape": [
            1,
            1,
            128,
            22
          ],
          "dtype": "float32",
          "quantization": {
            "min": -0.22681174455977254,
            "scale": 1.0244895639359165e-05,
            "dtype": "uint16"
          }
        },
        {
          "name": "stage_4/mid_conv7/bias",
          "shape": [
            22
          ],
          "dtype": "float32",
          "quantization": {
            "min": -0.1552416103275481,
            "scale": 2.414445624641089e-06,
            "dtype": "uint16"
          }
        },
        {
          "name": "stage_5/mid_conv1/kernel",
          "shape": [
            7,
            7,
            150,
            128
          ],
          "dtype": "float32",
          "quantization": {
            "min": -0.135023534868205,
            "scale": 6.835942429536503e-06,
            "dtype": "uint16"
          }
        },
        {
          "name": "stage_5/mid_conv1/bias",
          "shape": [
            128
          ],
          "dtype": "float32",
          "quantization": {
            "min": -0.2950587494706247,
            "scale": 6.377580232802869e-06,
            "dtype": "uint16"
          }
        },
        {
          "name": "stage_5/mid_conv2/kernel",
          "shape": [
            7,
            7,
            128,
            128
          ],
          "dtype": "float32",
          "quantization": {
            "min": -0.1710490876039233,
            "scale": 5.885661262264238e-06,
            "dtype": "uint16"
          }
        },
        {
          "name": "stage_5/mid_conv2/bias",
          "shape": [
            128
          ],
          "dtype": "float32",
          "quantization": {
            "min": -0.24018699006047667,
            "scale": 7.480596426450625e-06,
            "dtype": "uint16"
          }
        },
        {
          "name": "stage_5/mid_conv3/kernel",
          "shape": [
            7,
            7,
            128,
            128
          ],
          "dtype": "float32",
          "quantization": {
            "min": -0.1998426879394552,
            "scale": 1.0021195864981206e-05,
            "dtype": "uint16"
          }
        },
        {
          "name": "stage_5/mid_conv3/bias",
          "shape": [
            128
          ],
          "dtype": "float32",
          "quantization": {
            "min": -0.37992920803379815,
            "scale": 9.998400169314933e-06,
            "dtype": "uint16"
          }
        },
        {
          "name": "stage_5/mid_conv4/kernel",
          "shape": [
            7,
            7,
            128,
            128
          ],
          "dtype": "float32",
          "quantization": {
            "min": -0.13961762597256744,
            "scale": 7.629795397156535e-06,
            "dtype": "uint16"
          }
        },
        {
          "name": "stage_5/mid_conv4/bias",
          "shape": [
            128
          ],
          "dtype": "float32",
          "quantization": {
            "min": -0.6988423002260068,
            "scale": 2.320501727407381e-05,
            "dtype": "uint16"
          }
        },
        {
          "name": "stage_5/mid_conv5/kernel",
          "shape": [
            7,
            7,
            128,
            128
          ],
          "dtype": "float32",
          "quantization": {
            "min": -0.15901139314541002,
            "scale": 7.4572711694137795e-06,
            "dtype": "uint16"
          }
        },
        {
          "name": "stage_5/mid_conv5/bias",
          "shape": [
            128
          ],
          "dtype": "float32",
          "quantization": {
            "min": -1.763770198180818,
            "scale": 3.760784234590968e-05,
            "dtype": "uint16"
          }
        },
        {
          "name": "stage_5/mid_conv6/kernel",
          "shape": [
            1,
            1,
            128,
            128
          ],
          "dtype": "float32",
          "quantization": {
            "min": -0.3374897354480612,
            "scale": 8.75141934052643e-06,
            "dtype": "uint16"
          }
        },
        {
          "name": "stage_5/mid_conv6/bias",
          "shape": [
            128
          ],
          "dtype": "float32",
          "quantization": {
            "min": -0.6344606525316622,
            "scale": 1.5787708774769507e-05,
            "dtype": "uint16"
          }
        },
        {
          "name": "stage_5/mid_conv7/kernel",
          "shape": [
            1,
            1,
            128,
            22
          ],
          "dtype": "float32",
          "quantization": {
            "min": -0.36980223709816445,
            "scale": 1.138904333532998e-05,
            "dtype": "uint16"
          }
        },
        {
          "name": "stage_5/mid_conv7/bias",
          "shape": [
            22
          ],
          "dtype": "float32",
          "quantization": {
            "min": -0.012355917276531922,
            "scale": 2.0061564014502228e-07,
            "dtype": "uint16"
          }
        },
        {
          "name": "stage_6/mid_conv1/kernel",
          "shape": [
            7,
            7,
            150,
            128
          ],
          "dtype": "float32",
          "quantization": {
            "min": -0.12270281425900852,
            "scale": 7.071393168453695e-06,
            "dtype": "uint16"
          }
        },
        {
          "name": "stage_6/mid_conv1/bias",
          "shape": [
            128
          ],
          "dtype": "float32",
          "quantization": {
            "min": -0.2095609678032106,
            "scale": 5.840443906335124e-06,
            "dtype": "uint16"
          }
        },
        {
          "name": "stage_6/mid_conv2/kernel",
          "shape": [
            7,
            7,
            128,
            128
          ],
          "dtype": "float32",
          "quantization": {
            "min": -0.10565909233825051,
            "scale": 7.839374709767808e-06,
            "dtype": "uint16"
          }
        },
        {
          "name": "stage_6/mid_conv2/bias",
          "shape": [
            128
          ],
          "dtype": "float32",
          "quantization": {
            "min": -0.18417197938272625,
            "scale": 6.7514197508239396e-06,
            "dtype": "uint16"
          }
        },
        {
          "name": "stage_6/mid_conv3/kernel",
          "shape": [
            7,
            7,
            128,
            128
          ],
          "dtype": "float32",
          "quantization": {
            "min": -0.13143156810616105,
            "scale": 6.716314993416171e-06,
            "dtype": "uint16"
          }
        },
        {
          "name": "stage_6/mid_conv3/bias",
          "shape": [
            128
          ],
          "dtype": "float32",
          "quantization": {
            "min": -0.21684602397234168,
            "scale": 8.062089600042446e-06,
            "dtype": "uint16"
          }
        },
        {
          "name": "stage_6/mid_conv4/kernel",
          "shape": [
            7,
            7,
            128,
            128
          ],
          "dtype": "float32",
          "quantization": {
            "min": -0.1135865323233588,
            "scale": 5.130376347035176e-06,
            "dtype": "uint16"
          }
        },
        {
          "name": "stage_6/mid_conv4/bias",
          "shape": [
            128
          ],
          "dtype": "float32",
          "quantization": {
            "min": -0.43641666308906013,
            "scale": 2.2107120363155874e-05,
            "dtype": "uint16"
          }
        },
        {
          "name": "stage_6/mid_conv5/kernel",
          "shape": [
            7,
            7,
            128,
            128
          ],
          "dtype": "float32",
          "quantization": {
            "min": -0.12656323319465718,
            "scale": 4.1669651728396e-06,
            "dtype": "uint16"
          }
        },
        {
          "name": "stage_6/mid_conv5/bias",
          "shape": [
            128
          ],
          "dtype": "float32",
          "quantization": {
            "min": -1.629577091843074,
            "scale": 3.467996960656907e-05,
            "dtype": "uint16"
          }
        },
        {
          "name": "stage_6/mid_conv6/kernel",
          "shape": [
            1,
            1,
            128,
            128
          ],
          "dtype": "float32",
          "quantization": {
            "min": -0.28086789858403066,
            "scale": 8.080901648129317e-06,
            "dtype": "uint16"
          }
        },
        {
          "name": "stage_6/mid_conv6/bias",
          "shape": [
            128
          ],
          "dtype": "float32",
          "quantization": {
            "min": -0.08461973498430933,
            "scale": 5.725673928162212e-06,
            "dtype": "uint16"
          }
        },
        {
          "name": "stage_6/mid_conv7/kernel",
          "shape": [
            1,
            1,
            128,
            22
          ],
          "dtype": "float32",
          "quantization": {
            "min": -0.15170874584909888,
            "scale": 6.892092760725917e-06,
            "dtype": "uint16"
          }
        },
        {
          "name": "stage_6/mid_conv7/bias",
          "shape": [
            22
          ],
          "dtype": "float32",
          "quantization": {
            "min": -0.00031520700041645807,
            "scale": 3.557641088221874e-08,
            "dtype": "uint16"
          }
        },
        {
          "name": "sub_stages/sub_conv1/kernel",
          "shape": [
            3,
            3,
            3,
            64
          ],
          "dtype": "float32",
          "quantization": {
            "min": -0.9147137604580505,
            "scale": 2.564378358447016e-05,
            "dtype": "uint16"
          }
        },
        {
          "name": "sub_stages/sub_conv1/bias",
          "shape": [
            64
          ],
          "dtype": "float32",
          "quantization": {
            "min": -0.6130975579473296,
            "scale": 2.064510078281744e-05,
            "dtype": "uint16"
          }
        },
        {
          "name": "sub_stages/sub_conv10/kernel",
          "shape": [
            3,
            3,
            512,
            512
          ],
          "dtype": "float32",
          "quantization": {
            "min": -0.14977738367908194,
            "scale": 8.42297737482184e-06,
            "dtype": "uint16"
          }
        },
        {
          "name": "sub_stages/sub_conv10/bias",
          "shape": [
            512
          ],
          "dtype": "float32",
          "quantization": {
            "min": -0.09503694635020737,
            "scale": 5.3845295382553754e-06,
            "dtype": "uint16"
          }
        },
        {
          "name": "sub_stages/sub_conv11/kernel",
          "shape": [
            3,
            3,
            512,
            512
          ],
          "dtype": "float32",
          "quantization": {
            "min": -0.14970111387303667,
            "scale": 7.940018769122556e-06,
            "dtype": "uint16"
          }
        },
        {
          "name": "sub_stages/sub_conv11/bias",
          "shape": [
            512
          ],
          "dtype": "float32",
          "quantization": {
            "min": -0.25466477562504064,
            "scale": 6.607289926187392e-06,
            "dtype": "uint16"
          }
        },
        {
          "name": "sub_stages/sub_conv12/kernel",
          "shape": [
            3,
            3,
            512,
            512
          ],
          "dtype": "float32",
          "quantization": {
            "min": -0.18251157610314728,
            "scale": 6.369497316365858e-06,
            "dtype": "uint16"
          }
        },
        {
          "name": "sub_stages/sub_conv12/bias",
          "shape": [
            512
          ],
          "dtype": "float32",
          "quantization": {
            "min": -0.22123353189067618,
            "scale": 8.153970657919658e-06,
            "dtype": "uint16"
          }
        },
        {
          "name": "sub_stages/sub_conv13/kernel",
          "shape": [
            3,
            3,
            512,
            512
          ],
          "dtype": "float32",
          "quantization": {
            "min": -0.1492877174044052,
            "scale": 7.297991660363962e-06,
            "dtype": "uint16"
          }
        },
        {
          "name": "sub_stages/sub_conv13/bias",
          "shape": [
            512
          ],
          "dtype": "float32",
          "quantization": {
            "min": -0.443570117542252,
            "scale": 1.1996487289851306e-05,
            "dtype": "uint16"
          }
        },
        {
          "name": "sub_stages/sub_conv14/kernel",
          "shape": [
            3,
            3,
            512,
            512
          ],
          "dtype": "float32",
          "quantization": {
            "min": -0.18660000324694928,
            "scale": 8.141716621447239e-06,
            "dtype": "uint16"
          }
        },
        {
          "name": "sub_stages/sub_conv14/bias",
          "shape": [
            512
          ],
          "dtype": "float32",
          "quantization": {
            "min": -0.7035179795922007,
            "scale": 1.667380796796153e-05,
            "dtype": "uint16"
          }
        },
        {
          "name": "sub_stages/sub_conv2/kernel",
          "shape": [
            3,
            3,
            64,
            64
          ],
          "dtype": "float32",
          "quantization": {
            "min": -0.24714104655729038,
            "scale": 8.200041360273744e-06,
            "dtype": "uint16"
          }
        },
        {
          "name": "sub_stages/sub_conv2/bias",
          "shape": [
            64
          ],
          "dtype": "float32",
          "quantization": {
            "min": -1.2477203381473563,
            "scale": 2.675329855798611e-05,
            "dtype": "uint16"
          }
        },
        {
          "name": "sub_stages/sub_conv3/kernel",
          "shape": [
            3,
            3,
            64,
            128
          ],
          "dtype": "float32",
          "quantization": {
            "min": -0.5245764365283178,
            "scale": 1.6103156818772033e-05,
            "dtype": "uint16"
          }
        },
        {
          "name": "sub_stages/sub_conv3/bias",
          "shape": [
            128
          ],
          "dtype": "float32",
          "quantization": {
            "min": -0.5182286665415412,
            "scale": 1.555074768316703e-05,
            "dtype": "uint16"
          }
        },
        {
          "name": "sub_stages/sub_conv4/kernel",
          "shape": [
            3,
            3,
            128,
            128
          ],
          "dtype": "float32",
          "quantization": {
            "min": -0.2789455758613062,
            "scale": 9.843169337707971e-06,
            "dtype": "uint16"
          }
        },
        {
          "name": "sub_stages/sub_conv4/bias",
          "shape": [
            128
          ],
          "dtype": "float32",
          "quantization": {
            "min": -0.879238947849211,
            "scale": 3.144856384037524e-05,
            "dtype": "uint16"
          }
        },
        {
          "name": "sub_stages/sub_conv5/kernel",
          "shape": [
            3,
            3,
            128,
            256
          ],
          "dtype": "float32",
          "quantization": {
            "min": -0.32044987540828235,
            "scale": 1.6512927723811313e-05,
            "dtype": "uint16"
          }
        },
        {
          "name": "sub_stages/sub_conv5/bias",
          "shape": [
            256
          ],
          "dtype": "float32",
          "quantization": {
            "min": -0.4286592141472521,
            "scale": 1.86576371772471e-05,
            "dtype": "uint16"
          }
        },
        {
          "name": "sub_stages/sub_conv6/kernel",
          "shape": [
            3,
            3,
            256,
            256
          ],
          "dtype": "float32",
          "quantization": {
            "min": -0.18528953411467808,
            "scale": 1.348246628208383e-05,
            "dtype": "uint16"
          }
        },
        {
          "name": "sub_stages/sub_conv6/bias",
          "shape": [
            256
          ],
          "dtype": "float32",
          "quantization": {
            "min": -0.44755967625438775,
            "scale": 1.5399108046187302e-05,
            "dtype": "uint16"
          }
        },
        {
          "name": "sub_stages/sub_conv7/kernel",
          "shape": [
            3,
            3,
            256,
            256
          ],
          "dtype": "float32",
          "quantization": {
            "min": -0.1440478457860291,
            "scale": 5.420222975091403e-06,
            "dtype": "uint16"
          }
        },
        {
          "name": "sub_stages/sub_conv7/bias",
          "shape": [
            256
          ],
          "dtype": "float32",
          "quantization": {
            "min": -0.404948342584987,
            "scale": 1.4577498923106916e-05,
            "dtype": "uint16"
          }
        },
        {
          "name": "sub_stages/sub_conv8/kernel",
          "shape": [
            3,
            3,
            256,
            256
          ],
          "dtype": "float32",
          "quantization": {
            "min": -0.16147228692210383,
            "scale": 5.963668448888456e-06,
            "dtype": "uint16"
          }
        },
        {
          "name": "sub_stages/sub_conv8/bias",
          "shape": [
            256
          ],
          "dtype": "float32",
          "quantization": {
            "min": -0.13021271633157797,
            "scale": 7.3417183317308286e-06,
            "dtype": "uint16"
          }
        },
        {
          "name": "sub_stages/sub_conv9/kernel",
          "shape": [
            3,
            3,
            256,
            512
          ],
          "dtype": "float32",
          "quantization": {
            "min": -0.2201441235465717,
            "scale": 7.734668102964363e-06,
            "dtype": "uint16"
          }
        },
        {
          "name": "sub_stages/sub_conv9/bias",
          "shape": [
            512
          ],
          "dtype": "float32",
          "quantization": {
            "min": -0.0999151078484338,
            "scale": 5.095110038165925e-06,
            "dtype": "uint16"
          }
        },
        {
          "name": "sub_stages/sub_stage_img_feature/kernel",
          "shape": [
            3,
            3,
            512,
            128
          ],
          "dtype": "float32",
          "quantization": {
            "min": -0.16994250297860167,
            "scale": 6.393382603310699e-06,
            "dtype": "uint16"
          }
        },
        {
          "name": "sub_stages/sub_stage_img_feature/bias",
          "shape": [
            128
          ],
          "dtype": "float32",
          "quantization": {
            "min": -1.0704760448484898,
            "scale": 1.9862251504749787e-05,
            "dtype": "uint16"
          }
        }
      ]
    }
  ]
}
