{"format": "graph-model", "generatedBy": "1.15.0", "convertedBy": "TensorFlow.js Converter v1.2.10.1", "modelTopology": {"node": [{"name": "mb/Openpose/MConv_Stage6_L2_1_depthwise/depthwise_weights", "op": "Const", "attr": {"value": {"tensor": {"dtype": "DT_FLOAT", "tensorShape": {"dim": [{"size": "3"}, {"size": "3"}, {"size": "924"}, {"size": "1"}]}}}, "dtype": {"type": "DT_FLOAT"}}}, {"name": "mb/Openpose/MConv_Stage6_L2_2_depthwise/depthwise_weights", "op": "Const", "attr": {"value": {"tensor": {"dtype": "DT_FLOAT", "tensorShape": {"dim": [{"size": "3"}, {"size": "3"}, {"size": "64"}, {"size": "1"}]}}}, "dtype": {"type": "DT_FLOAT"}}}, {"name": "mb/Openpose/MConv_Stage6_L2_3_depthwise/depthwise_weights", "op": "Const", "attr": {"value": {"tensor": {"dtype": "DT_FLOAT", "tensorShape": {"dim": [{"size": "3"}, {"size": "3"}, {"size": "64"}, {"size": "1"}]}}}, "dtype": {"type": "DT_FLOAT"}}}, {"name": "mb/Openpose/MConv_Stage6_L2_4_depthwise/depthwise_weights", "op": "Const", "attr": {"value": {"tensor": {"dtype": "DT_FLOAT", "tensorShape": {"dim": [{"size": "1"}, {"size": "1"}, {"size": "64"}, {"size": "1"}]}}}, "dtype": {"type": "DT_FLOAT"}}}, {"name": "mb/Openpose/MConv_Stage6_L2_5_depthwise/depthwise_weights", "op": "Const", "attr": {"value": {"tensor": {"dtype": "DT_FLOAT", "tensorShape": {"dim": [{"size": "1"}, {"size": "1"}, {"size": "64"}, {"size": "1"}]}}}, "dtype": {"type": "DT_FLOAT"}}}, {"name": "mb/Openpose/MConv_Stage5_L1_1_depthwise/depthwise_weights", "op": "Const", "attr": {"value": {"tensor": {"dtype": "DT_FLOAT", "tensorShape": {"dim": [{"size": "3"}, {"size": "3"}, {"size": "924"}, {"size": "1"}]}}}, "dtype": {"type": "DT_FLOAT"}}}, {"name": "mb/Openpose/MConv_Stage5_L1_2_depthwise/depthwise_weights", "op": "Const", "attr": {"value": {"tensor": {"dtype": "DT_FLOAT", "tensorShape": {"dim": [{"size": "3"}, {"size": "3"}, {"size": "64"}, {"size": "1"}]}}}, "dtype": {"type": "DT_FLOAT"}}}, {"name": "mb/Openpose/MConv_Stage5_L1_3_depthwise/depthwise_weights", "op": "Const", "attr": {"value": {"tensor": {"dtype": "DT_FLOAT", "tensorShape": {"dim": [{"size": "3"}, {"size": "3"}, {"size": "64"}, {"size": "1"}]}}}, "dtype": {"type": "DT_FLOAT"}}}, {"name": "mb/Openpose/MConv_Stage5_L1_4_depthwise/depthwise_weights", "op": "Const", "attr": {"value": {"tensor": {"dtype": "DT_FLOAT", "tensorShape": {"dim": [{"size": "1"}, {"size": "1"}, {"size": "64"}, {"size": "1"}]}}}, "dtype": {"type": "DT_FLOAT"}}}, {"name": "mb/Openpose/MConv_Stage5_L1_5_depthwise/depthwise_weights", "op": "Const", "attr": {"value": {"tensor": {"dtype": "DT_FLOAT", "tensorShape": {"dim": [{"size": "1"}, {"size": "1"}, {"size": "64"}, {"size": "1"}]}}}, "dtype": {"type": "DT_FLOAT"}}}, {"name": "mb/Openpose/MConv_Stage4_L1_1_depthwise/depthwise_weights", "op": "Const", "attr": {"value": {"tensor": {"dtype": "DT_FLOAT", "tensorShape": {"dim": [{"size": "3"}, {"size": "3"}, {"size": "924"}, {"size": "1"}]}}}, "dtype": {"type": "DT_FLOAT"}}}, {"name": "mb/Openpose/MConv_Stage4_L1_2_depthwise/depthwise_weights", "op": "Const", "attr": {"value": {"tensor": {"dtype": "DT_FLOAT", "tensorShape": {"dim": [{"size": "3"}, {"size": "3"}, {"size": "64"}, {"size": "1"}]}}}, "dtype": {"type": "DT_FLOAT"}}}, {"name": "mb/Openpose/MConv_Stage4_L1_3_depthwise/depthwise_weights", "op": "Const", "attr": {"value": {"tensor": {"dtype": "DT_FLOAT", "tensorShape": {"dim": [{"size": "3"}, {"size": "3"}, {"size": "64"}, {"size": "1"}]}}}, "dtype": {"type": "DT_FLOAT"}}}, {"name": "mb/Openpose/MConv_Stage4_L1_4_depthwise/depthwise_weights", "op": "Const", "attr": {"value": {"tensor": {"dtype": "DT_FLOAT", "tensorShape": {"dim": [{"size": "1"}, {"size": "1"}, {"size": "64"}, {"size": "1"}]}}}, "dtype": {"type": "DT_FLOAT"}}}, {"name": "mb/Openpose/MConv_Stage4_L1_5_depthwise/depthwise_weights", "op": "Const", "attr": {"value": {"tensor": {"dtype": "DT_FLOAT", "tensorShape": {"dim": [{"size": "1"}, {"size": "1"}, {"size": "64"}, {"size": "1"}]}}}, "dtype": {"type": "DT_FLOAT"}}}, {"name": "mb/Openpose/MConv_Stage3_L1_1_depthwise/depthwise_weights", "op": "Const", "attr": {"value": {"tensor": {"dtype": "DT_FLOAT", "tensorShape": {"dim": [{"size": "3"}, {"size": "3"}, {"size": "924"}, {"size": "1"}]}}}, "dtype": {"type": "DT_FLOAT"}}}, {"name": "mb/Openpose/MConv_Stage3_L1_2_depthwise/depthwise_weights", "op": "Const", "attr": {"value": {"tensor": {"dtype": "DT_FLOAT", "tensorShape": {"dim": [{"size": "3"}, {"size": "3"}, {"size": "64"}, {"size": "1"}]}}}, "dtype": {"type": "DT_FLOAT"}}}, {"name": "mb/Openpose/MConv_Stage3_L1_3_depthwise/depthwise_weights", "op": "Const", "attr": {"value": {"tensor": {"dtype": "DT_FLOAT", "tensorShape": {"dim": [{"size": "3"}, {"size": "3"}, {"size": "64"}, {"size": "1"}]}}}, "dtype": {"type": "DT_FLOAT"}}}, {"name": "mb/Openpose/MConv_Stage3_L1_4_depthwise/depthwise_weights", "op": "Const", "attr": {"value": {"tensor": {"dtype": "DT_FLOAT", "tensorShape": {"dim": [{"size": "1"}, {"size": "1"}, {"size": "64"}, {"size": "1"}]}}}, "dtype": {"type": "DT_FLOAT"}}}, {"name": "mb/Openpose/MConv_Stage3_L1_5_depthwise/depthwise_weights", "op": "Const", "attr": {"value": {"tensor": {"dtype": "DT_FLOAT", "tensorShape": {"dim": [{"size": "1"}, {"size": "1"}, {"size": "64"}, {"size": "1"}]}}}, "dtype": {"type": "DT_FLOAT"}}}, {"name": "mb/Openpose/MConv_Stage2_L1_1_depthwise/depthwise_weights", "op": "Const", "attr": {"value": {"tensor": {"dtype": "DT_FLOAT", "tensorShape": {"dim": [{"size": "3"}, {"size": "3"}, {"size": "924"}, {"size": "1"}]}}}, "dtype": {"type": "DT_FLOAT"}}}, {"name": "mb/Openpose/MConv_Stage2_L1_2_depthwise/depthwise_weights", "op": "Const", "attr": {"value": {"tensor": {"dtype": "DT_FLOAT", "tensorShape": {"dim": [{"size": "3"}, {"size": "3"}, {"size": "64"}, {"size": "1"}]}}}, "dtype": {"type": "DT_FLOAT"}}}, {"name": "mb/Openpose/MConv_Stage2_L1_3_depthwise/depthwise_weights", "op": "Const", "attr": {"value": {"tensor": {"dtype": "DT_FLOAT", "tensorShape": {"dim": [{"size": "3"}, {"size": "3"}, {"size": "64"}, {"size": "1"}]}}}, "dtype": {"type": "DT_FLOAT"}}}, {"name": "mb/Openpose/MConv_Stage2_L1_4_depthwise/depthwise_weights", "op": "Const", "attr": {"value": {"tensor": {"dtype": "DT_FLOAT", "tensorShape": {"dim": [{"size": "1"}, {"size": "1"}, {"size": "64"}, {"size": "1"}]}}}, "dtype": {"type": "DT_FLOAT"}}}, {"name": "mb/Openpose/MConv_Stage2_L1_5_depthwise/depthwise_weights", "op": "Const", "attr": {"value": {"tensor": {"dtype": "DT_FLOAT", "tensorShape": {"dim": [{"size": "1"}, {"size": "1"}, {"size": "64"}, {"size": "1"}]}}}, "dtype": {"type": "DT_FLOAT"}}}, {"name": "mb/Openpose/MConv_Stage1_L1_1_depthwise/depthwise_weights", "op": "Const", "attr": {"value": {"tensor": {"dtype": "DT_FLOAT", "tensorShape": {"dim": [{"size": "3"}, {"size": "3"}, {"size": "864"}, {"size": "1"}]}}}, "dtype": {"type": "DT_FLOAT"}}}, {"name": "mb/Openpose/MConv_Stage1_L1_2_depthwise/depthwise_weights", "op": "Const", "attr": {"value": {"tensor": {"dtype": "DT_FLOAT", "tensorShape": {"dim": [{"size": "3"}, {"size": "3"}, {"size": "64"}, {"size": "1"}]}}}, "dtype": {"type": "DT_FLOAT"}}}, {"name": "mb/Openpose/MConv_Stage1_L1_3_depthwise/depthwise_weights", "op": "Const", "attr": {"value": {"tensor": {"dtype": "DT_FLOAT", "tensorShape": {"dim": [{"size": "3"}, {"size": "3"}, {"size": "64"}, {"size": "1"}]}}}, "dtype": {"type": "DT_FLOAT"}}}, {"name": "mb/Openpose/MConv_Stage1_L1_4_depthwise/depthwise_weights", "op": "Const", "attr": {"value": {"tensor": {"dtype": "DT_FLOAT", "tensorShape": {"dim": [{"size": "1"}, {"size": "1"}, {"size": "64"}, {"size": "1"}]}}}, "dtype": {"type": "DT_FLOAT"}}}, {"name": "mb/Openpose/MConv_Stage1_L1_5_depthwise/depthwise_weights", "op": "Const", "attr": {"value": {"tensor": {"dtype": "DT_FLOAT", "tensorShape": {"dim": [{"size": "1"}, {"size": "1"}, {"size": "256"}, {"size": "1"}]}}}, "dtype": {"type": "DT_FLOAT"}}}, {"name": "mb/Openpose/MConv_Stage1_L2_1_depthwise/depthwise_weights", "op": "Const", "attr": {"value": {"tensor": {"dtype": "DT_FLOAT", "tensorShape": {"dim": [{"size": "3"}, {"size": "3"}, {"size": "864"}, {"size": "1"}]}}}, "dtype": {"type": "DT_FLOAT"}}}, {"name": "mb/Openpose/MConv_Stage1_L2_2_depthwise/depthwise_weights", "op": "Const", "attr": {"value": {"tensor": {"dtype": "DT_FLOAT", "tensorShape": {"dim": [{"size": "3"}, {"size": "3"}, {"size": "64"}, {"size": "1"}]}}}, "dtype": {"type": "DT_FLOAT"}}}, {"name": "mb/Openpose/MConv_Stage1_L2_3_depthwise/depthwise_weights", "op": "Const", "attr": {"value": {"tensor": {"dtype": "DT_FLOAT", "tensorShape": {"dim": [{"size": "3"}, {"size": "3"}, {"size": "64"}, {"size": "1"}]}}}, "dtype": {"type": "DT_FLOAT"}}}, {"name": "mb/Openpose/MConv_Stage1_L2_4_depthwise/depthwise_weights", "op": "Const", "attr": {"value": {"tensor": {"dtype": "DT_FLOAT", "tensorShape": {"dim": [{"size": "1"}, {"size": "1"}, {"size": "64"}, {"size": "1"}]}}}, "dtype": {"type": "DT_FLOAT"}}}, {"name": "mb/Openpose/MConv_Stage1_L2_5_depthwise/depthwise_weights", "op": "Const", "attr": {"value": {"tensor": {"dtype": "DT_FLOAT", "tensorShape": {"dim": [{"size": "1"}, {"size": "1"}, {"size": "256"}, {"size": "1"}]}}}, "dtype": {"type": "DT_FLOAT"}}}, {"name": "mb/Openpose/MConv_Stage2_L2_1_depthwise/depthwise_weights", "op": "Const", "attr": {"value": {"tensor": {"dtype": "DT_FLOAT", "tensorShape": {"dim": [{"size": "3"}, {"size": "3"}, {"size": "924"}, {"size": "1"}]}}}, "dtype": {"type": "DT_FLOAT"}}}, {"name": "mb/Openpose/MConv_Stage2_L2_2_depthwise/depthwise_weights", "op": "Const", "attr": {"value": {"tensor": {"dtype": "DT_FLOAT", "tensorShape": {"dim": [{"size": "3"}, {"size": "3"}, {"size": "64"}, {"size": "1"}]}}}, "dtype": {"type": "DT_FLOAT"}}}, {"name": "mb/Openpose/MConv_Stage2_L2_3_depthwise/depthwise_weights", "op": "Const", "attr": {"value": {"tensor": {"dtype": "DT_FLOAT", "tensorShape": {"dim": [{"size": "3"}, {"size": "3"}, {"size": "64"}, {"size": "1"}]}}}, "dtype": {"type": "DT_FLOAT"}}}, {"name": "mb/Openpose/MConv_Stage2_L2_4_depthwise/depthwise_weights", "op": "Const", "attr": {"value": {"tensor": {"dtype": "DT_FLOAT", "tensorShape": {"dim": [{"size": "1"}, {"size": "1"}, {"size": "64"}, {"size": "1"}]}}}, "dtype": {"type": "DT_FLOAT"}}}, {"name": "mb/Openpose/MConv_Stage2_L2_5_depthwise/depthwise_weights", "op": "Const", "attr": {"value": {"tensor": {"dtype": "DT_FLOAT", "tensorShape": {"dim": [{"size": "1"}, {"size": "1"}, {"size": "64"}, {"size": "1"}]}}}, "dtype": {"type": "DT_FLOAT"}}}, {"name": "mb/Openpose/MConv_Stage3_L2_1_depthwise/depthwise_weights", "op": "Const", "attr": {"value": {"tensor": {"dtype": "DT_FLOAT", "tensorShape": {"dim": [{"size": "3"}, {"size": "3"}, {"size": "924"}, {"size": "1"}]}}}, "dtype": {"type": "DT_FLOAT"}}}, {"name": "mb/Openpose/MConv_Stage3_L2_2_depthwise/depthwise_weights", "op": "Const", "attr": {"value": {"tensor": {"dtype": "DT_FLOAT", "tensorShape": {"dim": [{"size": "3"}, {"size": "3"}, {"size": "64"}, {"size": "1"}]}}}, "dtype": {"type": "DT_FLOAT"}}}, {"name": "mb/Openpose/MConv_Stage3_L2_3_depthwise/depthwise_weights", "op": "Const", "attr": {"value": {"tensor": {"dtype": "DT_FLOAT", "tensorShape": {"dim": [{"size": "3"}, {"size": "3"}, {"size": "64"}, {"size": "1"}]}}}, "dtype": {"type": "DT_FLOAT"}}}, {"name": "mb/Openpose/MConv_Stage3_L2_4_depthwise/depthwise_weights", "op": "Const", "attr": {"value": {"tensor": {"dtype": "DT_FLOAT", "tensorShape": {"dim": [{"size": "1"}, {"size": "1"}, {"size": "64"}, {"size": "1"}]}}}, "dtype": {"type": "DT_FLOAT"}}}, {"name": "mb/Openpose/MConv_Stage3_L2_5_depthwise/depthwise_weights", "op": "Const", "attr": {"value": {"tensor": {"dtype": "DT_FLOAT", "tensorShape": {"dim": [{"size": "1"}, {"size": "1"}, {"size": "64"}, {"size": "1"}]}}}, "dtype": {"type": "DT_FLOAT"}}}, {"name": "mb/Openpose/MConv_Stage4_L2_1_depthwise/depthwise_weights", "op": "Const", "attr": {"value": {"tensor": {"dtype": "DT_FLOAT", "tensorShape": {"dim": [{"size": "3"}, {"size": "3"}, {"size": "924"}, {"size": "1"}]}}}, "dtype": {"type": "DT_FLOAT"}}}, {"name": "mb/Openpose/MConv_Stage4_L2_2_depthwise/depthwise_weights", "op": "Const", "attr": {"value": {"tensor": {"dtype": "DT_FLOAT", "tensorShape": {"dim": [{"size": "3"}, {"size": "3"}, {"size": "64"}, {"size": "1"}]}}}, "dtype": {"type": "DT_FLOAT"}}}, {"name": "mb/Openpose/MConv_Stage4_L2_3_depthwise/depthwise_weights", "op": "Const", "attr": {"value": {"tensor": {"dtype": "DT_FLOAT", "tensorShape": {"dim": [{"size": "3"}, {"size": "3"}, {"size": "64"}, {"size": "1"}]}}}, "dtype": {"type": "DT_FLOAT"}}}, {"name": "mb/Openpose/MConv_Stage4_L2_4_depthwise/depthwise_weights", "op": "Const", "attr": {"value": {"tensor": {"dtype": "DT_FLOAT", "tensorShape": {"dim": [{"size": "1"}, {"size": "1"}, {"size": "64"}, {"size": "1"}]}}}, "dtype": {"type": "DT_FLOAT"}}}, {"name": "mb/Openpose/MConv_Stage4_L2_5_depthwise/depthwise_weights", "op": "Const", "attr": {"value": {"tensor": {"dtype": "DT_FLOAT", "tensorShape": {"dim": [{"size": "1"}, {"size": "1"}, {"size": "64"}, {"size": "1"}]}}}, "dtype": {"type": "DT_FLOAT"}}}, {"name": "mb/Openpose/MConv_Stage5_L2_1_depthwise/depthwise_weights", "op": "Const", "attr": {"value": {"tensor": {"dtype": "DT_FLOAT", "tensorShape": {"dim": [{"size": "3"}, {"size": "3"}, {"size": "924"}, {"size": "1"}]}}}, "dtype": {"type": "DT_FLOAT"}}}, {"name": "mb/Openpose/MConv_Stage5_L2_2_depthwise/depthwise_weights", "op": "Const", "attr": {"value": {"tensor": {"dtype": "DT_FLOAT", "tensorShape": {"dim": [{"size": "3"}, {"size": "3"}, {"size": "64"}, {"size": "1"}]}}}, "dtype": {"type": "DT_FLOAT"}}}, {"name": "mb/Openpose/MConv_Stage5_L2_3_depthwise/depthwise_weights", "op": "Const", "attr": {"value": {"tensor": {"dtype": "DT_FLOAT", "tensorShape": {"dim": [{"size": "3"}, {"size": "3"}, {"size": "64"}, {"size": "1"}]}}}, "dtype": {"type": "DT_FLOAT"}}}, {"name": "mb/Openpose/MConv_Stage5_L2_4_depthwise/depthwise_weights", "op": "Const", "attr": {"value": {"tensor": {"dtype": "DT_FLOAT", "tensorShape": {"dim": [{"size": "1"}, {"size": "1"}, {"size": "64"}, {"size": "1"}]}}}, "dtype": {"type": "DT_FLOAT"}}}, {"name": "mb/Openpose/MConv_Stage5_L2_5_depthwise/depthwise_weights", "op": "Const", "attr": {"value": {"tensor": {"dtype": "DT_FLOAT", "tensorShape": {"dim": [{"size": "1"}, {"size": "1"}, {"size": "64"}, {"size": "1"}]}}}, "dtype": {"type": "DT_FLOAT"}}}, {"name": "mb/MobilenetV1/Conv2d_1_depthwise/depthwise_weights", "op": "Const", "attr": {"value": {"tensor": {"dtype": "DT_FLOAT", "tensorShape": {"dim": [{"size": "3"}, {"size": "3"}, {"size": "24"}, {"size": "1"}]}}}, "dtype": {"type": "DT_FLOAT"}}}, {"name": "mb/MobilenetV1/Conv2d_2_depthwise/depthwise_weights", "op": "Const", "attr": {"value": {"tensor": {"dtype": "DT_FLOAT", "tensorShape": {"dim": [{"size": "3"}, {"size": "3"}, {"size": "48"}, {"size": "1"}]}}}, "dtype": {"type": "DT_FLOAT"}}}, {"name": "mb/MobilenetV1/Conv2d_3_depthwise/depthwise_weights", "op": "Const", "attr": {"value": {"tensor": {"dtype": "DT_FLOAT", "tensorShape": {"dim": [{"size": "3"}, {"size": "3"}, {"size": "96"}, {"size": "1"}]}}}, "dtype": {"type": "DT_FLOAT"}}}, {"name": "mb/MobilenetV1/Conv2d_4_depthwise/depthwise_weights", "op": "Const", "attr": {"value": {"tensor": {"dtype": "DT_FLOAT", "tensorShape": {"dim": [{"size": "3"}, {"size": "3"}, {"size": "96"}, {"size": "1"}]}}}, "dtype": {"type": "DT_FLOAT"}}}, {"name": "mb/MobilenetV1/Conv2d_5_depthwise/depthwise_weights", "op": "Const", "attr": {"value": {"tensor": {"dtype": "DT_FLOAT", "tensorShape": {"dim": [{"size": "3"}, {"size": "3"}, {"size": "192"}, {"size": "1"}]}}}, "dtype": {"type": "DT_FLOAT"}}}, {"name": "mb/MobilenetV1/Conv2d_6_depthwise/depthwise_weights", "op": "Const", "attr": {"value": {"tensor": {"dtype": "DT_FLOAT", "tensorShape": {"dim": [{"size": "3"}, {"size": "3"}, {"size": "192"}, {"size": "1"}]}}}, "dtype": {"type": "DT_FLOAT"}}}, {"name": "mb/MobilenetV1/Conv2d_7_depthwise/depthwise_weights", "op": "Const", "attr": {"value": {"tensor": {"dtype": "DT_FLOAT", "tensorShape": {"dim": [{"size": "3"}, {"size": "3"}, {"size": "384"}, {"size": "1"}]}}}, "dtype": {"type": "DT_FLOAT"}}}, {"name": "mb/MobilenetV1/Conv2d_8_depthwise/depthwise_weights", "op": "Const", "attr": {"value": {"tensor": {"dtype": "DT_FLOAT", "tensorShape": {"dim": [{"size": "3"}, {"size": "3"}, {"size": "384"}, {"size": "1"}]}}}, "dtype": {"type": "DT_FLOAT"}}}, {"name": "mb/MobilenetV1/Conv2d_9_depthwise/depthwise_weights", "op": "Const", "attr": {"value": {"tensor": {"dtype": "DT_FLOAT", "tensorShape": {"dim": [{"size": "3"}, {"size": "3"}, {"size": "384"}, {"size": "1"}]}}}, "dtype": {"type": "DT_FLOAT"}}}, {"name": "mb/MobilenetV1/Conv2d_10_depthwise/depthwise_weights", "op": "Const", "attr": {"value": {"tensor": {"dtype": "DT_FLOAT", "tensorShape": {"dim": [{"size": "3"}, {"size": "3"}, {"size": "384"}, {"size": "1"}]}}}, "dtype": {"type": "DT_FLOAT"}}}, {"name": "mb/MobilenetV1/Conv2d_11_depthwise/depthwise_weights", "op": "Const", "attr": {"value": {"tensor": {"dtype": "DT_FLOAT", "tensorShape": {"dim": [{"size": "3"}, {"size": "3"}, {"size": "384"}, {"size": "1"}]}}}, "dtype": {"type": "DT_FLOAT"}}}, {"name": "mb/Openpose/MConv_Stage6_L1_1_depthwise/depthwise_weights", "op": "Const", "attr": {"value": {"tensor": {"dtype": "DT_FLOAT", "tensorShape": {"dim": [{"size": "3"}, {"size": "3"}, {"size": "924"}, {"size": "1"}]}}}, "dtype": {"type": "DT_FLOAT"}}}, {"name": "mb/Openpose/MConv_Stage6_L1_2_depthwise/depthwise_weights", "op": "Const", "attr": {"value": {"tensor": {"dtype": "DT_FLOAT", "tensorShape": {"dim": [{"size": "3"}, {"size": "3"}, {"size": "64"}, {"size": "1"}]}}}, "dtype": {"type": "DT_FLOAT"}}}, {"name": "mb/Openpose/MConv_Stage6_L1_3_depthwise/depthwise_weights", "op": "Const", "attr": {"value": {"tensor": {"dtype": "DT_FLOAT", "tensorShape": {"dim": [{"size": "3"}, {"size": "3"}, {"size": "64"}, {"size": "1"}]}}}, "dtype": {"type": "DT_FLOAT"}}}, {"name": "mb/Openpose/MConv_Stage6_L1_4_depthwise/depthwise_weights", "op": "Const", "attr": {"value": {"tensor": {"dtype": "DT_FLOAT", "tensorShape": {"dim": [{"size": "1"}, {"size": "1"}, {"size": "64"}, {"size": "1"}]}}}, "dtype": {"type": "DT_FLOAT"}}}, {"name": "mb/Openpose/MConv_Stage6_L1_5_depthwise/depthwise_weights", "op": "Const", "attr": {"value": {"tensor": {"dtype": "DT_FLOAT", "tensorShape": {"dim": [{"size": "1"}, {"size": "1"}, {"size": "64"}, {"size": "1"}]}}}, "dtype": {"type": "DT_FLOAT"}}}, {"name": "mb/Openpose/MConv_Stage2_concat/axis", "op": "Const", "attr": {"value": {"tensor": {"dtype": "DT_INT32", "tensorShape": {}}}, "dtype": {"type": "DT_INT32"}}}, {"name": "mb/image", "op": "Placeholder", "attr": {"shape": {"shape": {"dim": [{"size": "-1"}, {"size": "-1"}, {"size": "-1"}, {"size": "3"}]}}, "dtype": {"type": "DT_FLOAT"}}}, {"name": "mb/MobilenetV1/Conv2d_0/weights", "op": "Const", "attr": {"value": {"tensor": {"dtype": "DT_FLOAT", "tensorShape": {"dim": [{"size": "3"}, {"size": "3"}, {"size": "3"}, {"size": "24"}]}}}, "dtype": {"type": "DT_FLOAT"}}}, {"name": "mb/MobilenetV1/Conv2d_0/Conv2D_bn_offset", "op": "Const", "attr": {"value": {"tensor": {"dtype": "DT_FLOAT", "tensorShape": {"dim": [{"size": "24"}]}}}, "dtype": {"type": "DT_FLOAT"}}}, {"name": "mb/MobilenetV1/Conv2d_1_pointwise/weights", "op": "Const", "attr": {"value": {"tensor": {"dtype": "DT_FLOAT", "tensorShape": {"dim": [{"size": "1"}, {"size": "1"}, {"size": "24"}, {"size": "48"}]}}}, "dtype": {"type": "DT_FLOAT"}}}, {"name": "mb/MobilenetV1/Conv2d_1_pointwise/Conv2D_bn_offset", "op": "Const", "attr": {"value": {"tensor": {"dtype": "DT_FLOAT", "tensorShape": {"dim": [{"size": "48"}]}}}, "dtype": {"type": "DT_FLOAT"}}}, {"name": "mb/MobilenetV1/Conv2d_2_pointwise/weights", "op": "Const", "attr": {"value": {"tensor": {"dtype": "DT_FLOAT", "tensorShape": {"dim": [{"size": "1"}, {"size": "1"}, {"size": "48"}, {"size": "96"}]}}}, "dtype": {"type": "DT_FLOAT"}}}, {"name": "mb/MobilenetV1/Conv2d_2_pointwise/Conv2D_bn_offset", "op": "Const", "attr": {"value": {"tensor": {"dtype": "DT_FLOAT", "tensorShape": {"dim": [{"size": "96"}]}}}, "dtype": {"type": "DT_FLOAT"}}}, {"name": "mb/MobilenetV1/Conv2d_3_pointwise/weights", "op": "Const", "attr": {"value": {"tensor": {"dtype": "DT_FLOAT", "tensorShape": {"dim": [{"size": "1"}, {"size": "1"}, {"size": "96"}, {"size": "96"}]}}}, "dtype": {"type": "DT_FLOAT"}}}, {"name": "mb/MobilenetV1/Conv2d_3_pointwise/Conv2D_bn_offset", "op": "Const", "attr": {"value": {"tensor": {"dtype": "DT_FLOAT", "tensorShape": {"dim": [{"size": "96"}]}}}, "dtype": {"type": "DT_FLOAT"}}}, {"name": "mb/MobilenetV1/Conv2d_4_pointwise/weights", "op": "Const", "attr": {"value": {"tensor": {"dtype": "DT_FLOAT", "tensorShape": {"dim": [{"size": "1"}, {"size": "1"}, {"size": "96"}, {"size": "192"}]}}}, "dtype": {"type": "DT_FLOAT"}}}, {"name": "mb/MobilenetV1/Conv2d_4_pointwise/Conv2D_bn_offset", "op": "Const", "attr": {"value": {"tensor": {"dtype": "DT_FLOAT", "tensorShape": {"dim": [{"size": "192"}]}}}, "dtype": {"type": "DT_FLOAT"}}}, {"name": "mb/MobilenetV1/Conv2d_5_pointwise/weights", "op": "Const", "attr": {"value": {"tensor": {"dtype": "DT_FLOAT", "tensorShape": {"dim": [{"size": "1"}, {"size": "1"}, {"size": "192"}, {"size": "192"}]}}}, "dtype": {"type": "DT_FLOAT"}}}, {"name": "mb/MobilenetV1/Conv2d_5_pointwise/Conv2D_bn_offset", "op": "Const", "attr": {"value": {"tensor": {"dtype": "DT_FLOAT", "tensorShape": {"dim": [{"size": "192"}]}}}, "dtype": {"type": "DT_FLOAT"}}}, {"name": "mb/MobilenetV1/Conv2d_6_pointwise/weights", "op": "Const", "attr": {"value": {"tensor": {"dtype": "DT_FLOAT", "tensorShape": {"dim": [{"size": "1"}, {"size": "1"}, {"size": "192"}, {"size": "384"}]}}}, "dtype": {"type": "DT_FLOAT"}}}, {"name": "mb/MobilenetV1/Conv2d_6_pointwise/Conv2D_bn_offset", "op": "Const", "attr": {"value": {"tensor": {"dtype": "DT_FLOAT", "tensorShape": {"dim": [{"size": "384"}]}}}, "dtype": {"type": "DT_FLOAT"}}}, {"name": "mb/MobilenetV1/Conv2d_7_pointwise/weights", "op": "Const", "attr": {"value": {"tensor": {"dtype": "DT_FLOAT", "tensorShape": {"dim": [{"size": "1"}, {"size": "1"}, {"size": "384"}, {"size": "384"}]}}}, "dtype": {"type": "DT_FLOAT"}}}, {"name": "mb/MobilenetV1/Conv2d_7_pointwise/Conv2D_bn_offset", "op": "Const", "attr": {"value": {"tensor": {"dtype": "DT_FLOAT", "tensorShape": {"dim": [{"size": "384"}]}}}, "dtype": {"type": "DT_FLOAT"}}}, {"name": "mb/MobilenetV1/Conv2d_8_pointwise/weights", "op": "Const", "attr": {"value": {"tensor": {"dtype": "DT_FLOAT", "tensorShape": {"dim": [{"size": "1"}, {"size": "1"}, {"size": "384"}, {"size": "384"}]}}}, "dtype": {"type": "DT_FLOAT"}}}, {"name": "mb/MobilenetV1/Conv2d_8_pointwise/Conv2D_bn_offset", "op": "Const", "attr": {"value": {"tensor": {"dtype": "DT_FLOAT", "tensorShape": {"dim": [{"size": "384"}]}}}, "dtype": {"type": "DT_FLOAT"}}}, {"name": "mb/MobilenetV1/Conv2d_9_pointwise/weights", "op": "Const", "attr": {"value": {"tensor": {"dtype": "DT_FLOAT", "tensorShape": {"dim": [{"size": "1"}, {"size": "1"}, {"size": "384"}, {"size": "384"}]}}}, "dtype": {"type": "DT_FLOAT"}}}, {"name": "mb/MobilenetV1/Conv2d_9_pointwise/Conv2D_bn_offset", "op": "Const", "attr": {"value": {"tensor": {"dtype": "DT_FLOAT", "tensorShape": {"dim": [{"size": "384"}]}}}, "dtype": {"type": "DT_FLOAT"}}}, {"name": "mb/MobilenetV1/Conv2d_10_pointwise/weights", "op": "Const", "attr": {"value": {"tensor": {"dtype": "DT_FLOAT", "tensorShape": {"dim": [{"size": "1"}, {"size": "1"}, {"size": "384"}, {"size": "384"}]}}}, "dtype": {"type": "DT_FLOAT"}}}, {"name": "mb/MobilenetV1/Conv2d_10_pointwise/Conv2D_bn_offset", "op": "Const", "attr": {"value": {"tensor": {"dtype": "DT_FLOAT", "tensorShape": {"dim": [{"size": "384"}]}}}, "dtype": {"type": "DT_FLOAT"}}}, {"name": "mb/MobilenetV1/Conv2d_11_pointwise/weights", "op": "Const", "attr": {"value": {"tensor": {"dtype": "DT_FLOAT", "tensorShape": {"dim": [{"size": "1"}, {"size": "1"}, {"size": "384"}, {"size": "384"}]}}}, "dtype": {"type": "DT_FLOAT"}}}, {"name": "mb/MobilenetV1/Conv2d_11_pointwise/Conv2D_bn_offset", "op": "Const", "attr": {"value": {"tensor": {"dtype": "DT_FLOAT", "tensorShape": {"dim": [{"size": "384"}]}}}, "dtype": {"type": "DT_FLOAT"}}}, {"name": "mb/Openpose/MConv_Stage1_L1_1_pointwise/weights", "op": "Const", "attr": {"value": {"tensor": {"dtype": "DT_FLOAT", "tensorShape": {"dim": [{"size": "1"}, {"size": "1"}, {"size": "864"}, {"size": "64"}]}}}, "dtype": {"type": "DT_FLOAT"}}}, {"name": "mb/Openpose/MConv_Stage1_L1_1_pointwise/Conv2D_bn_offset", "op": "Const", "attr": {"value": {"tensor": {"dtype": "DT_FLOAT", "tensorShape": {"dim": [{"size": "64"}]}}}, "dtype": {"type": "DT_FLOAT"}}}, {"name": "mb/Openpose/MConv_Stage1_L2_1_pointwise/weights", "op": "Const", "attr": {"value": {"tensor": {"dtype": "DT_FLOAT", "tensorShape": {"dim": [{"size": "1"}, {"size": "1"}, {"size": "864"}, {"size": "64"}]}}}, "dtype": {"type": "DT_FLOAT"}}}, {"name": "mb/Openpose/MConv_Stage1_L2_1_pointwise/Conv2D_bn_offset", "op": "Const", "attr": {"value": {"tensor": {"dtype": "DT_FLOAT", "tensorShape": {"dim": [{"size": "64"}]}}}, "dtype": {"type": "DT_FLOAT"}}}, {"name": "mb/Openpose/MConv_Stage1_L1_2_pointwise/weights", "op": "Const", "attr": {"value": {"tensor": {"dtype": "DT_FLOAT", "tensorShape": {"dim": [{"size": "1"}, {"size": "1"}, {"size": "64"}, {"size": "64"}]}}}, "dtype": {"type": "DT_FLOAT"}}}, {"name": "mb/Openpose/MConv_Stage1_L1_2_pointwise/Conv2D_bn_offset", "op": "Const", "attr": {"value": {"tensor": {"dtype": "DT_FLOAT", "tensorShape": {"dim": [{"size": "64"}]}}}, "dtype": {"type": "DT_FLOAT"}}}, {"name": "mb/Openpose/MConv_Stage1_L2_2_pointwise/weights", "op": "Const", "attr": {"value": {"tensor": {"dtype": "DT_FLOAT", "tensorShape": {"dim": [{"size": "1"}, {"size": "1"}, {"size": "64"}, {"size": "64"}]}}}, "dtype": {"type": "DT_FLOAT"}}}, {"name": "mb/Openpose/MConv_Stage1_L2_2_pointwise/Conv2D_bn_offset", "op": "Const", "attr": {"value": {"tensor": {"dtype": "DT_FLOAT", "tensorShape": {"dim": [{"size": "64"}]}}}, "dtype": {"type": "DT_FLOAT"}}}, {"name": "mb/Openpose/MConv_Stage1_L1_3_pointwise/weights", "op": "Const", "attr": {"value": {"tensor": {"dtype": "DT_FLOAT", "tensorShape": {"dim": [{"size": "1"}, {"size": "1"}, {"size": "64"}, {"size": "64"}]}}}, "dtype": {"type": "DT_FLOAT"}}}, {"name": "mb/Openpose/MConv_Stage1_L1_3_pointwise/Conv2D_bn_offset", "op": "Const", "attr": {"value": {"tensor": {"dtype": "DT_FLOAT", "tensorShape": {"dim": [{"size": "64"}]}}}, "dtype": {"type": "DT_FLOAT"}}}, {"name": "mb/Openpose/MConv_Stage1_L2_3_pointwise/weights", "op": "Const", "attr": {"value": {"tensor": {"dtype": "DT_FLOAT", "tensorShape": {"dim": [{"size": "1"}, {"size": "1"}, {"size": "64"}, {"size": "64"}]}}}, "dtype": {"type": "DT_FLOAT"}}}, {"name": "mb/Openpose/MConv_Stage1_L2_3_pointwise/Conv2D_bn_offset", "op": "Const", "attr": {"value": {"tensor": {"dtype": "DT_FLOAT", "tensorShape": {"dim": [{"size": "64"}]}}}, "dtype": {"type": "DT_FLOAT"}}}, {"name": "mb/Openpose/MConv_Stage1_L1_4_pointwise/weights", "op": "Const", "attr": {"value": {"tensor": {"dtype": "DT_FLOAT", "tensorShape": {"dim": [{"size": "1"}, {"size": "1"}, {"size": "64"}, {"size": "256"}]}}}, "dtype": {"type": "DT_FLOAT"}}}, {"name": "mb/Openpose/MConv_Stage1_L1_4_pointwise/Conv2D_bn_offset", "op": "Const", "attr": {"value": {"tensor": {"dtype": "DT_FLOAT", "tensorShape": {"dim": [{"size": "256"}]}}}, "dtype": {"type": "DT_FLOAT"}}}, {"name": "mb/Openpose/MConv_Stage1_L2_4_pointwise/weights", "op": "Const", "attr": {"value": {"tensor": {"dtype": "DT_FLOAT", "tensorShape": {"dim": [{"size": "1"}, {"size": "1"}, {"size": "64"}, {"size": "256"}]}}}, "dtype": {"type": "DT_FLOAT"}}}, {"name": "mb/Openpose/MConv_Stage1_L2_4_pointwise/Conv2D_bn_offset", "op": "Const", "attr": {"value": {"tensor": {"dtype": "DT_FLOAT", "tensorShape": {"dim": [{"size": "256"}]}}}, "dtype": {"type": "DT_FLOAT"}}}, {"name": "mb/Openpose/MConv_Stage1_L1_5_pointwise/weights", "op": "Const", "attr": {"value": {"tensor": {"dtype": "DT_FLOAT", "tensorShape": {"dim": [{"size": "1"}, {"size": "1"}, {"size": "256"}, {"size": "38"}]}}}, "dtype": {"type": "DT_FLOAT"}}}, {"name": "mb/Openpose/MConv_Stage1_L1_5_pointwise/Conv2D_bn_offset", "op": "Const", "attr": {"value": {"tensor": {"dtype": "DT_FLOAT", "tensorShape": {"dim": [{"size": "38"}]}}}, "dtype": {"type": "DT_FLOAT"}}}, {"name": "mb/Openpose/MConv_Stage1_L2_5_pointwise/weights", "op": "Const", "attr": {"value": {"tensor": {"dtype": "DT_FLOAT", "tensorShape": {"dim": [{"size": "1"}, {"size": "1"}, {"size": "256"}, {"size": "22"}]}}}, "dtype": {"type": "DT_FLOAT"}}}, {"name": "mb/Openpose/MConv_Stage1_L2_5_pointwise/Conv2D_bn_offset", "op": "Const", "attr": {"value": {"tensor": {"dtype": "DT_FLOAT", "tensorShape": {"dim": [{"size": "22"}]}}}, "dtype": {"type": "DT_FLOAT"}}}, {"name": "mb/Openpose/MConv_Stage2_L1_1_pointwise/weights", "op": "Const", "attr": {"value": {"tensor": {"dtype": "DT_FLOAT", "tensorShape": {"dim": [{"size": "1"}, {"size": "1"}, {"size": "924"}, {"size": "64"}]}}}, "dtype": {"type": "DT_FLOAT"}}}, {"name": "mb/Openpose/MConv_Stage2_L1_1_pointwise/Conv2D_bn_offset", "op": "Const", "attr": {"value": {"tensor": {"dtype": "DT_FLOAT", "tensorShape": {"dim": [{"size": "64"}]}}}, "dtype": {"type": "DT_FLOAT"}}}, {"name": "mb/Openpose/MConv_Stage2_L2_1_pointwise/weights", "op": "Const", "attr": {"value": {"tensor": {"dtype": "DT_FLOAT", "tensorShape": {"dim": [{"size": "1"}, {"size": "1"}, {"size": "924"}, {"size": "64"}]}}}, "dtype": {"type": "DT_FLOAT"}}}, {"name": "mb/Openpose/MConv_Stage2_L2_1_pointwise/Conv2D_bn_offset", "op": "Const", "attr": {"value": {"tensor": {"dtype": "DT_FLOAT", "tensorShape": {"dim": [{"size": "64"}]}}}, "dtype": {"type": "DT_FLOAT"}}}, {"name": "mb/Openpose/MConv_Stage2_L1_2_pointwise/weights", "op": "Const", "attr": {"value": {"tensor": {"dtype": "DT_FLOAT", "tensorShape": {"dim": [{"size": "1"}, {"size": "1"}, {"size": "64"}, {"size": "64"}]}}}, "dtype": {"type": "DT_FLOAT"}}}, {"name": "mb/Openpose/MConv_Stage2_L1_2_pointwise/Conv2D_bn_offset", "op": "Const", "attr": {"value": {"tensor": {"dtype": "DT_FLOAT", "tensorShape": {"dim": [{"size": "64"}]}}}, "dtype": {"type": "DT_FLOAT"}}}, {"name": "mb/Openpose/MConv_Stage2_L2_2_pointwise/weights", "op": "Const", "attr": {"value": {"tensor": {"dtype": "DT_FLOAT", "tensorShape": {"dim": [{"size": "1"}, {"size": "1"}, {"size": "64"}, {"size": "64"}]}}}, "dtype": {"type": "DT_FLOAT"}}}, {"name": "mb/Openpose/MConv_Stage2_L2_2_pointwise/Conv2D_bn_offset", "op": "Const", "attr": {"value": {"tensor": {"dtype": "DT_FLOAT", "tensorShape": {"dim": [{"size": "64"}]}}}, "dtype": {"type": "DT_FLOAT"}}}, {"name": "mb/Openpose/MConv_Stage2_L1_3_pointwise/weights", "op": "Const", "attr": {"value": {"tensor": {"dtype": "DT_FLOAT", "tensorShape": {"dim": [{"size": "1"}, {"size": "1"}, {"size": "64"}, {"size": "64"}]}}}, "dtype": {"type": "DT_FLOAT"}}}, {"name": "mb/Openpose/MConv_Stage2_L1_3_pointwise/Conv2D_bn_offset", "op": "Const", "attr": {"value": {"tensor": {"dtype": "DT_FLOAT", "tensorShape": {"dim": [{"size": "64"}]}}}, "dtype": {"type": "DT_FLOAT"}}}, {"name": "mb/Openpose/MConv_Stage2_L2_3_pointwise/weights", "op": "Const", "attr": {"value": {"tensor": {"dtype": "DT_FLOAT", "tensorShape": {"dim": [{"size": "1"}, {"size": "1"}, {"size": "64"}, {"size": "64"}]}}}, "dtype": {"type": "DT_FLOAT"}}}, {"name": "mb/Openpose/MConv_Stage2_L2_3_pointwise/Conv2D_bn_offset", "op": "Const", "attr": {"value": {"tensor": {"dtype": "DT_FLOAT", "tensorShape": {"dim": [{"size": "64"}]}}}, "dtype": {"type": "DT_FLOAT"}}}, {"name": "mb/Openpose/MConv_Stage2_L1_4_pointwise/weights", "op": "Const", "attr": {"value": {"tensor": {"dtype": "DT_FLOAT", "tensorShape": {"dim": [{"size": "1"}, {"size": "1"}, {"size": "64"}, {"size": "64"}]}}}, "dtype": {"type": "DT_FLOAT"}}}, {"name": "mb/Openpose/MConv_Stage2_L1_4_pointwise/Conv2D_bn_offset", "op": "Const", "attr": {"value": {"tensor": {"dtype": "DT_FLOAT", "tensorShape": {"dim": [{"size": "64"}]}}}, "dtype": {"type": "DT_FLOAT"}}}, {"name": "mb/Openpose/MConv_Stage2_L2_4_pointwise/weights", "op": "Const", "attr": {"value": {"tensor": {"dtype": "DT_FLOAT", "tensorShape": {"dim": [{"size": "1"}, {"size": "1"}, {"size": "64"}, {"size": "64"}]}}}, "dtype": {"type": "DT_FLOAT"}}}, {"name": "mb/Openpose/MConv_Stage2_L2_4_pointwise/Conv2D_bn_offset", "op": "Const", "attr": {"value": {"tensor": {"dtype": "DT_FLOAT", "tensorShape": {"dim": [{"size": "64"}]}}}, "dtype": {"type": "DT_FLOAT"}}}, {"name": "mb/Openpose/MConv_Stage2_L1_5_pointwise/weights", "op": "Const", "attr": {"value": {"tensor": {"dtype": "DT_FLOAT", "tensorShape": {"dim": [{"size": "1"}, {"size": "1"}, {"size": "64"}, {"size": "38"}]}}}, "dtype": {"type": "DT_FLOAT"}}}, {"name": "mb/Openpose/MConv_Stage2_L1_5_pointwise/Conv2D_bn_offset", "op": "Const", "attr": {"value": {"tensor": {"dtype": "DT_FLOAT", "tensorShape": {"dim": [{"size": "38"}]}}}, "dtype": {"type": "DT_FLOAT"}}}, {"name": "mb/Openpose/MConv_Stage2_L2_5_pointwise/weights", "op": "Const", "attr": {"value": {"tensor": {"dtype": "DT_FLOAT", "tensorShape": {"dim": [{"size": "1"}, {"size": "1"}, {"size": "64"}, {"size": "22"}]}}}, "dtype": {"type": "DT_FLOAT"}}}, {"name": "mb/Openpose/MConv_Stage2_L2_5_pointwise/Conv2D_bn_offset", "op": "Const", "attr": {"value": {"tensor": {"dtype": "DT_FLOAT", "tensorShape": {"dim": [{"size": "22"}]}}}, "dtype": {"type": "DT_FLOAT"}}}, {"name": "mb/Openpose/MConv_Stage3_L1_1_pointwise/weights", "op": "Const", "attr": {"value": {"tensor": {"dtype": "DT_FLOAT", "tensorShape": {"dim": [{"size": "1"}, {"size": "1"}, {"size": "924"}, {"size": "64"}]}}}, "dtype": {"type": "DT_FLOAT"}}}, {"name": "mb/Openpose/MConv_Stage3_L1_1_pointwise/Conv2D_bn_offset", "op": "Const", "attr": {"value": {"tensor": {"dtype": "DT_FLOAT", "tensorShape": {"dim": [{"size": "64"}]}}}, "dtype": {"type": "DT_FLOAT"}}}, {"name": "mb/Openpose/MConv_Stage3_L2_1_pointwise/weights", "op": "Const", "attr": {"value": {"tensor": {"dtype": "DT_FLOAT", "tensorShape": {"dim": [{"size": "1"}, {"size": "1"}, {"size": "924"}, {"size": "64"}]}}}, "dtype": {"type": "DT_FLOAT"}}}, {"name": "mb/Openpose/MConv_Stage3_L2_1_pointwise/Conv2D_bn_offset", "op": "Const", "attr": {"value": {"tensor": {"dtype": "DT_FLOAT", "tensorShape": {"dim": [{"size": "64"}]}}}, "dtype": {"type": "DT_FLOAT"}}}, {"name": "mb/Openpose/MConv_Stage3_L1_2_pointwise/weights", "op": "Const", "attr": {"value": {"tensor": {"dtype": "DT_FLOAT", "tensorShape": {"dim": [{"size": "1"}, {"size": "1"}, {"size": "64"}, {"size": "64"}]}}}, "dtype": {"type": "DT_FLOAT"}}}, {"name": "mb/Openpose/MConv_Stage3_L1_2_pointwise/Conv2D_bn_offset", "op": "Const", "attr": {"value": {"tensor": {"dtype": "DT_FLOAT", "tensorShape": {"dim": [{"size": "64"}]}}}, "dtype": {"type": "DT_FLOAT"}}}, {"name": "mb/Openpose/MConv_Stage3_L2_2_pointwise/weights", "op": "Const", "attr": {"value": {"tensor": {"dtype": "DT_FLOAT", "tensorShape": {"dim": [{"size": "1"}, {"size": "1"}, {"size": "64"}, {"size": "64"}]}}}, "dtype": {"type": "DT_FLOAT"}}}, {"name": "mb/Openpose/MConv_Stage3_L2_2_pointwise/Conv2D_bn_offset", "op": "Const", "attr": {"value": {"tensor": {"dtype": "DT_FLOAT", "tensorShape": {"dim": [{"size": "64"}]}}}, "dtype": {"type": "DT_FLOAT"}}}, {"name": "mb/Openpose/MConv_Stage3_L1_3_pointwise/weights", "op": "Const", "attr": {"value": {"tensor": {"dtype": "DT_FLOAT", "tensorShape": {"dim": [{"size": "1"}, {"size": "1"}, {"size": "64"}, {"size": "64"}]}}}, "dtype": {"type": "DT_FLOAT"}}}, {"name": "mb/Openpose/MConv_Stage3_L1_3_pointwise/Conv2D_bn_offset", "op": "Const", "attr": {"value": {"tensor": {"dtype": "DT_FLOAT", "tensorShape": {"dim": [{"size": "64"}]}}}, "dtype": {"type": "DT_FLOAT"}}}, {"name": "mb/Openpose/MConv_Stage3_L2_3_pointwise/weights", "op": "Const", "attr": {"value": {"tensor": {"dtype": "DT_FLOAT", "tensorShape": {"dim": [{"size": "1"}, {"size": "1"}, {"size": "64"}, {"size": "64"}]}}}, "dtype": {"type": "DT_FLOAT"}}}, {"name": "mb/Openpose/MConv_Stage3_L2_3_pointwise/Conv2D_bn_offset", "op": "Const", "attr": {"value": {"tensor": {"dtype": "DT_FLOAT", "tensorShape": {"dim": [{"size": "64"}]}}}, "dtype": {"type": "DT_FLOAT"}}}, {"name": "mb/Openpose/MConv_Stage3_L1_4_pointwise/weights", "op": "Const", "attr": {"value": {"tensor": {"dtype": "DT_FLOAT", "tensorShape": {"dim": [{"size": "1"}, {"size": "1"}, {"size": "64"}, {"size": "64"}]}}}, "dtype": {"type": "DT_FLOAT"}}}, {"name": "mb/Openpose/MConv_Stage3_L1_4_pointwise/Conv2D_bn_offset", "op": "Const", "attr": {"value": {"tensor": {"dtype": "DT_FLOAT", "tensorShape": {"dim": [{"size": "64"}]}}}, "dtype": {"type": "DT_FLOAT"}}}, {"name": "mb/Openpose/MConv_Stage3_L2_4_pointwise/weights", "op": "Const", "attr": {"value": {"tensor": {"dtype": "DT_FLOAT", "tensorShape": {"dim": [{"size": "1"}, {"size": "1"}, {"size": "64"}, {"size": "64"}]}}}, "dtype": {"type": "DT_FLOAT"}}}, {"name": "mb/Openpose/MConv_Stage3_L2_4_pointwise/Conv2D_bn_offset", "op": "Const", "attr": {"value": {"tensor": {"dtype": "DT_FLOAT", "tensorShape": {"dim": [{"size": "64"}]}}}, "dtype": {"type": "DT_FLOAT"}}}, {"name": "mb/Openpose/MConv_Stage3_L1_5_pointwise/weights", "op": "Const", "attr": {"value": {"tensor": {"dtype": "DT_FLOAT", "tensorShape": {"dim": [{"size": "1"}, {"size": "1"}, {"size": "64"}, {"size": "38"}]}}}, "dtype": {"type": "DT_FLOAT"}}}, {"name": "mb/Openpose/MConv_Stage3_L1_5_pointwise/Conv2D_bn_offset", "op": "Const", "attr": {"value": {"tensor": {"dtype": "DT_FLOAT", "tensorShape": {"dim": [{"size": "38"}]}}}, "dtype": {"type": "DT_FLOAT"}}}, {"name": "mb/Openpose/MConv_Stage3_L2_5_pointwise/weights", "op": "Const", "attr": {"value": {"tensor": {"dtype": "DT_FLOAT", "tensorShape": {"dim": [{"size": "1"}, {"size": "1"}, {"size": "64"}, {"size": "22"}]}}}, "dtype": {"type": "DT_FLOAT"}}}, {"name": "mb/Openpose/MConv_Stage3_L2_5_pointwise/Conv2D_bn_offset", "op": "Const", "attr": {"value": {"tensor": {"dtype": "DT_FLOAT", "tensorShape": {"dim": [{"size": "22"}]}}}, "dtype": {"type": "DT_FLOAT"}}}, {"name": "mb/Openpose/MConv_Stage4_L1_1_pointwise/weights", "op": "Const", "attr": {"value": {"tensor": {"dtype": "DT_FLOAT", "tensorShape": {"dim": [{"size": "1"}, {"size": "1"}, {"size": "924"}, {"size": "64"}]}}}, "dtype": {"type": "DT_FLOAT"}}}, {"name": "mb/Openpose/MConv_Stage4_L1_1_pointwise/Conv2D_bn_offset", "op": "Const", "attr": {"value": {"tensor": {"dtype": "DT_FLOAT", "tensorShape": {"dim": [{"size": "64"}]}}}, "dtype": {"type": "DT_FLOAT"}}}, {"name": "mb/Openpose/MConv_Stage4_L2_1_pointwise/weights", "op": "Const", "attr": {"value": {"tensor": {"dtype": "DT_FLOAT", "tensorShape": {"dim": [{"size": "1"}, {"size": "1"}, {"size": "924"}, {"size": "64"}]}}}, "dtype": {"type": "DT_FLOAT"}}}, {"name": "mb/Openpose/MConv_Stage4_L2_1_pointwise/Conv2D_bn_offset", "op": "Const", "attr": {"value": {"tensor": {"dtype": "DT_FLOAT", "tensorShape": {"dim": [{"size": "64"}]}}}, "dtype": {"type": "DT_FLOAT"}}}, {"name": "mb/Openpose/MConv_Stage4_L1_2_pointwise/weights", "op": "Const", "attr": {"value": {"tensor": {"dtype": "DT_FLOAT", "tensorShape": {"dim": [{"size": "1"}, {"size": "1"}, {"size": "64"}, {"size": "64"}]}}}, "dtype": {"type": "DT_FLOAT"}}}, {"name": "mb/Openpose/MConv_Stage4_L1_2_pointwise/Conv2D_bn_offset", "op": "Const", "attr": {"value": {"tensor": {"dtype": "DT_FLOAT", "tensorShape": {"dim": [{"size": "64"}]}}}, "dtype": {"type": "DT_FLOAT"}}}, {"name": "mb/Openpose/MConv_Stage4_L2_2_pointwise/weights", "op": "Const", "attr": {"value": {"tensor": {"dtype": "DT_FLOAT", "tensorShape": {"dim": [{"size": "1"}, {"size": "1"}, {"size": "64"}, {"size": "64"}]}}}, "dtype": {"type": "DT_FLOAT"}}}, {"name": "mb/Openpose/MConv_Stage4_L2_2_pointwise/Conv2D_bn_offset", "op": "Const", "attr": {"value": {"tensor": {"dtype": "DT_FLOAT", "tensorShape": {"dim": [{"size": "64"}]}}}, "dtype": {"type": "DT_FLOAT"}}}, {"name": "mb/Openpose/MConv_Stage4_L1_3_pointwise/weights", "op": "Const", "attr": {"value": {"tensor": {"dtype": "DT_FLOAT", "tensorShape": {"dim": [{"size": "1"}, {"size": "1"}, {"size": "64"}, {"size": "64"}]}}}, "dtype": {"type": "DT_FLOAT"}}}, {"name": "mb/Openpose/MConv_Stage4_L1_3_pointwise/Conv2D_bn_offset", "op": "Const", "attr": {"value": {"tensor": {"dtype": "DT_FLOAT", "tensorShape": {"dim": [{"size": "64"}]}}}, "dtype": {"type": "DT_FLOAT"}}}, {"name": "mb/Openpose/MConv_Stage4_L2_3_pointwise/weights", "op": "Const", "attr": {"value": {"tensor": {"dtype": "DT_FLOAT", "tensorShape": {"dim": [{"size": "1"}, {"size": "1"}, {"size": "64"}, {"size": "64"}]}}}, "dtype": {"type": "DT_FLOAT"}}}, {"name": "mb/Openpose/MConv_Stage4_L2_3_pointwise/Conv2D_bn_offset", "op": "Const", "attr": {"value": {"tensor": {"dtype": "DT_FLOAT", "tensorShape": {"dim": [{"size": "64"}]}}}, "dtype": {"type": "DT_FLOAT"}}}, {"name": "mb/Openpose/MConv_Stage4_L1_4_pointwise/weights", "op": "Const", "attr": {"value": {"tensor": {"dtype": "DT_FLOAT", "tensorShape": {"dim": [{"size": "1"}, {"size": "1"}, {"size": "64"}, {"size": "64"}]}}}, "dtype": {"type": "DT_FLOAT"}}}, {"name": "mb/Openpose/MConv_Stage4_L1_4_pointwise/Conv2D_bn_offset", "op": "Const", "attr": {"value": {"tensor": {"dtype": "DT_FLOAT", "tensorShape": {"dim": [{"size": "64"}]}}}, "dtype": {"type": "DT_FLOAT"}}}, {"name": "mb/Openpose/MConv_Stage4_L2_4_pointwise/weights", "op": "Const", "attr": {"value": {"tensor": {"dtype": "DT_FLOAT", "tensorShape": {"dim": [{"size": "1"}, {"size": "1"}, {"size": "64"}, {"size": "64"}]}}}, "dtype": {"type": "DT_FLOAT"}}}, {"name": "mb/Openpose/MConv_Stage4_L2_4_pointwise/Conv2D_bn_offset", "op": "Const", "attr": {"value": {"tensor": {"dtype": "DT_FLOAT", "tensorShape": {"dim": [{"size": "64"}]}}}, "dtype": {"type": "DT_FLOAT"}}}, {"name": "mb/Openpose/MConv_Stage4_L1_5_pointwise/weights", "op": "Const", "attr": {"value": {"tensor": {"dtype": "DT_FLOAT", "tensorShape": {"dim": [{"size": "1"}, {"size": "1"}, {"size": "64"}, {"size": "38"}]}}}, "dtype": {"type": "DT_FLOAT"}}}, {"name": "mb/Openpose/MConv_Stage4_L1_5_pointwise/Conv2D_bn_offset", "op": "Const", "attr": {"value": {"tensor": {"dtype": "DT_FLOAT", "tensorShape": {"dim": [{"size": "38"}]}}}, "dtype": {"type": "DT_FLOAT"}}}, {"name": "mb/Openpose/MConv_Stage4_L2_5_pointwise/weights", "op": "Const", "attr": {"value": {"tensor": {"dtype": "DT_FLOAT", "tensorShape": {"dim": [{"size": "1"}, {"size": "1"}, {"size": "64"}, {"size": "22"}]}}}, "dtype": {"type": "DT_FLOAT"}}}, {"name": "mb/Openpose/MConv_Stage4_L2_5_pointwise/Conv2D_bn_offset", "op": "Const", "attr": {"value": {"tensor": {"dtype": "DT_FLOAT", "tensorShape": {"dim": [{"size": "22"}]}}}, "dtype": {"type": "DT_FLOAT"}}}, {"name": "mb/Openpose/MConv_Stage5_L1_1_pointwise/weights", "op": "Const", "attr": {"value": {"tensor": {"dtype": "DT_FLOAT", "tensorShape": {"dim": [{"size": "1"}, {"size": "1"}, {"size": "924"}, {"size": "64"}]}}}, "dtype": {"type": "DT_FLOAT"}}}, {"name": "mb/Openpose/MConv_Stage5_L1_1_pointwise/Conv2D_bn_offset", "op": "Const", "attr": {"value": {"tensor": {"dtype": "DT_FLOAT", "tensorShape": {"dim": [{"size": "64"}]}}}, "dtype": {"type": "DT_FLOAT"}}}, {"name": "mb/Openpose/MConv_Stage5_L2_1_pointwise/weights", "op": "Const", "attr": {"value": {"tensor": {"dtype": "DT_FLOAT", "tensorShape": {"dim": [{"size": "1"}, {"size": "1"}, {"size": "924"}, {"size": "64"}]}}}, "dtype": {"type": "DT_FLOAT"}}}, {"name": "mb/Openpose/MConv_Stage5_L2_1_pointwise/Conv2D_bn_offset", "op": "Const", "attr": {"value": {"tensor": {"dtype": "DT_FLOAT", "tensorShape": {"dim": [{"size": "64"}]}}}, "dtype": {"type": "DT_FLOAT"}}}, {"name": "mb/Openpose/MConv_Stage5_L1_2_pointwise/weights", "op": "Const", "attr": {"value": {"tensor": {"dtype": "DT_FLOAT", "tensorShape": {"dim": [{"size": "1"}, {"size": "1"}, {"size": "64"}, {"size": "64"}]}}}, "dtype": {"type": "DT_FLOAT"}}}, {"name": "mb/Openpose/MConv_Stage5_L1_2_pointwise/Conv2D_bn_offset", "op": "Const", "attr": {"value": {"tensor": {"dtype": "DT_FLOAT", "tensorShape": {"dim": [{"size": "64"}]}}}, "dtype": {"type": "DT_FLOAT"}}}, {"name": "mb/Openpose/MConv_Stage5_L2_2_pointwise/weights", "op": "Const", "attr": {"value": {"tensor": {"dtype": "DT_FLOAT", "tensorShape": {"dim": [{"size": "1"}, {"size": "1"}, {"size": "64"}, {"size": "64"}]}}}, "dtype": {"type": "DT_FLOAT"}}}, {"name": "mb/Openpose/MConv_Stage5_L2_2_pointwise/Conv2D_bn_offset", "op": "Const", "attr": {"value": {"tensor": {"dtype": "DT_FLOAT", "tensorShape": {"dim": [{"size": "64"}]}}}, "dtype": {"type": "DT_FLOAT"}}}, {"name": "mb/Openpose/MConv_Stage5_L1_3_pointwise/weights", "op": "Const", "attr": {"value": {"tensor": {"dtype": "DT_FLOAT", "tensorShape": {"dim": [{"size": "1"}, {"size": "1"}, {"size": "64"}, {"size": "64"}]}}}, "dtype": {"type": "DT_FLOAT"}}}, {"name": "mb/Openpose/MConv_Stage5_L1_3_pointwise/Conv2D_bn_offset", "op": "Const", "attr": {"value": {"tensor": {"dtype": "DT_FLOAT", "tensorShape": {"dim": [{"size": "64"}]}}}, "dtype": {"type": "DT_FLOAT"}}}, {"name": "mb/Openpose/MConv_Stage5_L2_3_pointwise/weights", "op": "Const", "attr": {"value": {"tensor": {"dtype": "DT_FLOAT", "tensorShape": {"dim": [{"size": "1"}, {"size": "1"}, {"size": "64"}, {"size": "64"}]}}}, "dtype": {"type": "DT_FLOAT"}}}, {"name": "mb/Openpose/MConv_Stage5_L2_3_pointwise/Conv2D_bn_offset", "op": "Const", "attr": {"value": {"tensor": {"dtype": "DT_FLOAT", "tensorShape": {"dim": [{"size": "64"}]}}}, "dtype": {"type": "DT_FLOAT"}}}, {"name": "mb/Openpose/MConv_Stage5_L1_4_pointwise/weights", "op": "Const", "attr": {"value": {"tensor": {"dtype": "DT_FLOAT", "tensorShape": {"dim": [{"size": "1"}, {"size": "1"}, {"size": "64"}, {"size": "64"}]}}}, "dtype": {"type": "DT_FLOAT"}}}, {"name": "mb/Openpose/MConv_Stage5_L1_4_pointwise/Conv2D_bn_offset", "op": "Const", "attr": {"value": {"tensor": {"dtype": "DT_FLOAT", "tensorShape": {"dim": [{"size": "64"}]}}}, "dtype": {"type": "DT_FLOAT"}}}, {"name": "mb/Openpose/MConv_Stage5_L2_4_pointwise/weights", "op": "Const", "attr": {"value": {"tensor": {"dtype": "DT_FLOAT", "tensorShape": {"dim": [{"size": "1"}, {"size": "1"}, {"size": "64"}, {"size": "64"}]}}}, "dtype": {"type": "DT_FLOAT"}}}, {"name": "mb/Openpose/MConv_Stage5_L2_4_pointwise/Conv2D_bn_offset", "op": "Const", "attr": {"value": {"tensor": {"dtype": "DT_FLOAT", "tensorShape": {"dim": [{"size": "64"}]}}}, "dtype": {"type": "DT_FLOAT"}}}, {"name": "mb/Openpose/MConv_Stage5_L1_5_pointwise/weights", "op": "Const", "attr": {"value": {"tensor": {"dtype": "DT_FLOAT", "tensorShape": {"dim": [{"size": "1"}, {"size": "1"}, {"size": "64"}, {"size": "38"}]}}}, "dtype": {"type": "DT_FLOAT"}}}, {"name": "mb/Openpose/MConv_Stage5_L1_5_pointwise/Conv2D_bn_offset", "op": "Const", "attr": {"value": {"tensor": {"dtype": "DT_FLOAT", "tensorShape": {"dim": [{"size": "38"}]}}}, "dtype": {"type": "DT_FLOAT"}}}, {"name": "mb/Openpose/MConv_Stage5_L2_5_pointwise/weights", "op": "Const", "attr": {"value": {"tensor": {"dtype": "DT_FLOAT", "tensorShape": {"dim": [{"size": "1"}, {"size": "1"}, {"size": "64"}, {"size": "22"}]}}}, "dtype": {"type": "DT_FLOAT"}}}, {"name": "mb/Openpose/MConv_Stage5_L2_5_pointwise/Conv2D_bn_offset", "op": "Const", "attr": {"value": {"tensor": {"dtype": "DT_FLOAT", "tensorShape": {"dim": [{"size": "22"}]}}}, "dtype": {"type": "DT_FLOAT"}}}, {"name": "mb/Openpose/MConv_Stage6_L2_1_pointwise/weights", "op": "Const", "attr": {"value": {"tensor": {"dtype": "DT_FLOAT", "tensorShape": {"dim": [{"size": "1"}, {"size": "1"}, {"size": "924"}, {"size": "64"}]}}}, "dtype": {"type": "DT_FLOAT"}}}, {"name": "mb/Openpose/MConv_Stage6_L2_1_pointwise/Conv2D_bn_offset", "op": "Const", "attr": {"value": {"tensor": {"dtype": "DT_FLOAT", "tensorShape": {"dim": [{"size": "64"}]}}}, "dtype": {"type": "DT_FLOAT"}}}, {"name": "mb/Openpose/MConv_Stage6_L1_1_pointwise/weights", "op": "Const", "attr": {"value": {"tensor": {"dtype": "DT_FLOAT", "tensorShape": {"dim": [{"size": "1"}, {"size": "1"}, {"size": "924"}, {"size": "64"}]}}}, "dtype": {"type": "DT_FLOAT"}}}, {"name": "mb/Openpose/MConv_Stage6_L1_1_pointwise/Conv2D_bn_offset", "op": "Const", "attr": {"value": {"tensor": {"dtype": "DT_FLOAT", "tensorShape": {"dim": [{"size": "64"}]}}}, "dtype": {"type": "DT_FLOAT"}}}, {"name": "mb/Openpose/MConv_Stage6_L2_2_pointwise/weights", "op": "Const", "attr": {"value": {"tensor": {"dtype": "DT_FLOAT", "tensorShape": {"dim": [{"size": "1"}, {"size": "1"}, {"size": "64"}, {"size": "64"}]}}}, "dtype": {"type": "DT_FLOAT"}}}, {"name": "mb/Openpose/MConv_Stage6_L2_2_pointwise/Conv2D_bn_offset", "op": "Const", "attr": {"value": {"tensor": {"dtype": "DT_FLOAT", "tensorShape": {"dim": [{"size": "64"}]}}}, "dtype": {"type": "DT_FLOAT"}}}, {"name": "mb/Openpose/MConv_Stage6_L1_2_pointwise/weights", "op": "Const", "attr": {"value": {"tensor": {"dtype": "DT_FLOAT", "tensorShape": {"dim": [{"size": "1"}, {"size": "1"}, {"size": "64"}, {"size": "64"}]}}}, "dtype": {"type": "DT_FLOAT"}}}, {"name": "mb/Openpose/MConv_Stage6_L1_2_pointwise/Conv2D_bn_offset", "op": "Const", "attr": {"value": {"tensor": {"dtype": "DT_FLOAT", "tensorShape": {"dim": [{"size": "64"}]}}}, "dtype": {"type": "DT_FLOAT"}}}, {"name": "mb/Openpose/MConv_Stage6_L2_3_pointwise/weights", "op": "Const", "attr": {"value": {"tensor": {"dtype": "DT_FLOAT", "tensorShape": {"dim": [{"size": "1"}, {"size": "1"}, {"size": "64"}, {"size": "64"}]}}}, "dtype": {"type": "DT_FLOAT"}}}, {"name": "mb/Openpose/MConv_Stage6_L2_3_pointwise/Conv2D_bn_offset", "op": "Const", "attr": {"value": {"tensor": {"dtype": "DT_FLOAT", "tensorShape": {"dim": [{"size": "64"}]}}}, "dtype": {"type": "DT_FLOAT"}}}, {"name": "mb/Openpose/MConv_Stage6_L1_3_pointwise/weights", "op": "Const", "attr": {"value": {"tensor": {"dtype": "DT_FLOAT", "tensorShape": {"dim": [{"size": "1"}, {"size": "1"}, {"size": "64"}, {"size": "64"}]}}}, "dtype": {"type": "DT_FLOAT"}}}, {"name": "mb/Openpose/MConv_Stage6_L1_3_pointwise/Conv2D_bn_offset", "op": "Const", "attr": {"value": {"tensor": {"dtype": "DT_FLOAT", "tensorShape": {"dim": [{"size": "64"}]}}}, "dtype": {"type": "DT_FLOAT"}}}, {"name": "mb/Openpose/MConv_Stage6_L2_4_pointwise/weights", "op": "Const", "attr": {"value": {"tensor": {"dtype": "DT_FLOAT", "tensorShape": {"dim": [{"size": "1"}, {"size": "1"}, {"size": "64"}, {"size": "64"}]}}}, "dtype": {"type": "DT_FLOAT"}}}, {"name": "mb/Openpose/MConv_Stage6_L2_4_pointwise/Conv2D_bn_offset", "op": "Const", "attr": {"value": {"tensor": {"dtype": "DT_FLOAT", "tensorShape": {"dim": [{"size": "64"}]}}}, "dtype": {"type": "DT_FLOAT"}}}, {"name": "mb/Openpose/MConv_Stage6_L1_4_pointwise/weights", "op": "Const", "attr": {"value": {"tensor": {"dtype": "DT_FLOAT", "tensorShape": {"dim": [{"size": "1"}, {"size": "1"}, {"size": "64"}, {"size": "64"}]}}}, "dtype": {"type": "DT_FLOAT"}}}, {"name": "mb/Openpose/MConv_Stage6_L1_4_pointwise/Conv2D_bn_offset", "op": "Const", "attr": {"value": {"tensor": {"dtype": "DT_FLOAT", "tensorShape": {"dim": [{"size": "64"}]}}}, "dtype": {"type": "DT_FLOAT"}}}, {"name": "mb/Openpose/MConv_Stage6_L2_5_pointwise/weights", "op": "Const", "attr": {"value": {"tensor": {"dtype": "DT_FLOAT", "tensorShape": {"dim": [{"size": "1"}, {"size": "1"}, {"size": "64"}, {"size": "22"}]}}}, "dtype": {"type": "DT_FLOAT"}}}, {"name": "mb/Openpose/MConv_Stage6_L2_5_pointwise/Conv2D_bn_offset", "op": "Const", "attr": {"value": {"tensor": {"dtype": "DT_FLOAT", "tensorShape": {"dim": [{"size": "22"}]}}}, "dtype": {"type": "DT_FLOAT"}}}, {"name": "mb/Openpose/MConv_Stage6_L1_5_pointwise/weights", "op": "Const", "attr": {"value": {"tensor": {"dtype": "DT_FLOAT", "tensorShape": {"dim": [{"size": "1"}, {"size": "1"}, {"size": "64"}, {"size": "38"}]}}}, "dtype": {"type": "DT_FLOAT"}}}, {"name": "mb/Openpose/MConv_Stage6_L1_5_pointwise/Conv2D_bn_offset", "op": "Const", "attr": {"value": {"tensor": {"dtype": "DT_FLOAT", "tensorShape": {"dim": [{"size": "38"}]}}}, "dtype": {"type": "DT_FLOAT"}}}, {"name": "mb/MobilenetV1/Conv2d_0/Relu", "op": "_FusedConv2D", "input": ["mb/image", "mb/MobilenetV1/Conv2d_0/weights", "mb/MobilenetV1/Conv2d_0/Conv2D_bn_offset"], "device": "/device:CPU:0", "attr": {"dilations": {"list": {"i": ["1", "1", "1", "1"]}}, "T": {"type": "DT_FLOAT"}, "data_format": {"s": "TkhXQw=="}, "strides": {"list": {"i": ["1", "2", "2", "1"]}}, "use_cudnn_on_gpu": {"b": true}, "explicit_paddings": {"list": {}}, "num_args": {"i": "1"}, "epsilon": {"f": 0.0}, "padding": {"s": "U0FNRQ=="}, "fused_ops": {"list": {"s": ["Qmlhc0FkZA==", "UmVsdQ=="]}}}}, {"name": "mb/MobilenetV1/Conv2d_1_depthwise/depthwise", "op": "DepthwiseConv2dNative", "input": ["mb/MobilenetV1/Conv2d_0/Relu", "mb/MobilenetV1/Conv2d_1_depthwise/depthwise_weights"], "attr": {"padding": {"s": "U0FNRQ=="}, "dilations": {"list": {"i": ["1", "1", "1", "1"]}}, "T": {"type": "DT_FLOAT"}, "strides": {"list": {"i": ["1", "1", "1", "1"]}}, "data_format": {"s": "TkhXQw=="}}}, {"name": "mb/MobilenetV1/Conv2d_1_pointwise/Relu", "op": "_FusedConv2D", "input": ["mb/MobilenetV1/Conv2d_1_depthwise/depthwise", "mb/MobilenetV1/Conv2d_1_pointwise/weights", "mb/MobilenetV1/Conv2d_1_pointwise/Conv2D_bn_offset"], "device": "/device:CPU:0", "attr": {"dilations": {"list": {"i": ["1", "1", "1", "1"]}}, "T": {"type": "DT_FLOAT"}, "data_format": {"s": "TkhXQw=="}, "strides": {"list": {"i": ["1", "1", "1", "1"]}}, "use_cudnn_on_gpu": {"b": true}, "explicit_paddings": {"list": {}}, "num_args": {"i": "1"}, "epsilon": {"f": 0.0}, "padding": {"s": "U0FNRQ=="}, "fused_ops": {"list": {"s": ["Qmlhc0FkZA==", "UmVsdQ=="]}}}}, {"name": "mb/MobilenetV1/Conv2d_2_depthwise/depthwise", "op": "DepthwiseConv2dNative", "input": ["mb/MobilenetV1/Conv2d_1_pointwise/Relu", "mb/MobilenetV1/Conv2d_2_depthwise/depthwise_weights"], "attr": {"padding": {"s": "U0FNRQ=="}, "dilations": {"list": {"i": ["1", "1", "1", "1"]}}, "T": {"type": "DT_FLOAT"}, "strides": {"list": {"i": ["1", "2", "2", "1"]}}, "data_format": {"s": "TkhXQw=="}}}, {"name": "mb/MobilenetV1/Conv2d_2_pointwise/Relu", "op": "_FusedConv2D", "input": ["mb/MobilenetV1/Conv2d_2_depthwise/depthwise", "mb/MobilenetV1/Conv2d_2_pointwise/weights", "mb/MobilenetV1/Conv2d_2_pointwise/Conv2D_bn_offset"], "device": "/device:CPU:0", "attr": {"dilations": {"list": {"i": ["1", "1", "1", "1"]}}, "T": {"type": "DT_FLOAT"}, "data_format": {"s": "TkhXQw=="}, "strides": {"list": {"i": ["1", "1", "1", "1"]}}, "use_cudnn_on_gpu": {"b": true}, "explicit_paddings": {"list": {}}, "num_args": {"i": "1"}, "epsilon": {"f": 0.0}, "padding": {"s": "U0FNRQ=="}, "fused_ops": {"list": {"s": ["Qmlhc0FkZA==", "UmVsdQ=="]}}}}, {"name": "mb/MobilenetV1/Conv2d_3_depthwise/depthwise", "op": "DepthwiseConv2dNative", "input": ["mb/MobilenetV1/Conv2d_2_pointwise/Relu", "mb/MobilenetV1/Conv2d_3_depthwise/depthwise_weights"], "attr": {"padding": {"s": "U0FNRQ=="}, "dilations": {"list": {"i": ["1", "1", "1", "1"]}}, "T": {"type": "DT_FLOAT"}, "data_format": {"s": "TkhXQw=="}, "strides": {"list": {"i": ["1", "1", "1", "1"]}}}}, {"name": "mb/MobilenetV1/Conv2d_3_pointwise/Relu", "op": "_FusedConv2D", "input": ["mb/MobilenetV1/Conv2d_3_depthwise/depthwise", "mb/MobilenetV1/Conv2d_3_pointwise/weights", "mb/MobilenetV1/Conv2d_3_pointwise/Conv2D_bn_offset"], "device": "/device:CPU:0", "attr": {"dilations": {"list": {"i": ["1", "1", "1", "1"]}}, "T": {"type": "DT_FLOAT"}, "data_format": {"s": "TkhXQw=="}, "strides": {"list": {"i": ["1", "1", "1", "1"]}}, "use_cudnn_on_gpu": {"b": true}, "explicit_paddings": {"list": {}}, "num_args": {"i": "1"}, "epsilon": {"f": 0.0}, "padding": {"s": "U0FNRQ=="}, "fused_ops": {"list": {"s": ["Qmlhc0FkZA==", "UmVsdQ=="]}}}}, {"name": "mb/Conv2d_3_pool", "op": "MaxPool", "input": ["mb/MobilenetV1/Conv2d_3_pointwise/Relu"], "attr": {"ksize": {"list": {"i": ["1", "2", "2", "1"]}}, "padding": {"s": "U0FNRQ=="}, "T": {"type": "DT_FLOAT"}, "data_format": {"s": "TkhXQw=="}, "strides": {"list": {"i": ["1", "2", "2", "1"]}}}}, {"name": "mb/MobilenetV1/Conv2d_4_depthwise/depthwise", "op": "DepthwiseConv2dNative", "input": ["mb/MobilenetV1/Conv2d_3_pointwise/Relu", "mb/MobilenetV1/Conv2d_4_depthwise/depthwise_weights"], "attr": {"padding": {"s": "U0FNRQ=="}, "dilations": {"list": {"i": ["1", "1", "1", "1"]}}, "T": {"type": "DT_FLOAT"}, "data_format": {"s": "TkhXQw=="}, "strides": {"list": {"i": ["1", "2", "2", "1"]}}}}, {"name": "mb/MobilenetV1/Conv2d_4_pointwise/Relu", "op": "_FusedConv2D", "input": ["mb/MobilenetV1/Conv2d_4_depthwise/depthwise", "mb/MobilenetV1/Conv2d_4_pointwise/weights", "mb/MobilenetV1/Conv2d_4_pointwise/Conv2D_bn_offset"], "device": "/device:CPU:0", "attr": {"dilations": {"list": {"i": ["1", "1", "1", "1"]}}, "T": {"type": "DT_FLOAT"}, "data_format": {"s": "TkhXQw=="}, "strides": {"list": {"i": ["1", "1", "1", "1"]}}, "use_cudnn_on_gpu": {"b": true}, "explicit_paddings": {"list": {}}, "num_args": {"i": "1"}, "epsilon": {"f": 0.0}, "padding": {"s": "U0FNRQ=="}, "fused_ops": {"list": {"s": ["Qmlhc0FkZA==", "UmVsdQ=="]}}}}, {"name": "mb/MobilenetV1/Conv2d_5_depthwise/depthwise", "op": "DepthwiseConv2dNative", "input": ["mb/MobilenetV1/Conv2d_4_pointwise/Relu", "mb/MobilenetV1/Conv2d_5_depthwise/depthwise_weights"], "attr": {"padding": {"s": "U0FNRQ=="}, "dilations": {"list": {"i": ["1", "1", "1", "1"]}}, "T": {"type": "DT_FLOAT"}, "data_format": {"s": "TkhXQw=="}, "strides": {"list": {"i": ["1", "1", "1", "1"]}}}}, {"name": "mb/MobilenetV1/Conv2d_5_pointwise/Relu", "op": "_FusedConv2D", "input": ["mb/MobilenetV1/Conv2d_5_depthwise/depthwise", "mb/MobilenetV1/Conv2d_5_pointwise/weights", "mb/MobilenetV1/Conv2d_5_pointwise/Conv2D_bn_offset"], "device": "/device:CPU:0", "attr": {"dilations": {"list": {"i": ["1", "1", "1", "1"]}}, "T": {"type": "DT_FLOAT"}, "data_format": {"s": "TkhXQw=="}, "strides": {"list": {"i": ["1", "1", "1", "1"]}}, "use_cudnn_on_gpu": {"b": true}, "explicit_paddings": {"list": {}}, "num_args": {"i": "1"}, "epsilon": {"f": 0.0}, "padding": {"s": "U0FNRQ=="}, "fused_ops": {"list": {"s": ["Qmlhc0FkZA==", "UmVsdQ=="]}}}}, {"name": "mb/MobilenetV1/Conv2d_6_depthwise/depthwise", "op": "DepthwiseConv2dNative", "input": ["mb/MobilenetV1/Conv2d_5_pointwise/Relu", "mb/MobilenetV1/Conv2d_6_depthwise/depthwise_weights"], "attr": {"padding": {"s": "U0FNRQ=="}, "dilations": {"list": {"i": ["1", "1", "1", "1"]}}, "T": {"type": "DT_FLOAT"}, "strides": {"list": {"i": ["1", "1", "1", "1"]}}, "data_format": {"s": "TkhXQw=="}}}, {"name": "mb/MobilenetV1/Conv2d_6_pointwise/Relu", "op": "_FusedConv2D", "input": ["mb/MobilenetV1/Conv2d_6_depthwise/depthwise", "mb/MobilenetV1/Conv2d_6_pointwise/weights", "mb/MobilenetV1/Conv2d_6_pointwise/Conv2D_bn_offset"], "device": "/device:CPU:0", "attr": {"dilations": {"list": {"i": ["1", "1", "1", "1"]}}, "T": {"type": "DT_FLOAT"}, "data_format": {"s": "TkhXQw=="}, "strides": {"list": {"i": ["1", "1", "1", "1"]}}, "use_cudnn_on_gpu": {"b": true}, "explicit_paddings": {"list": {}}, "num_args": {"i": "1"}, "epsilon": {"f": 0.0}, "padding": {"s": "U0FNRQ=="}, "fused_ops": {"list": {"s": ["Qmlhc0FkZA==", "UmVsdQ=="]}}}}, {"name": "mb/MobilenetV1/Conv2d_7_depthwise/depthwise", "op": "DepthwiseConv2dNative", "input": ["mb/MobilenetV1/Conv2d_6_pointwise/Relu", "mb/MobilenetV1/Conv2d_7_depthwise/depthwise_weights"], "attr": {"padding": {"s": "U0FNRQ=="}, "dilations": {"list": {"i": ["1", "1", "1", "1"]}}, "T": {"type": "DT_FLOAT"}, "strides": {"list": {"i": ["1", "1", "1", "1"]}}, "data_format": {"s": "TkhXQw=="}}}, {"name": "mb/MobilenetV1/Conv2d_7_pointwise/Relu", "op": "_FusedConv2D", "input": ["mb/MobilenetV1/Conv2d_7_depthwise/depthwise", "mb/MobilenetV1/Conv2d_7_pointwise/weights", "mb/MobilenetV1/Conv2d_7_pointwise/Conv2D_bn_offset"], "device": "/device:CPU:0", "attr": {"dilations": {"list": {"i": ["1", "1", "1", "1"]}}, "T": {"type": "DT_FLOAT"}, "data_format": {"s": "TkhXQw=="}, "strides": {"list": {"i": ["1", "1", "1", "1"]}}, "use_cudnn_on_gpu": {"b": true}, "explicit_paddings": {"list": {}}, "num_args": {"i": "1"}, "epsilon": {"f": 0.0}, "padding": {"s": "U0FNRQ=="}, "fused_ops": {"list": {"s": ["Qmlhc0FkZA==", "UmVsdQ=="]}}}}, {"name": "mb/MobilenetV1/Conv2d_8_depthwise/depthwise", "op": "DepthwiseConv2dNative", "input": ["mb/MobilenetV1/Conv2d_7_pointwise/Relu", "mb/MobilenetV1/Conv2d_8_depthwise/depthwise_weights"], "attr": {"padding": {"s": "U0FNRQ=="}, "dilations": {"list": {"i": ["1", "1", "1", "1"]}}, "T": {"type": "DT_FLOAT"}, "strides": {"list": {"i": ["1", "1", "1", "1"]}}, "data_format": {"s": "TkhXQw=="}}}, {"name": "mb/MobilenetV1/Conv2d_8_pointwise/Relu", "op": "_FusedConv2D", "input": ["mb/MobilenetV1/Conv2d_8_depthwise/depthwise", "mb/MobilenetV1/Conv2d_8_pointwise/weights", "mb/MobilenetV1/Conv2d_8_pointwise/Conv2D_bn_offset"], "device": "/device:CPU:0", "attr": {"dilations": {"list": {"i": ["1", "1", "1", "1"]}}, "T": {"type": "DT_FLOAT"}, "data_format": {"s": "TkhXQw=="}, "strides": {"list": {"i": ["1", "1", "1", "1"]}}, "use_cudnn_on_gpu": {"b": true}, "explicit_paddings": {"list": {}}, "num_args": {"i": "1"}, "epsilon": {"f": 0.0}, "padding": {"s": "U0FNRQ=="}, "fused_ops": {"list": {"s": ["Qmlhc0FkZA==", "UmVsdQ=="]}}}}, {"name": "mb/MobilenetV1/Conv2d_9_depthwise/depthwise", "op": "DepthwiseConv2dNative", "input": ["mb/MobilenetV1/Conv2d_8_pointwise/Relu", "mb/MobilenetV1/Conv2d_9_depthwise/depthwise_weights"], "attr": {"padding": {"s": "U0FNRQ=="}, "dilations": {"list": {"i": ["1", "1", "1", "1"]}}, "T": {"type": "DT_FLOAT"}, "data_format": {"s": "TkhXQw=="}, "strides": {"list": {"i": ["1", "1", "1", "1"]}}}}, {"name": "mb/MobilenetV1/Conv2d_9_pointwise/Relu", "op": "_FusedConv2D", "input": ["mb/MobilenetV1/Conv2d_9_depthwise/depthwise", "mb/MobilenetV1/Conv2d_9_pointwise/weights", "mb/MobilenetV1/Conv2d_9_pointwise/Conv2D_bn_offset"], "device": "/device:CPU:0", "attr": {"dilations": {"list": {"i": ["1", "1", "1", "1"]}}, "T": {"type": "DT_FLOAT"}, "data_format": {"s": "TkhXQw=="}, "strides": {"list": {"i": ["1", "1", "1", "1"]}}, "use_cudnn_on_gpu": {"b": true}, "explicit_paddings": {"list": {}}, "num_args": {"i": "1"}, "epsilon": {"f": 0.0}, "padding": {"s": "U0FNRQ=="}, "fused_ops": {"list": {"s": ["Qmlhc0FkZA==", "UmVsdQ=="]}}}}, {"name": "mb/MobilenetV1/Conv2d_10_depthwise/depthwise", "op": "DepthwiseConv2dNative", "input": ["mb/MobilenetV1/Conv2d_9_pointwise/Relu", "mb/MobilenetV1/Conv2d_10_depthwise/depthwise_weights"], "attr": {"padding": {"s": "U0FNRQ=="}, "dilations": {"list": {"i": ["1", "1", "1", "1"]}}, "T": {"type": "DT_FLOAT"}, "data_format": {"s": "TkhXQw=="}, "strides": {"list": {"i": ["1", "1", "1", "1"]}}}}, {"name": "mb/MobilenetV1/Conv2d_10_pointwise/Relu", "op": "_FusedConv2D", "input": ["mb/MobilenetV1/Conv2d_10_depthwise/depthwise", "mb/MobilenetV1/Conv2d_10_pointwise/weights", "mb/MobilenetV1/Conv2d_10_pointwise/Conv2D_bn_offset"], "device": "/device:CPU:0", "attr": {"dilations": {"list": {"i": ["1", "1", "1", "1"]}}, "T": {"type": "DT_FLOAT"}, "data_format": {"s": "TkhXQw=="}, "strides": {"list": {"i": ["1", "1", "1", "1"]}}, "use_cudnn_on_gpu": {"b": true}, "explicit_paddings": {"list": {}}, "num_args": {"i": "1"}, "epsilon": {"f": 0.0}, "padding": {"s": "U0FNRQ=="}, "fused_ops": {"list": {"s": ["Qmlhc0FkZA==", "UmVsdQ=="]}}}}, {"name": "mb/MobilenetV1/Conv2d_11_depthwise/depthwise", "op": "DepthwiseConv2dNative", "input": ["mb/MobilenetV1/Conv2d_10_pointwise/Relu", "mb/MobilenetV1/Conv2d_11_depthwise/depthwise_weights"], "attr": {"padding": {"s": "U0FNRQ=="}, "dilations": {"list": {"i": ["1", "1", "1", "1"]}}, "T": {"type": "DT_FLOAT"}, "strides": {"list": {"i": ["1", "1", "1", "1"]}}, "data_format": {"s": "TkhXQw=="}}}, {"name": "mb/MobilenetV1/Conv2d_11_pointwise/Relu", "op": "_FusedConv2D", "input": ["mb/MobilenetV1/Conv2d_11_depthwise/depthwise", "mb/MobilenetV1/Conv2d_11_pointwise/weights", "mb/MobilenetV1/Conv2d_11_pointwise/Conv2D_bn_offset"], "device": "/device:CPU:0", "attr": {"dilations": {"list": {"i": ["1", "1", "1", "1"]}}, "T": {"type": "DT_FLOAT"}, "data_format": {"s": "TkhXQw=="}, "strides": {"list": {"i": ["1", "1", "1", "1"]}}, "use_cudnn_on_gpu": {"b": true}, "explicit_paddings": {"list": {}}, "num_args": {"i": "1"}, "epsilon": {"f": 0.0}, "padding": {"s": "U0FNRQ=="}, "fused_ops": {"list": {"s": ["Qmlhc0FkZA==", "UmVsdQ=="]}}}}, {"name": "mb/feat_concat", "op": "ConcatV2", "input": ["mb/Conv2d_3_pool", "mb/MobilenetV1/Conv2d_7_pointwise/Relu", "mb/MobilenetV1/Conv2d_11_pointwise/Relu", "mb/Openpose/MConv_Stage2_concat/axis"], "attr": {"Tidx": {"type": "DT_INT32"}, "T": {"type": "DT_FLOAT"}, "N": {"i": "3"}}}, {"name": "mb/Openpose/MConv_Stage1_L1_1_depthwise/depthwise", "op": "DepthwiseConv2dNative", "input": ["mb/feat_concat", "mb/Openpose/MConv_Stage1_L1_1_depthwise/depthwise_weights"], "attr": {"padding": {"s": "U0FNRQ=="}, "dilations": {"list": {"i": ["1", "1", "1", "1"]}}, "T": {"type": "DT_FLOAT"}, "strides": {"list": {"i": ["1", "1", "1", "1"]}}, "data_format": {"s": "TkhXQw=="}}}, {"name": "mb/Openpose/MConv_Stage1_L2_1_depthwise/depthwise", "op": "DepthwiseConv2dNative", "input": ["mb/feat_concat", "mb/Openpose/MConv_Stage1_L2_1_depthwise/depthwise_weights"], "attr": {"padding": {"s": "U0FNRQ=="}, "dilations": {"list": {"i": ["1", "1", "1", "1"]}}, "T": {"type": "DT_FLOAT"}, "data_format": {"s": "TkhXQw=="}, "strides": {"list": {"i": ["1", "1", "1", "1"]}}}}, {"name": "mb/Openpose/MConv_Stage1_L1_1_pointwise/Relu", "op": "_FusedConv2D", "input": ["mb/Openpose/MConv_Stage1_L1_1_depthwise/depthwise", "mb/Openpose/MConv_Stage1_L1_1_pointwise/weights", "mb/Openpose/MConv_Stage1_L1_1_pointwise/Conv2D_bn_offset"], "device": "/device:CPU:0", "attr": {"dilations": {"list": {"i": ["1", "1", "1", "1"]}}, "T": {"type": "DT_FLOAT"}, "data_format": {"s": "TkhXQw=="}, "strides": {"list": {"i": ["1", "1", "1", "1"]}}, "use_cudnn_on_gpu": {"b": true}, "explicit_paddings": {"list": {}}, "num_args": {"i": "1"}, "epsilon": {"f": 0.0}, "padding": {"s": "U0FNRQ=="}, "fused_ops": {"list": {"s": ["Qmlhc0FkZA==", "UmVsdQ=="]}}}}, {"name": "mb/Openpose/MConv_Stage1_L2_1_pointwise/Relu", "op": "_FusedConv2D", "input": ["mb/Openpose/MConv_Stage1_L2_1_depthwise/depthwise", "mb/Openpose/MConv_Stage1_L2_1_pointwise/weights", "mb/Openpose/MConv_Stage1_L2_1_pointwise/Conv2D_bn_offset"], "device": "/device:CPU:0", "attr": {"dilations": {"list": {"i": ["1", "1", "1", "1"]}}, "T": {"type": "DT_FLOAT"}, "data_format": {"s": "TkhXQw=="}, "strides": {"list": {"i": ["1", "1", "1", "1"]}}, "use_cudnn_on_gpu": {"b": true}, "explicit_paddings": {"list": {}}, "num_args": {"i": "1"}, "epsilon": {"f": 0.0}, "padding": {"s": "U0FNRQ=="}, "fused_ops": {"list": {"s": ["Qmlhc0FkZA==", "UmVsdQ=="]}}}}, {"name": "mb/Openpose/MConv_Stage1_L1_2_depthwise/depthwise", "op": "DepthwiseConv2dNative", "input": ["mb/Openpose/MConv_Stage1_L1_1_pointwise/Relu", "mb/Openpose/MConv_Stage1_L1_2_depthwise/depthwise_weights"], "attr": {"padding": {"s": "U0FNRQ=="}, "dilations": {"list": {"i": ["1", "1", "1", "1"]}}, "T": {"type": "DT_FLOAT"}, "data_format": {"s": "TkhXQw=="}, "strides": {"list": {"i": ["1", "1", "1", "1"]}}}}, {"name": "mb/Openpose/MConv_Stage1_L2_2_depthwise/depthwise", "op": "DepthwiseConv2dNative", "input": ["mb/Openpose/MConv_Stage1_L2_1_pointwise/Relu", "mb/Openpose/MConv_Stage1_L2_2_depthwise/depthwise_weights"], "attr": {"padding": {"s": "U0FNRQ=="}, "dilations": {"list": {"i": ["1", "1", "1", "1"]}}, "T": {"type": "DT_FLOAT"}, "data_format": {"s": "TkhXQw=="}, "strides": {"list": {"i": ["1", "1", "1", "1"]}}}}, {"name": "mb/Openpose/MConv_Stage1_L1_2_pointwise/Relu", "op": "_FusedConv2D", "input": ["mb/Openpose/MConv_Stage1_L1_2_depthwise/depthwise", "mb/Openpose/MConv_Stage1_L1_2_pointwise/weights", "mb/Openpose/MConv_Stage1_L1_2_pointwise/Conv2D_bn_offset"], "device": "/device:CPU:0", "attr": {"dilations": {"list": {"i": ["1", "1", "1", "1"]}}, "T": {"type": "DT_FLOAT"}, "data_format": {"s": "TkhXQw=="}, "strides": {"list": {"i": ["1", "1", "1", "1"]}}, "use_cudnn_on_gpu": {"b": true}, "explicit_paddings": {"list": {}}, "num_args": {"i": "1"}, "epsilon": {"f": 0.0}, "padding": {"s": "U0FNRQ=="}, "fused_ops": {"list": {"s": ["Qmlhc0FkZA==", "UmVsdQ=="]}}}}, {"name": "mb/Openpose/MConv_Stage1_L2_2_pointwise/Relu", "op": "_FusedConv2D", "input": ["mb/Openpose/MConv_Stage1_L2_2_depthwise/depthwise", "mb/Openpose/MConv_Stage1_L2_2_pointwise/weights", "mb/Openpose/MConv_Stage1_L2_2_pointwise/Conv2D_bn_offset"], "device": "/device:CPU:0", "attr": {"dilations": {"list": {"i": ["1", "1", "1", "1"]}}, "T": {"type": "DT_FLOAT"}, "data_format": {"s": "TkhXQw=="}, "strides": {"list": {"i": ["1", "1", "1", "1"]}}, "use_cudnn_on_gpu": {"b": true}, "explicit_paddings": {"list": {}}, "num_args": {"i": "1"}, "epsilon": {"f": 0.0}, "padding": {"s": "U0FNRQ=="}, "fused_ops": {"list": {"s": ["Qmlhc0FkZA==", "UmVsdQ=="]}}}}, {"name": "mb/Openpose/MConv_Stage1_L1_3_depthwise/depthwise", "op": "DepthwiseConv2dNative", "input": ["mb/Openpose/MConv_Stage1_L1_2_pointwise/Relu", "mb/Openpose/MConv_Stage1_L1_3_depthwise/depthwise_weights"], "attr": {"padding": {"s": "U0FNRQ=="}, "dilations": {"list": {"i": ["1", "1", "1", "1"]}}, "T": {"type": "DT_FLOAT"}, "strides": {"list": {"i": ["1", "1", "1", "1"]}}, "data_format": {"s": "TkhXQw=="}}}, {"name": "mb/Openpose/MConv_Stage1_L2_3_depthwise/depthwise", "op": "DepthwiseConv2dNative", "input": ["mb/Openpose/MConv_Stage1_L2_2_pointwise/Relu", "mb/Openpose/MConv_Stage1_L2_3_depthwise/depthwise_weights"], "attr": {"padding": {"s": "U0FNRQ=="}, "dilations": {"list": {"i": ["1", "1", "1", "1"]}}, "T": {"type": "DT_FLOAT"}, "strides": {"list": {"i": ["1", "1", "1", "1"]}}, "data_format": {"s": "TkhXQw=="}}}, {"name": "mb/Openpose/MConv_Stage1_L1_3_pointwise/Relu", "op": "_FusedConv2D", "input": ["mb/Openpose/MConv_Stage1_L1_3_depthwise/depthwise", "mb/Openpose/MConv_Stage1_L1_3_pointwise/weights", "mb/Openpose/MConv_Stage1_L1_3_pointwise/Conv2D_bn_offset"], "device": "/device:CPU:0", "attr": {"dilations": {"list": {"i": ["1", "1", "1", "1"]}}, "T": {"type": "DT_FLOAT"}, "data_format": {"s": "TkhXQw=="}, "strides": {"list": {"i": ["1", "1", "1", "1"]}}, "use_cudnn_on_gpu": {"b": true}, "explicit_paddings": {"list": {}}, "num_args": {"i": "1"}, "epsilon": {"f": 0.0}, "padding": {"s": "U0FNRQ=="}, "fused_ops": {"list": {"s": ["Qmlhc0FkZA==", "UmVsdQ=="]}}}}, {"name": "mb/Openpose/MConv_Stage1_L2_3_pointwise/Relu", "op": "_FusedConv2D", "input": ["mb/Openpose/MConv_Stage1_L2_3_depthwise/depthwise", "mb/Openpose/MConv_Stage1_L2_3_pointwise/weights", "mb/Openpose/MConv_Stage1_L2_3_pointwise/Conv2D_bn_offset"], "device": "/device:CPU:0", "attr": {"dilations": {"list": {"i": ["1", "1", "1", "1"]}}, "T": {"type": "DT_FLOAT"}, "data_format": {"s": "TkhXQw=="}, "strides": {"list": {"i": ["1", "1", "1", "1"]}}, "use_cudnn_on_gpu": {"b": true}, "explicit_paddings": {"list": {}}, "num_args": {"i": "1"}, "epsilon": {"f": 0.0}, "padding": {"s": "U0FNRQ=="}, "fused_ops": {"list": {"s": ["Qmlhc0FkZA==", "UmVsdQ=="]}}}}, {"name": "mb/Openpose/MConv_Stage1_L1_4_depthwise/depthwise", "op": "DepthwiseConv2dNative", "input": ["mb/Openpose/MConv_Stage1_L1_3_pointwise/Relu", "mb/Openpose/MConv_Stage1_L1_4_depthwise/depthwise_weights"], "attr": {"padding": {"s": "U0FNRQ=="}, "dilations": {"list": {"i": ["1", "1", "1", "1"]}}, "T": {"type": "DT_FLOAT"}, "data_format": {"s": "TkhXQw=="}, "strides": {"list": {"i": ["1", "1", "1", "1"]}}}}, {"name": "mb/Openpose/MConv_Stage1_L2_4_depthwise/depthwise", "op": "DepthwiseConv2dNative", "input": ["mb/Openpose/MConv_Stage1_L2_3_pointwise/Relu", "mb/Openpose/MConv_Stage1_L2_4_depthwise/depthwise_weights"], "attr": {"padding": {"s": "U0FNRQ=="}, "dilations": {"list": {"i": ["1", "1", "1", "1"]}}, "T": {"type": "DT_FLOAT"}, "data_format": {"s": "TkhXQw=="}, "strides": {"list": {"i": ["1", "1", "1", "1"]}}}}, {"name": "mb/Openpose/MConv_Stage1_L1_4_pointwise/Relu", "op": "_FusedConv2D", "input": ["mb/Openpose/MConv_Stage1_L1_4_depthwise/depthwise", "mb/Openpose/MConv_Stage1_L1_4_pointwise/weights", "mb/Openpose/MConv_Stage1_L1_4_pointwise/Conv2D_bn_offset"], "device": "/device:CPU:0", "attr": {"dilations": {"list": {"i": ["1", "1", "1", "1"]}}, "T": {"type": "DT_FLOAT"}, "data_format": {"s": "TkhXQw=="}, "strides": {"list": {"i": ["1", "1", "1", "1"]}}, "use_cudnn_on_gpu": {"b": true}, "explicit_paddings": {"list": {}}, "num_args": {"i": "1"}, "epsilon": {"f": 0.0}, "padding": {"s": "U0FNRQ=="}, "fused_ops": {"list": {"s": ["Qmlhc0FkZA==", "UmVsdQ=="]}}}}, {"name": "mb/Openpose/MConv_Stage1_L2_4_pointwise/Relu", "op": "_FusedConv2D", "input": ["mb/Openpose/MConv_Stage1_L2_4_depthwise/depthwise", "mb/Openpose/MConv_Stage1_L2_4_pointwise/weights", "mb/Openpose/MConv_Stage1_L2_4_pointwise/Conv2D_bn_offset"], "device": "/device:CPU:0", "attr": {"dilations": {"list": {"i": ["1", "1", "1", "1"]}}, "T": {"type": "DT_FLOAT"}, "data_format": {"s": "TkhXQw=="}, "strides": {"list": {"i": ["1", "1", "1", "1"]}}, "use_cudnn_on_gpu": {"b": true}, "explicit_paddings": {"list": {}}, "num_args": {"i": "1"}, "epsilon": {"f": 0.0}, "padding": {"s": "U0FNRQ=="}, "fused_ops": {"list": {"s": ["Qmlhc0FkZA==", "UmVsdQ=="]}}}}, {"name": "mb/Openpose/MConv_Stage1_L1_5_depthwise/depthwise", "op": "DepthwiseConv2dNative", "input": ["mb/Openpose/MConv_Stage1_L1_4_pointwise/Relu", "mb/Openpose/MConv_Stage1_L1_5_depthwise/depthwise_weights"], "attr": {"padding": {"s": "U0FNRQ=="}, "dilations": {"list": {"i": ["1", "1", "1", "1"]}}, "T": {"type": "DT_FLOAT"}, "data_format": {"s": "TkhXQw=="}, "strides": {"list": {"i": ["1", "1", "1", "1"]}}}}, {"name": "mb/Openpose/MConv_Stage1_L2_5_depthwise/depthwise", "op": "DepthwiseConv2dNative", "input": ["mb/Openpose/MConv_Stage1_L2_4_pointwise/Relu", "mb/Openpose/MConv_Stage1_L2_5_depthwise/depthwise_weights"], "attr": {"padding": {"s": "U0FNRQ=="}, "dilations": {"list": {"i": ["1", "1", "1", "1"]}}, "T": {"type": "DT_FLOAT"}, "strides": {"list": {"i": ["1", "1", "1", "1"]}}, "data_format": {"s": "TkhXQw=="}}}, {"name": "mb/Openpose/MConv_Stage1_L1_5_pointwise/BatchNorm/FusedBatchNormV3", "op": "_FusedConv2D", "input": ["mb/Openpose/MConv_Stage1_L1_5_depthwise/depthwise", "mb/Openpose/MConv_Stage1_L1_5_pointwise/weights", "mb/Openpose/MConv_Stage1_L1_5_pointwise/Conv2D_bn_offset"], "device": "/device:CPU:0", "attr": {"dilations": {"list": {"i": ["1", "1", "1", "1"]}}, "T": {"type": "DT_FLOAT"}, "data_format": {"s": "TkhXQw=="}, "strides": {"list": {"i": ["1", "1", "1", "1"]}}, "use_cudnn_on_gpu": {"b": true}, "explicit_paddings": {"list": {}}, "num_args": {"i": "1"}, "epsilon": {"f": 0.0}, "padding": {"s": "U0FNRQ=="}, "fused_ops": {"list": {"s": ["Qmlhc0FkZA=="]}}}}, {"name": "mb/Openpose/MConv_Stage1_L2_5_pointwise/BatchNorm/FusedBatchNormV3", "op": "_FusedConv2D", "input": ["mb/Openpose/MConv_Stage1_L2_5_depthwise/depthwise", "mb/Openpose/MConv_Stage1_L2_5_pointwise/weights", "mb/Openpose/MConv_Stage1_L2_5_pointwise/Conv2D_bn_offset"], "device": "/device:CPU:0", "attr": {"dilations": {"list": {"i": ["1", "1", "1", "1"]}}, "T": {"type": "DT_FLOAT"}, "data_format": {"s": "TkhXQw=="}, "strides": {"list": {"i": ["1", "1", "1", "1"]}}, "use_cudnn_on_gpu": {"b": true}, "explicit_paddings": {"list": {}}, "num_args": {"i": "1"}, "epsilon": {"f": 0.0}, "padding": {"s": "U0FNRQ=="}, "fused_ops": {"list": {"s": ["Qmlhc0FkZA=="]}}}}, {"name": "mb/Openpose/MConv_Stage2_concat", "op": "ConcatV2", "input": ["mb/Openpose/MConv_Stage1_L1_5_pointwise/BatchNorm/FusedBatchNormV3", "mb/Openpose/MConv_Stage1_L2_5_pointwise/BatchNorm/FusedBatchNormV3", "mb/feat_concat", "mb/Openpose/MConv_Stage2_concat/axis"], "attr": {"Tidx": {"type": "DT_INT32"}, "T": {"type": "DT_FLOAT"}, "N": {"i": "3"}}}, {"name": "mb/Openpose/MConv_Stage2_L1_1_depthwise/depthwise", "op": "DepthwiseConv2dNative", "input": ["mb/Openpose/MConv_Stage2_concat", "mb/Openpose/MConv_Stage2_L1_1_depthwise/depthwise_weights"], "attr": {"padding": {"s": "U0FNRQ=="}, "dilations": {"list": {"i": ["1", "1", "1", "1"]}}, "T": {"type": "DT_FLOAT"}, "data_format": {"s": "TkhXQw=="}, "strides": {"list": {"i": ["1", "1", "1", "1"]}}}}, {"name": "mb/Openpose/MConv_Stage2_L2_1_depthwise/depthwise", "op": "DepthwiseConv2dNative", "input": ["mb/Openpose/MConv_Stage2_concat", "mb/Openpose/MConv_Stage2_L2_1_depthwise/depthwise_weights"], "attr": {"padding": {"s": "U0FNRQ=="}, "dilations": {"list": {"i": ["1", "1", "1", "1"]}}, "T": {"type": "DT_FLOAT"}, "strides": {"list": {"i": ["1", "1", "1", "1"]}}, "data_format": {"s": "TkhXQw=="}}}, {"name": "mb/Openpose/MConv_Stage2_L1_1_pointwise/Relu", "op": "_FusedConv2D", "input": ["mb/Openpose/MConv_Stage2_L1_1_depthwise/depthwise", "mb/Openpose/MConv_Stage2_L1_1_pointwise/weights", "mb/Openpose/MConv_Stage2_L1_1_pointwise/Conv2D_bn_offset"], "device": "/device:CPU:0", "attr": {"dilations": {"list": {"i": ["1", "1", "1", "1"]}}, "T": {"type": "DT_FLOAT"}, "data_format": {"s": "TkhXQw=="}, "strides": {"list": {"i": ["1", "1", "1", "1"]}}, "use_cudnn_on_gpu": {"b": true}, "explicit_paddings": {"list": {}}, "num_args": {"i": "1"}, "epsilon": {"f": 0.0}, "padding": {"s": "U0FNRQ=="}, "fused_ops": {"list": {"s": ["Qmlhc0FkZA==", "UmVsdQ=="]}}}}, {"name": "mb/Openpose/MConv_Stage2_L2_1_pointwise/Relu", "op": "_FusedConv2D", "input": ["mb/Openpose/MConv_Stage2_L2_1_depthwise/depthwise", "mb/Openpose/MConv_Stage2_L2_1_pointwise/weights", "mb/Openpose/MConv_Stage2_L2_1_pointwise/Conv2D_bn_offset"], "device": "/device:CPU:0", "attr": {"dilations": {"list": {"i": ["1", "1", "1", "1"]}}, "T": {"type": "DT_FLOAT"}, "data_format": {"s": "TkhXQw=="}, "strides": {"list": {"i": ["1", "1", "1", "1"]}}, "use_cudnn_on_gpu": {"b": true}, "explicit_paddings": {"list": {}}, "num_args": {"i": "1"}, "epsilon": {"f": 0.0}, "padding": {"s": "U0FNRQ=="}, "fused_ops": {"list": {"s": ["Qmlhc0FkZA==", "UmVsdQ=="]}}}}, {"name": "mb/Openpose/MConv_Stage2_L1_2_depthwise/depthwise", "op": "DepthwiseConv2dNative", "input": ["mb/Openpose/MConv_Stage2_L1_1_pointwise/Relu", "mb/Openpose/MConv_Stage2_L1_2_depthwise/depthwise_weights"], "attr": {"padding": {"s": "U0FNRQ=="}, "dilations": {"list": {"i": ["1", "1", "1", "1"]}}, "T": {"type": "DT_FLOAT"}, "data_format": {"s": "TkhXQw=="}, "strides": {"list": {"i": ["1", "1", "1", "1"]}}}}, {"name": "mb/Openpose/MConv_Stage2_L2_2_depthwise/depthwise", "op": "DepthwiseConv2dNative", "input": ["mb/Openpose/MConv_Stage2_L2_1_pointwise/Relu", "mb/Openpose/MConv_Stage2_L2_2_depthwise/depthwise_weights"], "attr": {"padding": {"s": "U0FNRQ=="}, "dilations": {"list": {"i": ["1", "1", "1", "1"]}}, "T": {"type": "DT_FLOAT"}, "data_format": {"s": "TkhXQw=="}, "strides": {"list": {"i": ["1", "1", "1", "1"]}}}}, {"name": "mb/Openpose/MConv_Stage2_L1_2_pointwise/Relu", "op": "_FusedConv2D", "input": ["mb/Openpose/MConv_Stage2_L1_2_depthwise/depthwise", "mb/Openpose/MConv_Stage2_L1_2_pointwise/weights", "mb/Openpose/MConv_Stage2_L1_2_pointwise/Conv2D_bn_offset"], "device": "/device:CPU:0", "attr": {"dilations": {"list": {"i": ["1", "1", "1", "1"]}}, "T": {"type": "DT_FLOAT"}, "data_format": {"s": "TkhXQw=="}, "strides": {"list": {"i": ["1", "1", "1", "1"]}}, "use_cudnn_on_gpu": {"b": true}, "explicit_paddings": {"list": {}}, "num_args": {"i": "1"}, "epsilon": {"f": 0.0}, "padding": {"s": "U0FNRQ=="}, "fused_ops": {"list": {"s": ["Qmlhc0FkZA==", "UmVsdQ=="]}}}}, {"name": "mb/Openpose/MConv_Stage2_L2_2_pointwise/Relu", "op": "_FusedConv2D", "input": ["mb/Openpose/MConv_Stage2_L2_2_depthwise/depthwise", "mb/Openpose/MConv_Stage2_L2_2_pointwise/weights", "mb/Openpose/MConv_Stage2_L2_2_pointwise/Conv2D_bn_offset"], "device": "/device:CPU:0", "attr": {"dilations": {"list": {"i": ["1", "1", "1", "1"]}}, "T": {"type": "DT_FLOAT"}, "data_format": {"s": "TkhXQw=="}, "strides": {"list": {"i": ["1", "1", "1", "1"]}}, "use_cudnn_on_gpu": {"b": true}, "explicit_paddings": {"list": {}}, "num_args": {"i": "1"}, "epsilon": {"f": 0.0}, "padding": {"s": "U0FNRQ=="}, "fused_ops": {"list": {"s": ["Qmlhc0FkZA==", "UmVsdQ=="]}}}}, {"name": "mb/Openpose/MConv_Stage2_L1_3_depthwise/depthwise", "op": "DepthwiseConv2dNative", "input": ["mb/Openpose/MConv_Stage2_L1_2_pointwise/Relu", "mb/Openpose/MConv_Stage2_L1_3_depthwise/depthwise_weights"], "attr": {"padding": {"s": "U0FNRQ=="}, "dilations": {"list": {"i": ["1", "1", "1", "1"]}}, "T": {"type": "DT_FLOAT"}, "data_format": {"s": "TkhXQw=="}, "strides": {"list": {"i": ["1", "1", "1", "1"]}}}}, {"name": "mb/Openpose/MConv_Stage2_L2_3_depthwise/depthwise", "op": "DepthwiseConv2dNative", "input": ["mb/Openpose/MConv_Stage2_L2_2_pointwise/Relu", "mb/Openpose/MConv_Stage2_L2_3_depthwise/depthwise_weights"], "attr": {"padding": {"s": "U0FNRQ=="}, "dilations": {"list": {"i": ["1", "1", "1", "1"]}}, "T": {"type": "DT_FLOAT"}, "data_format": {"s": "TkhXQw=="}, "strides": {"list": {"i": ["1", "1", "1", "1"]}}}}, {"name": "mb/Openpose/MConv_Stage2_L1_3_pointwise/Relu", "op": "_FusedConv2D", "input": ["mb/Openpose/MConv_Stage2_L1_3_depthwise/depthwise", "mb/Openpose/MConv_Stage2_L1_3_pointwise/weights", "mb/Openpose/MConv_Stage2_L1_3_pointwise/Conv2D_bn_offset"], "device": "/device:CPU:0", "attr": {"dilations": {"list": {"i": ["1", "1", "1", "1"]}}, "T": {"type": "DT_FLOAT"}, "data_format": {"s": "TkhXQw=="}, "strides": {"list": {"i": ["1", "1", "1", "1"]}}, "use_cudnn_on_gpu": {"b": true}, "explicit_paddings": {"list": {}}, "num_args": {"i": "1"}, "epsilon": {"f": 0.0}, "padding": {"s": "U0FNRQ=="}, "fused_ops": {"list": {"s": ["Qmlhc0FkZA==", "UmVsdQ=="]}}}}, {"name": "mb/Openpose/MConv_Stage2_L2_3_pointwise/Relu", "op": "_FusedConv2D", "input": ["mb/Openpose/MConv_Stage2_L2_3_depthwise/depthwise", "mb/Openpose/MConv_Stage2_L2_3_pointwise/weights", "mb/Openpose/MConv_Stage2_L2_3_pointwise/Conv2D_bn_offset"], "device": "/device:CPU:0", "attr": {"dilations": {"list": {"i": ["1", "1", "1", "1"]}}, "T": {"type": "DT_FLOAT"}, "data_format": {"s": "TkhXQw=="}, "strides": {"list": {"i": ["1", "1", "1", "1"]}}, "use_cudnn_on_gpu": {"b": true}, "explicit_paddings": {"list": {}}, "num_args": {"i": "1"}, "epsilon": {"f": 0.0}, "padding": {"s": "U0FNRQ=="}, "fused_ops": {"list": {"s": ["Qmlhc0FkZA==", "UmVsdQ=="]}}}}, {"name": "mb/Openpose/MConv_Stage2_L1_4_depthwise/depthwise", "op": "DepthwiseConv2dNative", "input": ["mb/Openpose/MConv_Stage2_L1_3_pointwise/Relu", "mb/Openpose/MConv_Stage2_L1_4_depthwise/depthwise_weights"], "attr": {"padding": {"s": "U0FNRQ=="}, "dilations": {"list": {"i": ["1", "1", "1", "1"]}}, "T": {"type": "DT_FLOAT"}, "data_format": {"s": "TkhXQw=="}, "strides": {"list": {"i": ["1", "1", "1", "1"]}}}}, {"name": "mb/Openpose/MConv_Stage2_L2_4_depthwise/depthwise", "op": "DepthwiseConv2dNative", "input": ["mb/Openpose/MConv_Stage2_L2_3_pointwise/Relu", "mb/Openpose/MConv_Stage2_L2_4_depthwise/depthwise_weights"], "attr": {"padding": {"s": "U0FNRQ=="}, "dilations": {"list": {"i": ["1", "1", "1", "1"]}}, "T": {"type": "DT_FLOAT"}, "data_format": {"s": "TkhXQw=="}, "strides": {"list": {"i": ["1", "1", "1", "1"]}}}}, {"name": "mb/Openpose/MConv_Stage2_L1_4_pointwise/Relu", "op": "_FusedConv2D", "input": ["mb/Openpose/MConv_Stage2_L1_4_depthwise/depthwise", "mb/Openpose/MConv_Stage2_L1_4_pointwise/weights", "mb/Openpose/MConv_Stage2_L1_4_pointwise/Conv2D_bn_offset"], "device": "/device:CPU:0", "attr": {"dilations": {"list": {"i": ["1", "1", "1", "1"]}}, "T": {"type": "DT_FLOAT"}, "data_format": {"s": "TkhXQw=="}, "strides": {"list": {"i": ["1", "1", "1", "1"]}}, "use_cudnn_on_gpu": {"b": true}, "explicit_paddings": {"list": {}}, "num_args": {"i": "1"}, "epsilon": {"f": 0.0}, "padding": {"s": "U0FNRQ=="}, "fused_ops": {"list": {"s": ["Qmlhc0FkZA==", "UmVsdQ=="]}}}}, {"name": "mb/Openpose/MConv_Stage2_L2_4_pointwise/Relu", "op": "_FusedConv2D", "input": ["mb/Openpose/MConv_Stage2_L2_4_depthwise/depthwise", "mb/Openpose/MConv_Stage2_L2_4_pointwise/weights", "mb/Openpose/MConv_Stage2_L2_4_pointwise/Conv2D_bn_offset"], "device": "/device:CPU:0", "attr": {"dilations": {"list": {"i": ["1", "1", "1", "1"]}}, "T": {"type": "DT_FLOAT"}, "data_format": {"s": "TkhXQw=="}, "strides": {"list": {"i": ["1", "1", "1", "1"]}}, "use_cudnn_on_gpu": {"b": true}, "explicit_paddings": {"list": {}}, "num_args": {"i": "1"}, "epsilon": {"f": 0.0}, "padding": {"s": "U0FNRQ=="}, "fused_ops": {"list": {"s": ["Qmlhc0FkZA==", "UmVsdQ=="]}}}}, {"name": "mb/Openpose/MConv_Stage2_L1_5_depthwise/depthwise", "op": "DepthwiseConv2dNative", "input": ["mb/Openpose/MConv_Stage2_L1_4_pointwise/Relu", "mb/Openpose/MConv_Stage2_L1_5_depthwise/depthwise_weights"], "attr": {"padding": {"s": "U0FNRQ=="}, "dilations": {"list": {"i": ["1", "1", "1", "1"]}}, "T": {"type": "DT_FLOAT"}, "strides": {"list": {"i": ["1", "1", "1", "1"]}}, "data_format": {"s": "TkhXQw=="}}}, {"name": "mb/Openpose/MConv_Stage2_L2_5_depthwise/depthwise", "op": "DepthwiseConv2dNative", "input": ["mb/Openpose/MConv_Stage2_L2_4_pointwise/Relu", "mb/Openpose/MConv_Stage2_L2_5_depthwise/depthwise_weights"], "attr": {"padding": {"s": "U0FNRQ=="}, "dilations": {"list": {"i": ["1", "1", "1", "1"]}}, "T": {"type": "DT_FLOAT"}, "data_format": {"s": "TkhXQw=="}, "strides": {"list": {"i": ["1", "1", "1", "1"]}}}}, {"name": "mb/Openpose/MConv_Stage2_L1_5_pointwise/BatchNorm/FusedBatchNormV3", "op": "_FusedConv2D", "input": ["mb/Openpose/MConv_Stage2_L1_5_depthwise/depthwise", "mb/Openpose/MConv_Stage2_L1_5_pointwise/weights", "mb/Openpose/MConv_Stage2_L1_5_pointwise/Conv2D_bn_offset"], "device": "/device:CPU:0", "attr": {"dilations": {"list": {"i": ["1", "1", "1", "1"]}}, "T": {"type": "DT_FLOAT"}, "data_format": {"s": "TkhXQw=="}, "strides": {"list": {"i": ["1", "1", "1", "1"]}}, "use_cudnn_on_gpu": {"b": true}, "explicit_paddings": {"list": {}}, "num_args": {"i": "1"}, "epsilon": {"f": 0.0}, "padding": {"s": "U0FNRQ=="}, "fused_ops": {"list": {"s": ["Qmlhc0FkZA=="]}}}}, {"name": "mb/Openpose/MConv_Stage2_L2_5_pointwise/BatchNorm/FusedBatchNormV3", "op": "_FusedConv2D", "input": ["mb/Openpose/MConv_Stage2_L2_5_depthwise/depthwise", "mb/Openpose/MConv_Stage2_L2_5_pointwise/weights", "mb/Openpose/MConv_Stage2_L2_5_pointwise/Conv2D_bn_offset"], "device": "/device:CPU:0", "attr": {"dilations": {"list": {"i": ["1", "1", "1", "1"]}}, "T": {"type": "DT_FLOAT"}, "data_format": {"s": "TkhXQw=="}, "strides": {"list": {"i": ["1", "1", "1", "1"]}}, "use_cudnn_on_gpu": {"b": true}, "explicit_paddings": {"list": {}}, "num_args": {"i": "1"}, "epsilon": {"f": 0.0}, "padding": {"s": "U0FNRQ=="}, "fused_ops": {"list": {"s": ["Qmlhc0FkZA=="]}}}}, {"name": "mb/Openpose/MConv_Stage3_concat", "op": "ConcatV2", "input": ["mb/Openpose/MConv_Stage2_L1_5_pointwise/BatchNorm/FusedBatchNormV3", "mb/Openpose/MConv_Stage2_L2_5_pointwise/BatchNorm/FusedBatchNormV3", "mb/feat_concat", "mb/Openpose/MConv_Stage2_concat/axis"], "attr": {"Tidx": {"type": "DT_INT32"}, "T": {"type": "DT_FLOAT"}, "N": {"i": "3"}}}, {"name": "mb/Openpose/MConv_Stage3_L1_1_depthwise/depthwise", "op": "DepthwiseConv2dNative", "input": ["mb/Openpose/MConv_Stage3_concat", "mb/Openpose/MConv_Stage3_L1_1_depthwise/depthwise_weights"], "attr": {"padding": {"s": "U0FNRQ=="}, "dilations": {"list": {"i": ["1", "1", "1", "1"]}}, "T": {"type": "DT_FLOAT"}, "strides": {"list": {"i": ["1", "1", "1", "1"]}}, "data_format": {"s": "TkhXQw=="}}}, {"name": "mb/Openpose/MConv_Stage3_L2_1_depthwise/depthwise", "op": "DepthwiseConv2dNative", "input": ["mb/Openpose/MConv_Stage3_concat", "mb/Openpose/MConv_Stage3_L2_1_depthwise/depthwise_weights"], "attr": {"padding": {"s": "U0FNRQ=="}, "dilations": {"list": {"i": ["1", "1", "1", "1"]}}, "T": {"type": "DT_FLOAT"}, "strides": {"list": {"i": ["1", "1", "1", "1"]}}, "data_format": {"s": "TkhXQw=="}}}, {"name": "mb/Openpose/MConv_Stage3_L1_1_pointwise/Relu", "op": "_FusedConv2D", "input": ["mb/Openpose/MConv_Stage3_L1_1_depthwise/depthwise", "mb/Openpose/MConv_Stage3_L1_1_pointwise/weights", "mb/Openpose/MConv_Stage3_L1_1_pointwise/Conv2D_bn_offset"], "device": "/device:CPU:0", "attr": {"dilations": {"list": {"i": ["1", "1", "1", "1"]}}, "T": {"type": "DT_FLOAT"}, "data_format": {"s": "TkhXQw=="}, "strides": {"list": {"i": ["1", "1", "1", "1"]}}, "use_cudnn_on_gpu": {"b": true}, "explicit_paddings": {"list": {}}, "num_args": {"i": "1"}, "epsilon": {"f": 0.0}, "padding": {"s": "U0FNRQ=="}, "fused_ops": {"list": {"s": ["Qmlhc0FkZA==", "UmVsdQ=="]}}}}, {"name": "mb/Openpose/MConv_Stage3_L2_1_pointwise/Relu", "op": "_FusedConv2D", "input": ["mb/Openpose/MConv_Stage3_L2_1_depthwise/depthwise", "mb/Openpose/MConv_Stage3_L2_1_pointwise/weights", "mb/Openpose/MConv_Stage3_L2_1_pointwise/Conv2D_bn_offset"], "device": "/device:CPU:0", "attr": {"dilations": {"list": {"i": ["1", "1", "1", "1"]}}, "T": {"type": "DT_FLOAT"}, "data_format": {"s": "TkhXQw=="}, "strides": {"list": {"i": ["1", "1", "1", "1"]}}, "use_cudnn_on_gpu": {"b": true}, "explicit_paddings": {"list": {}}, "num_args": {"i": "1"}, "epsilon": {"f": 0.0}, "padding": {"s": "U0FNRQ=="}, "fused_ops": {"list": {"s": ["Qmlhc0FkZA==", "UmVsdQ=="]}}}}, {"name": "mb/Openpose/MConv_Stage3_L1_2_depthwise/depthwise", "op": "DepthwiseConv2dNative", "input": ["mb/Openpose/MConv_Stage3_L1_1_pointwise/Relu", "mb/Openpose/MConv_Stage3_L1_2_depthwise/depthwise_weights"], "attr": {"padding": {"s": "U0FNRQ=="}, "dilations": {"list": {"i": ["1", "1", "1", "1"]}}, "T": {"type": "DT_FLOAT"}, "data_format": {"s": "TkhXQw=="}, "strides": {"list": {"i": ["1", "1", "1", "1"]}}}}, {"name": "mb/Openpose/MConv_Stage3_L2_2_depthwise/depthwise", "op": "DepthwiseConv2dNative", "input": ["mb/Openpose/MConv_Stage3_L2_1_pointwise/Relu", "mb/Openpose/MConv_Stage3_L2_2_depthwise/depthwise_weights"], "attr": {"padding": {"s": "U0FNRQ=="}, "dilations": {"list": {"i": ["1", "1", "1", "1"]}}, "T": {"type": "DT_FLOAT"}, "data_format": {"s": "TkhXQw=="}, "strides": {"list": {"i": ["1", "1", "1", "1"]}}}}, {"name": "mb/Openpose/MConv_Stage3_L1_2_pointwise/Relu", "op": "_FusedConv2D", "input": ["mb/Openpose/MConv_Stage3_L1_2_depthwise/depthwise", "mb/Openpose/MConv_Stage3_L1_2_pointwise/weights", "mb/Openpose/MConv_Stage3_L1_2_pointwise/Conv2D_bn_offset"], "device": "/device:CPU:0", "attr": {"dilations": {"list": {"i": ["1", "1", "1", "1"]}}, "T": {"type": "DT_FLOAT"}, "data_format": {"s": "TkhXQw=="}, "strides": {"list": {"i": ["1", "1", "1", "1"]}}, "use_cudnn_on_gpu": {"b": true}, "explicit_paddings": {"list": {}}, "num_args": {"i": "1"}, "epsilon": {"f": 0.0}, "padding": {"s": "U0FNRQ=="}, "fused_ops": {"list": {"s": ["Qmlhc0FkZA==", "UmVsdQ=="]}}}}, {"name": "mb/Openpose/MConv_Stage3_L2_2_pointwise/Relu", "op": "_FusedConv2D", "input": ["mb/Openpose/MConv_Stage3_L2_2_depthwise/depthwise", "mb/Openpose/MConv_Stage3_L2_2_pointwise/weights", "mb/Openpose/MConv_Stage3_L2_2_pointwise/Conv2D_bn_offset"], "device": "/device:CPU:0", "attr": {"dilations": {"list": {"i": ["1", "1", "1", "1"]}}, "T": {"type": "DT_FLOAT"}, "data_format": {"s": "TkhXQw=="}, "strides": {"list": {"i": ["1", "1", "1", "1"]}}, "use_cudnn_on_gpu": {"b": true}, "explicit_paddings": {"list": {}}, "num_args": {"i": "1"}, "epsilon": {"f": 0.0}, "padding": {"s": "U0FNRQ=="}, "fused_ops": {"list": {"s": ["Qmlhc0FkZA==", "UmVsdQ=="]}}}}, {"name": "mb/Openpose/MConv_Stage3_L1_3_depthwise/depthwise", "op": "DepthwiseConv2dNative", "input": ["mb/Openpose/MConv_Stage3_L1_2_pointwise/Relu", "mb/Openpose/MConv_Stage3_L1_3_depthwise/depthwise_weights"], "attr": {"padding": {"s": "U0FNRQ=="}, "dilations": {"list": {"i": ["1", "1", "1", "1"]}}, "T": {"type": "DT_FLOAT"}, "data_format": {"s": "TkhXQw=="}, "strides": {"list": {"i": ["1", "1", "1", "1"]}}}}, {"name": "mb/Openpose/MConv_Stage3_L2_3_depthwise/depthwise", "op": "DepthwiseConv2dNative", "input": ["mb/Openpose/MConv_Stage3_L2_2_pointwise/Relu", "mb/Openpose/MConv_Stage3_L2_3_depthwise/depthwise_weights"], "attr": {"padding": {"s": "U0FNRQ=="}, "dilations": {"list": {"i": ["1", "1", "1", "1"]}}, "T": {"type": "DT_FLOAT"}, "strides": {"list": {"i": ["1", "1", "1", "1"]}}, "data_format": {"s": "TkhXQw=="}}}, {"name": "mb/Openpose/MConv_Stage3_L1_3_pointwise/Relu", "op": "_FusedConv2D", "input": ["mb/Openpose/MConv_Stage3_L1_3_depthwise/depthwise", "mb/Openpose/MConv_Stage3_L1_3_pointwise/weights", "mb/Openpose/MConv_Stage3_L1_3_pointwise/Conv2D_bn_offset"], "device": "/device:CPU:0", "attr": {"dilations": {"list": {"i": ["1", "1", "1", "1"]}}, "T": {"type": "DT_FLOAT"}, "data_format": {"s": "TkhXQw=="}, "strides": {"list": {"i": ["1", "1", "1", "1"]}}, "use_cudnn_on_gpu": {"b": true}, "explicit_paddings": {"list": {}}, "num_args": {"i": "1"}, "epsilon": {"f": 0.0}, "padding": {"s": "U0FNRQ=="}, "fused_ops": {"list": {"s": ["Qmlhc0FkZA==", "UmVsdQ=="]}}}}, {"name": "mb/Openpose/MConv_Stage3_L2_3_pointwise/Relu", "op": "_FusedConv2D", "input": ["mb/Openpose/MConv_Stage3_L2_3_depthwise/depthwise", "mb/Openpose/MConv_Stage3_L2_3_pointwise/weights", "mb/Openpose/MConv_Stage3_L2_3_pointwise/Conv2D_bn_offset"], "device": "/device:CPU:0", "attr": {"dilations": {"list": {"i": ["1", "1", "1", "1"]}}, "T": {"type": "DT_FLOAT"}, "data_format": {"s": "TkhXQw=="}, "strides": {"list": {"i": ["1", "1", "1", "1"]}}, "use_cudnn_on_gpu": {"b": true}, "explicit_paddings": {"list": {}}, "num_args": {"i": "1"}, "epsilon": {"f": 0.0}, "padding": {"s": "U0FNRQ=="}, "fused_ops": {"list": {"s": ["Qmlhc0FkZA==", "UmVsdQ=="]}}}}, {"name": "mb/Openpose/MConv_Stage3_L1_4_depthwise/depthwise", "op": "DepthwiseConv2dNative", "input": ["mb/Openpose/MConv_Stage3_L1_3_pointwise/Relu", "mb/Openpose/MConv_Stage3_L1_4_depthwise/depthwise_weights"], "attr": {"padding": {"s": "U0FNRQ=="}, "dilations": {"list": {"i": ["1", "1", "1", "1"]}}, "T": {"type": "DT_FLOAT"}, "strides": {"list": {"i": ["1", "1", "1", "1"]}}, "data_format": {"s": "TkhXQw=="}}}, {"name": "mb/Openpose/MConv_Stage3_L2_4_depthwise/depthwise", "op": "DepthwiseConv2dNative", "input": ["mb/Openpose/MConv_Stage3_L2_3_pointwise/Relu", "mb/Openpose/MConv_Stage3_L2_4_depthwise/depthwise_weights"], "attr": {"padding": {"s": "U0FNRQ=="}, "dilations": {"list": {"i": ["1", "1", "1", "1"]}}, "T": {"type": "DT_FLOAT"}, "data_format": {"s": "TkhXQw=="}, "strides": {"list": {"i": ["1", "1", "1", "1"]}}}}, {"name": "mb/Openpose/MConv_Stage3_L1_4_pointwise/Relu", "op": "_FusedConv2D", "input": ["mb/Openpose/MConv_Stage3_L1_4_depthwise/depthwise", "mb/Openpose/MConv_Stage3_L1_4_pointwise/weights", "mb/Openpose/MConv_Stage3_L1_4_pointwise/Conv2D_bn_offset"], "device": "/device:CPU:0", "attr": {"dilations": {"list": {"i": ["1", "1", "1", "1"]}}, "T": {"type": "DT_FLOAT"}, "data_format": {"s": "TkhXQw=="}, "strides": {"list": {"i": ["1", "1", "1", "1"]}}, "use_cudnn_on_gpu": {"b": true}, "explicit_paddings": {"list": {}}, "num_args": {"i": "1"}, "epsilon": {"f": 0.0}, "padding": {"s": "U0FNRQ=="}, "fused_ops": {"list": {"s": ["Qmlhc0FkZA==", "UmVsdQ=="]}}}}, {"name": "mb/Openpose/MConv_Stage3_L2_4_pointwise/Relu", "op": "_FusedConv2D", "input": ["mb/Openpose/MConv_Stage3_L2_4_depthwise/depthwise", "mb/Openpose/MConv_Stage3_L2_4_pointwise/weights", "mb/Openpose/MConv_Stage3_L2_4_pointwise/Conv2D_bn_offset"], "device": "/device:CPU:0", "attr": {"dilations": {"list": {"i": ["1", "1", "1", "1"]}}, "T": {"type": "DT_FLOAT"}, "data_format": {"s": "TkhXQw=="}, "strides": {"list": {"i": ["1", "1", "1", "1"]}}, "use_cudnn_on_gpu": {"b": true}, "explicit_paddings": {"list": {}}, "num_args": {"i": "1"}, "epsilon": {"f": 0.0}, "padding": {"s": "U0FNRQ=="}, "fused_ops": {"list": {"s": ["Qmlhc0FkZA==", "UmVsdQ=="]}}}}, {"name": "mb/Openpose/MConv_Stage3_L1_5_depthwise/depthwise", "op": "DepthwiseConv2dNative", "input": ["mb/Openpose/MConv_Stage3_L1_4_pointwise/Relu", "mb/Openpose/MConv_Stage3_L1_5_depthwise/depthwise_weights"], "attr": {"padding": {"s": "U0FNRQ=="}, "dilations": {"list": {"i": ["1", "1", "1", "1"]}}, "T": {"type": "DT_FLOAT"}, "data_format": {"s": "TkhXQw=="}, "strides": {"list": {"i": ["1", "1", "1", "1"]}}}}, {"name": "mb/Openpose/MConv_Stage3_L2_5_depthwise/depthwise", "op": "DepthwiseConv2dNative", "input": ["mb/Openpose/MConv_Stage3_L2_4_pointwise/Relu", "mb/Openpose/MConv_Stage3_L2_5_depthwise/depthwise_weights"], "attr": {"padding": {"s": "U0FNRQ=="}, "dilations": {"list": {"i": ["1", "1", "1", "1"]}}, "T": {"type": "DT_FLOAT"}, "strides": {"list": {"i": ["1", "1", "1", "1"]}}, "data_format": {"s": "TkhXQw=="}}}, {"name": "mb/Openpose/MConv_Stage3_L1_5_pointwise/BatchNorm/FusedBatchNormV3", "op": "_FusedConv2D", "input": ["mb/Openpose/MConv_Stage3_L1_5_depthwise/depthwise", "mb/Openpose/MConv_Stage3_L1_5_pointwise/weights", "mb/Openpose/MConv_Stage3_L1_5_pointwise/Conv2D_bn_offset"], "device": "/device:CPU:0", "attr": {"dilations": {"list": {"i": ["1", "1", "1", "1"]}}, "T": {"type": "DT_FLOAT"}, "data_format": {"s": "TkhXQw=="}, "strides": {"list": {"i": ["1", "1", "1", "1"]}}, "use_cudnn_on_gpu": {"b": true}, "explicit_paddings": {"list": {}}, "num_args": {"i": "1"}, "epsilon": {"f": 0.0}, "padding": {"s": "U0FNRQ=="}, "fused_ops": {"list": {"s": ["Qmlhc0FkZA=="]}}}}, {"name": "mb/Openpose/MConv_Stage3_L2_5_pointwise/BatchNorm/FusedBatchNormV3", "op": "_FusedConv2D", "input": ["mb/Openpose/MConv_Stage3_L2_5_depthwise/depthwise", "mb/Openpose/MConv_Stage3_L2_5_pointwise/weights", "mb/Openpose/MConv_Stage3_L2_5_pointwise/Conv2D_bn_offset"], "device": "/device:CPU:0", "attr": {"dilations": {"list": {"i": ["1", "1", "1", "1"]}}, "T": {"type": "DT_FLOAT"}, "data_format": {"s": "TkhXQw=="}, "strides": {"list": {"i": ["1", "1", "1", "1"]}}, "use_cudnn_on_gpu": {"b": true}, "explicit_paddings": {"list": {}}, "num_args": {"i": "1"}, "epsilon": {"f": 0.0}, "padding": {"s": "U0FNRQ=="}, "fused_ops": {"list": {"s": ["Qmlhc0FkZA=="]}}}}, {"name": "mb/Openpose/MConv_Stage4_concat", "op": "ConcatV2", "input": ["mb/Openpose/MConv_Stage3_L1_5_pointwise/BatchNorm/FusedBatchNormV3", "mb/Openpose/MConv_Stage3_L2_5_pointwise/BatchNorm/FusedBatchNormV3", "mb/feat_concat", "mb/Openpose/MConv_Stage2_concat/axis"], "attr": {"Tidx": {"type": "DT_INT32"}, "T": {"type": "DT_FLOAT"}, "N": {"i": "3"}}}, {"name": "mb/Openpose/MConv_Stage4_L1_1_depthwise/depthwise", "op": "DepthwiseConv2dNative", "input": ["mb/Openpose/MConv_Stage4_concat", "mb/Openpose/MConv_Stage4_L1_1_depthwise/depthwise_weights"], "attr": {"padding": {"s": "U0FNRQ=="}, "dilations": {"list": {"i": ["1", "1", "1", "1"]}}, "T": {"type": "DT_FLOAT"}, "strides": {"list": {"i": ["1", "1", "1", "1"]}}, "data_format": {"s": "TkhXQw=="}}}, {"name": "mb/Openpose/MConv_Stage4_L2_1_depthwise/depthwise", "op": "DepthwiseConv2dNative", "input": ["mb/Openpose/MConv_Stage4_concat", "mb/Openpose/MConv_Stage4_L2_1_depthwise/depthwise_weights"], "attr": {"padding": {"s": "U0FNRQ=="}, "dilations": {"list": {"i": ["1", "1", "1", "1"]}}, "T": {"type": "DT_FLOAT"}, "strides": {"list": {"i": ["1", "1", "1", "1"]}}, "data_format": {"s": "TkhXQw=="}}}, {"name": "mb/Openpose/MConv_Stage4_L1_1_pointwise/Relu", "op": "_FusedConv2D", "input": ["mb/Openpose/MConv_Stage4_L1_1_depthwise/depthwise", "mb/Openpose/MConv_Stage4_L1_1_pointwise/weights", "mb/Openpose/MConv_Stage4_L1_1_pointwise/Conv2D_bn_offset"], "device": "/device:CPU:0", "attr": {"dilations": {"list": {"i": ["1", "1", "1", "1"]}}, "T": {"type": "DT_FLOAT"}, "data_format": {"s": "TkhXQw=="}, "strides": {"list": {"i": ["1", "1", "1", "1"]}}, "use_cudnn_on_gpu": {"b": true}, "explicit_paddings": {"list": {}}, "num_args": {"i": "1"}, "epsilon": {"f": 0.0}, "padding": {"s": "U0FNRQ=="}, "fused_ops": {"list": {"s": ["Qmlhc0FkZA==", "UmVsdQ=="]}}}}, {"name": "mb/Openpose/MConv_Stage4_L2_1_pointwise/Relu", "op": "_FusedConv2D", "input": ["mb/Openpose/MConv_Stage4_L2_1_depthwise/depthwise", "mb/Openpose/MConv_Stage4_L2_1_pointwise/weights", "mb/Openpose/MConv_Stage4_L2_1_pointwise/Conv2D_bn_offset"], "device": "/device:CPU:0", "attr": {"dilations": {"list": {"i": ["1", "1", "1", "1"]}}, "T": {"type": "DT_FLOAT"}, "data_format": {"s": "TkhXQw=="}, "strides": {"list": {"i": ["1", "1", "1", "1"]}}, "use_cudnn_on_gpu": {"b": true}, "explicit_paddings": {"list": {}}, "num_args": {"i": "1"}, "epsilon": {"f": 0.0}, "padding": {"s": "U0FNRQ=="}, "fused_ops": {"list": {"s": ["Qmlhc0FkZA==", "UmVsdQ=="]}}}}, {"name": "mb/Openpose/MConv_Stage4_L1_2_depthwise/depthwise", "op": "DepthwiseConv2dNative", "input": ["mb/Openpose/MConv_Stage4_L1_1_pointwise/Relu", "mb/Openpose/MConv_Stage4_L1_2_depthwise/depthwise_weights"], "attr": {"padding": {"s": "U0FNRQ=="}, "dilations": {"list": {"i": ["1", "1", "1", "1"]}}, "T": {"type": "DT_FLOAT"}, "strides": {"list": {"i": ["1", "1", "1", "1"]}}, "data_format": {"s": "TkhXQw=="}}}, {"name": "mb/Openpose/MConv_Stage4_L2_2_depthwise/depthwise", "op": "DepthwiseConv2dNative", "input": ["mb/Openpose/MConv_Stage4_L2_1_pointwise/Relu", "mb/Openpose/MConv_Stage4_L2_2_depthwise/depthwise_weights"], "attr": {"padding": {"s": "U0FNRQ=="}, "dilations": {"list": {"i": ["1", "1", "1", "1"]}}, "T": {"type": "DT_FLOAT"}, "data_format": {"s": "TkhXQw=="}, "strides": {"list": {"i": ["1", "1", "1", "1"]}}}}, {"name": "mb/Openpose/MConv_Stage4_L1_2_pointwise/Relu", "op": "_FusedConv2D", "input": ["mb/Openpose/MConv_Stage4_L1_2_depthwise/depthwise", "mb/Openpose/MConv_Stage4_L1_2_pointwise/weights", "mb/Openpose/MConv_Stage4_L1_2_pointwise/Conv2D_bn_offset"], "device": "/device:CPU:0", "attr": {"dilations": {"list": {"i": ["1", "1", "1", "1"]}}, "T": {"type": "DT_FLOAT"}, "data_format": {"s": "TkhXQw=="}, "strides": {"list": {"i": ["1", "1", "1", "1"]}}, "use_cudnn_on_gpu": {"b": true}, "explicit_paddings": {"list": {}}, "num_args": {"i": "1"}, "epsilon": {"f": 0.0}, "padding": {"s": "U0FNRQ=="}, "fused_ops": {"list": {"s": ["Qmlhc0FkZA==", "UmVsdQ=="]}}}}, {"name": "mb/Openpose/MConv_Stage4_L2_2_pointwise/Relu", "op": "_FusedConv2D", "input": ["mb/Openpose/MConv_Stage4_L2_2_depthwise/depthwise", "mb/Openpose/MConv_Stage4_L2_2_pointwise/weights", "mb/Openpose/MConv_Stage4_L2_2_pointwise/Conv2D_bn_offset"], "device": "/device:CPU:0", "attr": {"dilations": {"list": {"i": ["1", "1", "1", "1"]}}, "T": {"type": "DT_FLOAT"}, "data_format": {"s": "TkhXQw=="}, "strides": {"list": {"i": ["1", "1", "1", "1"]}}, "use_cudnn_on_gpu": {"b": true}, "explicit_paddings": {"list": {}}, "num_args": {"i": "1"}, "epsilon": {"f": 0.0}, "padding": {"s": "U0FNRQ=="}, "fused_ops": {"list": {"s": ["Qmlhc0FkZA==", "UmVsdQ=="]}}}}, {"name": "mb/Openpose/MConv_Stage4_L1_3_depthwise/depthwise", "op": "DepthwiseConv2dNative", "input": ["mb/Openpose/MConv_Stage4_L1_2_pointwise/Relu", "mb/Openpose/MConv_Stage4_L1_3_depthwise/depthwise_weights"], "attr": {"padding": {"s": "U0FNRQ=="}, "dilations": {"list": {"i": ["1", "1", "1", "1"]}}, "T": {"type": "DT_FLOAT"}, "data_format": {"s": "TkhXQw=="}, "strides": {"list": {"i": ["1", "1", "1", "1"]}}}}, {"name": "mb/Openpose/MConv_Stage4_L2_3_depthwise/depthwise", "op": "DepthwiseConv2dNative", "input": ["mb/Openpose/MConv_Stage4_L2_2_pointwise/Relu", "mb/Openpose/MConv_Stage4_L2_3_depthwise/depthwise_weights"], "attr": {"padding": {"s": "U0FNRQ=="}, "dilations": {"list": {"i": ["1", "1", "1", "1"]}}, "T": {"type": "DT_FLOAT"}, "data_format": {"s": "TkhXQw=="}, "strides": {"list": {"i": ["1", "1", "1", "1"]}}}}, {"name": "mb/Openpose/MConv_Stage4_L1_3_pointwise/Relu", "op": "_FusedConv2D", "input": ["mb/Openpose/MConv_Stage4_L1_3_depthwise/depthwise", "mb/Openpose/MConv_Stage4_L1_3_pointwise/weights", "mb/Openpose/MConv_Stage4_L1_3_pointwise/Conv2D_bn_offset"], "device": "/device:CPU:0", "attr": {"dilations": {"list": {"i": ["1", "1", "1", "1"]}}, "T": {"type": "DT_FLOAT"}, "data_format": {"s": "TkhXQw=="}, "strides": {"list": {"i": ["1", "1", "1", "1"]}}, "use_cudnn_on_gpu": {"b": true}, "explicit_paddings": {"list": {}}, "num_args": {"i": "1"}, "epsilon": {"f": 0.0}, "padding": {"s": "U0FNRQ=="}, "fused_ops": {"list": {"s": ["Qmlhc0FkZA==", "UmVsdQ=="]}}}}, {"name": "mb/Openpose/MConv_Stage4_L2_3_pointwise/Relu", "op": "_FusedConv2D", "input": ["mb/Openpose/MConv_Stage4_L2_3_depthwise/depthwise", "mb/Openpose/MConv_Stage4_L2_3_pointwise/weights", "mb/Openpose/MConv_Stage4_L2_3_pointwise/Conv2D_bn_offset"], "device": "/device:CPU:0", "attr": {"dilations": {"list": {"i": ["1", "1", "1", "1"]}}, "T": {"type": "DT_FLOAT"}, "data_format": {"s": "TkhXQw=="}, "strides": {"list": {"i": ["1", "1", "1", "1"]}}, "use_cudnn_on_gpu": {"b": true}, "explicit_paddings": {"list": {}}, "num_args": {"i": "1"}, "epsilon": {"f": 0.0}, "padding": {"s": "U0FNRQ=="}, "fused_ops": {"list": {"s": ["Qmlhc0FkZA==", "UmVsdQ=="]}}}}, {"name": "mb/Openpose/MConv_Stage4_L1_4_depthwise/depthwise", "op": "DepthwiseConv2dNative", "input": ["mb/Openpose/MConv_Stage4_L1_3_pointwise/Relu", "mb/Openpose/MConv_Stage4_L1_4_depthwise/depthwise_weights"], "attr": {"padding": {"s": "U0FNRQ=="}, "dilations": {"list": {"i": ["1", "1", "1", "1"]}}, "T": {"type": "DT_FLOAT"}, "strides": {"list": {"i": ["1", "1", "1", "1"]}}, "data_format": {"s": "TkhXQw=="}}}, {"name": "mb/Openpose/MConv_Stage4_L2_4_depthwise/depthwise", "op": "DepthwiseConv2dNative", "input": ["mb/Openpose/MConv_Stage4_L2_3_pointwise/Relu", "mb/Openpose/MConv_Stage4_L2_4_depthwise/depthwise_weights"], "attr": {"padding": {"s": "U0FNRQ=="}, "dilations": {"list": {"i": ["1", "1", "1", "1"]}}, "T": {"type": "DT_FLOAT"}, "data_format": {"s": "TkhXQw=="}, "strides": {"list": {"i": ["1", "1", "1", "1"]}}}}, {"name": "mb/Openpose/MConv_Stage4_L1_4_pointwise/Relu", "op": "_FusedConv2D", "input": ["mb/Openpose/MConv_Stage4_L1_4_depthwise/depthwise", "mb/Openpose/MConv_Stage4_L1_4_pointwise/weights", "mb/Openpose/MConv_Stage4_L1_4_pointwise/Conv2D_bn_offset"], "device": "/device:CPU:0", "attr": {"dilations": {"list": {"i": ["1", "1", "1", "1"]}}, "T": {"type": "DT_FLOAT"}, "data_format": {"s": "TkhXQw=="}, "strides": {"list": {"i": ["1", "1", "1", "1"]}}, "use_cudnn_on_gpu": {"b": true}, "explicit_paddings": {"list": {}}, "num_args": {"i": "1"}, "epsilon": {"f": 0.0}, "padding": {"s": "U0FNRQ=="}, "fused_ops": {"list": {"s": ["Qmlhc0FkZA==", "UmVsdQ=="]}}}}, {"name": "mb/Openpose/MConv_Stage4_L2_4_pointwise/Relu", "op": "_FusedConv2D", "input": ["mb/Openpose/MConv_Stage4_L2_4_depthwise/depthwise", "mb/Openpose/MConv_Stage4_L2_4_pointwise/weights", "mb/Openpose/MConv_Stage4_L2_4_pointwise/Conv2D_bn_offset"], "device": "/device:CPU:0", "attr": {"dilations": {"list": {"i": ["1", "1", "1", "1"]}}, "T": {"type": "DT_FLOAT"}, "data_format": {"s": "TkhXQw=="}, "strides": {"list": {"i": ["1", "1", "1", "1"]}}, "use_cudnn_on_gpu": {"b": true}, "explicit_paddings": {"list": {}}, "num_args": {"i": "1"}, "epsilon": {"f": 0.0}, "padding": {"s": "U0FNRQ=="}, "fused_ops": {"list": {"s": ["Qmlhc0FkZA==", "UmVsdQ=="]}}}}, {"name": "mb/Openpose/MConv_Stage4_L1_5_depthwise/depthwise", "op": "DepthwiseConv2dNative", "input": ["mb/Openpose/MConv_Stage4_L1_4_pointwise/Relu", "mb/Openpose/MConv_Stage4_L1_5_depthwise/depthwise_weights"], "attr": {"padding": {"s": "U0FNRQ=="}, "dilations": {"list": {"i": ["1", "1", "1", "1"]}}, "T": {"type": "DT_FLOAT"}, "data_format": {"s": "TkhXQw=="}, "strides": {"list": {"i": ["1", "1", "1", "1"]}}}}, {"name": "mb/Openpose/MConv_Stage4_L2_5_depthwise/depthwise", "op": "DepthwiseConv2dNative", "input": ["mb/Openpose/MConv_Stage4_L2_4_pointwise/Relu", "mb/Openpose/MConv_Stage4_L2_5_depthwise/depthwise_weights"], "attr": {"padding": {"s": "U0FNRQ=="}, "dilations": {"list": {"i": ["1", "1", "1", "1"]}}, "T": {"type": "DT_FLOAT"}, "data_format": {"s": "TkhXQw=="}, "strides": {"list": {"i": ["1", "1", "1", "1"]}}}}, {"name": "mb/Openpose/MConv_Stage4_L1_5_pointwise/BatchNorm/FusedBatchNormV3", "op": "_FusedConv2D", "input": ["mb/Openpose/MConv_Stage4_L1_5_depthwise/depthwise", "mb/Openpose/MConv_Stage4_L1_5_pointwise/weights", "mb/Openpose/MConv_Stage4_L1_5_pointwise/Conv2D_bn_offset"], "device": "/device:CPU:0", "attr": {"dilations": {"list": {"i": ["1", "1", "1", "1"]}}, "T": {"type": "DT_FLOAT"}, "data_format": {"s": "TkhXQw=="}, "strides": {"list": {"i": ["1", "1", "1", "1"]}}, "use_cudnn_on_gpu": {"b": true}, "explicit_paddings": {"list": {}}, "num_args": {"i": "1"}, "epsilon": {"f": 0.0}, "padding": {"s": "U0FNRQ=="}, "fused_ops": {"list": {"s": ["Qmlhc0FkZA=="]}}}}, {"name": "mb/Openpose/MConv_Stage4_L2_5_pointwise/BatchNorm/FusedBatchNormV3", "op": "_FusedConv2D", "input": ["mb/Openpose/MConv_Stage4_L2_5_depthwise/depthwise", "mb/Openpose/MConv_Stage4_L2_5_pointwise/weights", "mb/Openpose/MConv_Stage4_L2_5_pointwise/Conv2D_bn_offset"], "device": "/device:CPU:0", "attr": {"dilations": {"list": {"i": ["1", "1", "1", "1"]}}, "T": {"type": "DT_FLOAT"}, "data_format": {"s": "TkhXQw=="}, "strides": {"list": {"i": ["1", "1", "1", "1"]}}, "use_cudnn_on_gpu": {"b": true}, "explicit_paddings": {"list": {}}, "num_args": {"i": "1"}, "epsilon": {"f": 0.0}, "padding": {"s": "U0FNRQ=="}, "fused_ops": {"list": {"s": ["Qmlhc0FkZA=="]}}}}, {"name": "mb/Openpose/MConv_Stage5_concat", "op": "ConcatV2", "input": ["mb/Openpose/MConv_Stage4_L1_5_pointwise/BatchNorm/FusedBatchNormV3", "mb/Openpose/MConv_Stage4_L2_5_pointwise/BatchNorm/FusedBatchNormV3", "mb/feat_concat", "mb/Openpose/MConv_Stage2_concat/axis"], "attr": {"Tidx": {"type": "DT_INT32"}, "T": {"type": "DT_FLOAT"}, "N": {"i": "3"}}}, {"name": "mb/Openpose/MConv_Stage5_L1_1_depthwise/depthwise", "op": "DepthwiseConv2dNative", "input": ["mb/Openpose/MConv_Stage5_concat", "mb/Openpose/MConv_Stage5_L1_1_depthwise/depthwise_weights"], "attr": {"padding": {"s": "U0FNRQ=="}, "dilations": {"list": {"i": ["1", "1", "1", "1"]}}, "T": {"type": "DT_FLOAT"}, "data_format": {"s": "TkhXQw=="}, "strides": {"list": {"i": ["1", "1", "1", "1"]}}}}, {"name": "mb/Openpose/MConv_Stage5_L2_1_depthwise/depthwise", "op": "DepthwiseConv2dNative", "input": ["mb/Openpose/MConv_Stage5_concat", "mb/Openpose/MConv_Stage5_L2_1_depthwise/depthwise_weights"], "attr": {"padding": {"s": "U0FNRQ=="}, "dilations": {"list": {"i": ["1", "1", "1", "1"]}}, "T": {"type": "DT_FLOAT"}, "data_format": {"s": "TkhXQw=="}, "strides": {"list": {"i": ["1", "1", "1", "1"]}}}}, {"name": "mb/Openpose/MConv_Stage5_L1_1_pointwise/Relu", "op": "_FusedConv2D", "input": ["mb/Openpose/MConv_Stage5_L1_1_depthwise/depthwise", "mb/Openpose/MConv_Stage5_L1_1_pointwise/weights", "mb/Openpose/MConv_Stage5_L1_1_pointwise/Conv2D_bn_offset"], "device": "/device:CPU:0", "attr": {"dilations": {"list": {"i": ["1", "1", "1", "1"]}}, "T": {"type": "DT_FLOAT"}, "data_format": {"s": "TkhXQw=="}, "strides": {"list": {"i": ["1", "1", "1", "1"]}}, "use_cudnn_on_gpu": {"b": true}, "explicit_paddings": {"list": {}}, "num_args": {"i": "1"}, "epsilon": {"f": 0.0}, "padding": {"s": "U0FNRQ=="}, "fused_ops": {"list": {"s": ["Qmlhc0FkZA==", "UmVsdQ=="]}}}}, {"name": "mb/Openpose/MConv_Stage5_L2_1_pointwise/Relu", "op": "_FusedConv2D", "input": ["mb/Openpose/MConv_Stage5_L2_1_depthwise/depthwise", "mb/Openpose/MConv_Stage5_L2_1_pointwise/weights", "mb/Openpose/MConv_Stage5_L2_1_pointwise/Conv2D_bn_offset"], "device": "/device:CPU:0", "attr": {"dilations": {"list": {"i": ["1", "1", "1", "1"]}}, "T": {"type": "DT_FLOAT"}, "data_format": {"s": "TkhXQw=="}, "strides": {"list": {"i": ["1", "1", "1", "1"]}}, "use_cudnn_on_gpu": {"b": true}, "explicit_paddings": {"list": {}}, "num_args": {"i": "1"}, "epsilon": {"f": 0.0}, "padding": {"s": "U0FNRQ=="}, "fused_ops": {"list": {"s": ["Qmlhc0FkZA==", "UmVsdQ=="]}}}}, {"name": "mb/Openpose/MConv_Stage5_L1_2_depthwise/depthwise", "op": "DepthwiseConv2dNative", "input": ["mb/Openpose/MConv_Stage5_L1_1_pointwise/Relu", "mb/Openpose/MConv_Stage5_L1_2_depthwise/depthwise_weights"], "attr": {"padding": {"s": "U0FNRQ=="}, "dilations": {"list": {"i": ["1", "1", "1", "1"]}}, "T": {"type": "DT_FLOAT"}, "data_format": {"s": "TkhXQw=="}, "strides": {"list": {"i": ["1", "1", "1", "1"]}}}}, {"name": "mb/Openpose/MConv_Stage5_L2_2_depthwise/depthwise", "op": "DepthwiseConv2dNative", "input": ["mb/Openpose/MConv_Stage5_L2_1_pointwise/Relu", "mb/Openpose/MConv_Stage5_L2_2_depthwise/depthwise_weights"], "attr": {"padding": {"s": "U0FNRQ=="}, "dilations": {"list": {"i": ["1", "1", "1", "1"]}}, "T": {"type": "DT_FLOAT"}, "strides": {"list": {"i": ["1", "1", "1", "1"]}}, "data_format": {"s": "TkhXQw=="}}}, {"name": "mb/Openpose/MConv_Stage5_L1_2_pointwise/Relu", "op": "_FusedConv2D", "input": ["mb/Openpose/MConv_Stage5_L1_2_depthwise/depthwise", "mb/Openpose/MConv_Stage5_L1_2_pointwise/weights", "mb/Openpose/MConv_Stage5_L1_2_pointwise/Conv2D_bn_offset"], "device": "/device:CPU:0", "attr": {"dilations": {"list": {"i": ["1", "1", "1", "1"]}}, "T": {"type": "DT_FLOAT"}, "data_format": {"s": "TkhXQw=="}, "strides": {"list": {"i": ["1", "1", "1", "1"]}}, "use_cudnn_on_gpu": {"b": true}, "explicit_paddings": {"list": {}}, "num_args": {"i": "1"}, "epsilon": {"f": 0.0}, "padding": {"s": "U0FNRQ=="}, "fused_ops": {"list": {"s": ["Qmlhc0FkZA==", "UmVsdQ=="]}}}}, {"name": "mb/Openpose/MConv_Stage5_L2_2_pointwise/Relu", "op": "_FusedConv2D", "input": ["mb/Openpose/MConv_Stage5_L2_2_depthwise/depthwise", "mb/Openpose/MConv_Stage5_L2_2_pointwise/weights", "mb/Openpose/MConv_Stage5_L2_2_pointwise/Conv2D_bn_offset"], "device": "/device:CPU:0", "attr": {"dilations": {"list": {"i": ["1", "1", "1", "1"]}}, "T": {"type": "DT_FLOAT"}, "data_format": {"s": "TkhXQw=="}, "strides": {"list": {"i": ["1", "1", "1", "1"]}}, "use_cudnn_on_gpu": {"b": true}, "explicit_paddings": {"list": {}}, "num_args": {"i": "1"}, "epsilon": {"f": 0.0}, "padding": {"s": "U0FNRQ=="}, "fused_ops": {"list": {"s": ["Qmlhc0FkZA==", "UmVsdQ=="]}}}}, {"name": "mb/Openpose/MConv_Stage5_L1_3_depthwise/depthwise", "op": "DepthwiseConv2dNative", "input": ["mb/Openpose/MConv_Stage5_L1_2_pointwise/Relu", "mb/Openpose/MConv_Stage5_L1_3_depthwise/depthwise_weights"], "attr": {"padding": {"s": "U0FNRQ=="}, "dilations": {"list": {"i": ["1", "1", "1", "1"]}}, "T": {"type": "DT_FLOAT"}, "data_format": {"s": "TkhXQw=="}, "strides": {"list": {"i": ["1", "1", "1", "1"]}}}}, {"name": "mb/Openpose/MConv_Stage5_L2_3_depthwise/depthwise", "op": "DepthwiseConv2dNative", "input": ["mb/Openpose/MConv_Stage5_L2_2_pointwise/Relu", "mb/Openpose/MConv_Stage5_L2_3_depthwise/depthwise_weights"], "attr": {"padding": {"s": "U0FNRQ=="}, "dilations": {"list": {"i": ["1", "1", "1", "1"]}}, "T": {"type": "DT_FLOAT"}, "data_format": {"s": "TkhXQw=="}, "strides": {"list": {"i": ["1", "1", "1", "1"]}}}}, {"name": "mb/Openpose/MConv_Stage5_L1_3_pointwise/Relu", "op": "_FusedConv2D", "input": ["mb/Openpose/MConv_Stage5_L1_3_depthwise/depthwise", "mb/Openpose/MConv_Stage5_L1_3_pointwise/weights", "mb/Openpose/MConv_Stage5_L1_3_pointwise/Conv2D_bn_offset"], "device": "/device:CPU:0", "attr": {"dilations": {"list": {"i": ["1", "1", "1", "1"]}}, "T": {"type": "DT_FLOAT"}, "data_format": {"s": "TkhXQw=="}, "strides": {"list": {"i": ["1", "1", "1", "1"]}}, "use_cudnn_on_gpu": {"b": true}, "explicit_paddings": {"list": {}}, "num_args": {"i": "1"}, "epsilon": {"f": 0.0}, "padding": {"s": "U0FNRQ=="}, "fused_ops": {"list": {"s": ["Qmlhc0FkZA==", "UmVsdQ=="]}}}}, {"name": "mb/Openpose/MConv_Stage5_L2_3_pointwise/Relu", "op": "_FusedConv2D", "input": ["mb/Openpose/MConv_Stage5_L2_3_depthwise/depthwise", "mb/Openpose/MConv_Stage5_L2_3_pointwise/weights", "mb/Openpose/MConv_Stage5_L2_3_pointwise/Conv2D_bn_offset"], "device": "/device:CPU:0", "attr": {"dilations": {"list": {"i": ["1", "1", "1", "1"]}}, "T": {"type": "DT_FLOAT"}, "data_format": {"s": "TkhXQw=="}, "strides": {"list": {"i": ["1", "1", "1", "1"]}}, "use_cudnn_on_gpu": {"b": true}, "explicit_paddings": {"list": {}}, "num_args": {"i": "1"}, "epsilon": {"f": 0.0}, "padding": {"s": "U0FNRQ=="}, "fused_ops": {"list": {"s": ["Qmlhc0FkZA==", "UmVsdQ=="]}}}}, {"name": "mb/Openpose/MConv_Stage5_L1_4_depthwise/depthwise", "op": "DepthwiseConv2dNative", "input": ["mb/Openpose/MConv_Stage5_L1_3_pointwise/Relu", "mb/Openpose/MConv_Stage5_L1_4_depthwise/depthwise_weights"], "attr": {"padding": {"s": "U0FNRQ=="}, "dilations": {"list": {"i": ["1", "1", "1", "1"]}}, "T": {"type": "DT_FLOAT"}, "data_format": {"s": "TkhXQw=="}, "strides": {"list": {"i": ["1", "1", "1", "1"]}}}}, {"name": "mb/Openpose/MConv_Stage5_L2_4_depthwise/depthwise", "op": "DepthwiseConv2dNative", "input": ["mb/Openpose/MConv_Stage5_L2_3_pointwise/Relu", "mb/Openpose/MConv_Stage5_L2_4_depthwise/depthwise_weights"], "attr": {"padding": {"s": "U0FNRQ=="}, "dilations": {"list": {"i": ["1", "1", "1", "1"]}}, "T": {"type": "DT_FLOAT"}, "strides": {"list": {"i": ["1", "1", "1", "1"]}}, "data_format": {"s": "TkhXQw=="}}}, {"name": "mb/Openpose/MConv_Stage5_L1_4_pointwise/Relu", "op": "_FusedConv2D", "input": ["mb/Openpose/MConv_Stage5_L1_4_depthwise/depthwise", "mb/Openpose/MConv_Stage5_L1_4_pointwise/weights", "mb/Openpose/MConv_Stage5_L1_4_pointwise/Conv2D_bn_offset"], "device": "/device:CPU:0", "attr": {"dilations": {"list": {"i": ["1", "1", "1", "1"]}}, "T": {"type": "DT_FLOAT"}, "data_format": {"s": "TkhXQw=="}, "strides": {"list": {"i": ["1", "1", "1", "1"]}}, "use_cudnn_on_gpu": {"b": true}, "explicit_paddings": {"list": {}}, "num_args": {"i": "1"}, "epsilon": {"f": 0.0}, "padding": {"s": "U0FNRQ=="}, "fused_ops": {"list": {"s": ["Qmlhc0FkZA==", "UmVsdQ=="]}}}}, {"name": "mb/Openpose/MConv_Stage5_L2_4_pointwise/Relu", "op": "_FusedConv2D", "input": ["mb/Openpose/MConv_Stage5_L2_4_depthwise/depthwise", "mb/Openpose/MConv_Stage5_L2_4_pointwise/weights", "mb/Openpose/MConv_Stage5_L2_4_pointwise/Conv2D_bn_offset"], "device": "/device:CPU:0", "attr": {"dilations": {"list": {"i": ["1", "1", "1", "1"]}}, "T": {"type": "DT_FLOAT"}, "data_format": {"s": "TkhXQw=="}, "strides": {"list": {"i": ["1", "1", "1", "1"]}}, "use_cudnn_on_gpu": {"b": true}, "explicit_paddings": {"list": {}}, "num_args": {"i": "1"}, "epsilon": {"f": 0.0}, "padding": {"s": "U0FNRQ=="}, "fused_ops": {"list": {"s": ["Qmlhc0FkZA==", "UmVsdQ=="]}}}}, {"name": "mb/Openpose/MConv_Stage5_L1_5_depthwise/depthwise", "op": "DepthwiseConv2dNative", "input": ["mb/Openpose/MConv_Stage5_L1_4_pointwise/Relu", "mb/Openpose/MConv_Stage5_L1_5_depthwise/depthwise_weights"], "attr": {"padding": {"s": "U0FNRQ=="}, "dilations": {"list": {"i": ["1", "1", "1", "1"]}}, "T": {"type": "DT_FLOAT"}, "strides": {"list": {"i": ["1", "1", "1", "1"]}}, "data_format": {"s": "TkhXQw=="}}}, {"name": "mb/Openpose/MConv_Stage5_L2_5_depthwise/depthwise", "op": "DepthwiseConv2dNative", "input": ["mb/Openpose/MConv_Stage5_L2_4_pointwise/Relu", "mb/Openpose/MConv_Stage5_L2_5_depthwise/depthwise_weights"], "attr": {"padding": {"s": "U0FNRQ=="}, "dilations": {"list": {"i": ["1", "1", "1", "1"]}}, "T": {"type": "DT_FLOAT"}, "strides": {"list": {"i": ["1", "1", "1", "1"]}}, "data_format": {"s": "TkhXQw=="}}}, {"name": "mb/Openpose/MConv_Stage5_L1_5_pointwise/BatchNorm/FusedBatchNormV3", "op": "_FusedConv2D", "input": ["mb/Openpose/MConv_Stage5_L1_5_depthwise/depthwise", "mb/Openpose/MConv_Stage5_L1_5_pointwise/weights", "mb/Openpose/MConv_Stage5_L1_5_pointwise/Conv2D_bn_offset"], "device": "/device:CPU:0", "attr": {"dilations": {"list": {"i": ["1", "1", "1", "1"]}}, "T": {"type": "DT_FLOAT"}, "data_format": {"s": "TkhXQw=="}, "strides": {"list": {"i": ["1", "1", "1", "1"]}}, "use_cudnn_on_gpu": {"b": true}, "explicit_paddings": {"list": {}}, "num_args": {"i": "1"}, "epsilon": {"f": 0.0}, "padding": {"s": "U0FNRQ=="}, "fused_ops": {"list": {"s": ["Qmlhc0FkZA=="]}}}}, {"name": "mb/Openpose/MConv_Stage5_L2_5_pointwise/BatchNorm/FusedBatchNormV3", "op": "_FusedConv2D", "input": ["mb/Openpose/MConv_Stage5_L2_5_depthwise/depthwise", "mb/Openpose/MConv_Stage5_L2_5_pointwise/weights", "mb/Openpose/MConv_Stage5_L2_5_pointwise/Conv2D_bn_offset"], "device": "/device:CPU:0", "attr": {"dilations": {"list": {"i": ["1", "1", "1", "1"]}}, "T": {"type": "DT_FLOAT"}, "data_format": {"s": "TkhXQw=="}, "strides": {"list": {"i": ["1", "1", "1", "1"]}}, "use_cudnn_on_gpu": {"b": true}, "explicit_paddings": {"list": {}}, "num_args": {"i": "1"}, "epsilon": {"f": 0.0}, "padding": {"s": "U0FNRQ=="}, "fused_ops": {"list": {"s": ["Qmlhc0FkZA=="]}}}}, {"name": "mb/Openpose/MConv_Stage6_concat", "op": "ConcatV2", "input": ["mb/Openpose/MConv_Stage5_L1_5_pointwise/BatchNorm/FusedBatchNormV3", "mb/Openpose/MConv_Stage5_L2_5_pointwise/BatchNorm/FusedBatchNormV3", "mb/feat_concat", "mb/Openpose/MConv_Stage2_concat/axis"], "attr": {"Tidx": {"type": "DT_INT32"}, "T": {"type": "DT_FLOAT"}, "N": {"i": "3"}}}, {"name": "mb/Openpose/MConv_Stage6_L2_1_depthwise/depthwise", "op": "DepthwiseConv2dNative", "input": ["mb/Openpose/MConv_Stage6_concat", "mb/Openpose/MConv_Stage6_L2_1_depthwise/depthwise_weights"], "attr": {"padding": {"s": "U0FNRQ=="}, "dilations": {"list": {"i": ["1", "1", "1", "1"]}}, "T": {"type": "DT_FLOAT"}, "data_format": {"s": "TkhXQw=="}, "strides": {"list": {"i": ["1", "1", "1", "1"]}}}}, {"name": "mb/Openpose/MConv_Stage6_L1_1_depthwise/depthwise", "op": "DepthwiseConv2dNative", "input": ["mb/Openpose/MConv_Stage6_concat", "mb/Openpose/MConv_Stage6_L1_1_depthwise/depthwise_weights"], "attr": {"padding": {"s": "U0FNRQ=="}, "dilations": {"list": {"i": ["1", "1", "1", "1"]}}, "T": {"type": "DT_FLOAT"}, "strides": {"list": {"i": ["1", "1", "1", "1"]}}, "data_format": {"s": "TkhXQw=="}}}, {"name": "mb/Openpose/MConv_Stage6_L2_1_pointwise/Relu", "op": "_FusedConv2D", "input": ["mb/Openpose/MConv_Stage6_L2_1_depthwise/depthwise", "mb/Openpose/MConv_Stage6_L2_1_pointwise/weights", "mb/Openpose/MConv_Stage6_L2_1_pointwise/Conv2D_bn_offset"], "device": "/device:CPU:0", "attr": {"dilations": {"list": {"i": ["1", "1", "1", "1"]}}, "T": {"type": "DT_FLOAT"}, "data_format": {"s": "TkhXQw=="}, "strides": {"list": {"i": ["1", "1", "1", "1"]}}, "use_cudnn_on_gpu": {"b": true}, "explicit_paddings": {"list": {}}, "num_args": {"i": "1"}, "epsilon": {"f": 0.0}, "padding": {"s": "U0FNRQ=="}, "fused_ops": {"list": {"s": ["Qmlhc0FkZA==", "UmVsdQ=="]}}}}, {"name": "mb/Openpose/MConv_Stage6_L1_1_pointwise/Relu", "op": "_FusedConv2D", "input": ["mb/Openpose/MConv_Stage6_L1_1_depthwise/depthwise", "mb/Openpose/MConv_Stage6_L1_1_pointwise/weights", "mb/Openpose/MConv_Stage6_L1_1_pointwise/Conv2D_bn_offset"], "device": "/device:CPU:0", "attr": {"dilations": {"list": {"i": ["1", "1", "1", "1"]}}, "T": {"type": "DT_FLOAT"}, "data_format": {"s": "TkhXQw=="}, "strides": {"list": {"i": ["1", "1", "1", "1"]}}, "use_cudnn_on_gpu": {"b": true}, "explicit_paddings": {"list": {}}, "num_args": {"i": "1"}, "epsilon": {"f": 0.0}, "padding": {"s": "U0FNRQ=="}, "fused_ops": {"list": {"s": ["Qmlhc0FkZA==", "UmVsdQ=="]}}}}, {"name": "mb/Openpose/MConv_Stage6_L2_2_depthwise/depthwise", "op": "DepthwiseConv2dNative", "input": ["mb/Openpose/MConv_Stage6_L2_1_pointwise/Relu", "mb/Openpose/MConv_Stage6_L2_2_depthwise/depthwise_weights"], "attr": {"padding": {"s": "U0FNRQ=="}, "dilations": {"list": {"i": ["1", "1", "1", "1"]}}, "T": {"type": "DT_FLOAT"}, "data_format": {"s": "TkhXQw=="}, "strides": {"list": {"i": ["1", "1", "1", "1"]}}}}, {"name": "mb/Openpose/MConv_Stage6_L1_2_depthwise/depthwise", "op": "DepthwiseConv2dNative", "input": ["mb/Openpose/MConv_Stage6_L1_1_pointwise/Relu", "mb/Openpose/MConv_Stage6_L1_2_depthwise/depthwise_weights"], "attr": {"padding": {"s": "U0FNRQ=="}, "dilations": {"list": {"i": ["1", "1", "1", "1"]}}, "T": {"type": "DT_FLOAT"}, "data_format": {"s": "TkhXQw=="}, "strides": {"list": {"i": ["1", "1", "1", "1"]}}}}, {"name": "mb/Openpose/MConv_Stage6_L2_2_pointwise/Relu", "op": "_FusedConv2D", "input": ["mb/Openpose/MConv_Stage6_L2_2_depthwise/depthwise", "mb/Openpose/MConv_Stage6_L2_2_pointwise/weights", "mb/Openpose/MConv_Stage6_L2_2_pointwise/Conv2D_bn_offset"], "device": "/device:CPU:0", "attr": {"dilations": {"list": {"i": ["1", "1", "1", "1"]}}, "T": {"type": "DT_FLOAT"}, "data_format": {"s": "TkhXQw=="}, "strides": {"list": {"i": ["1", "1", "1", "1"]}}, "use_cudnn_on_gpu": {"b": true}, "explicit_paddings": {"list": {}}, "num_args": {"i": "1"}, "epsilon": {"f": 0.0}, "padding": {"s": "U0FNRQ=="}, "fused_ops": {"list": {"s": ["Qmlhc0FkZA==", "UmVsdQ=="]}}}}, {"name": "mb/Openpose/MConv_Stage6_L1_2_pointwise/Relu", "op": "_FusedConv2D", "input": ["mb/Openpose/MConv_Stage6_L1_2_depthwise/depthwise", "mb/Openpose/MConv_Stage6_L1_2_pointwise/weights", "mb/Openpose/MConv_Stage6_L1_2_pointwise/Conv2D_bn_offset"], "device": "/device:CPU:0", "attr": {"dilations": {"list": {"i": ["1", "1", "1", "1"]}}, "T": {"type": "DT_FLOAT"}, "data_format": {"s": "TkhXQw=="}, "strides": {"list": {"i": ["1", "1", "1", "1"]}}, "use_cudnn_on_gpu": {"b": true}, "explicit_paddings": {"list": {}}, "num_args": {"i": "1"}, "epsilon": {"f": 0.0}, "padding": {"s": "U0FNRQ=="}, "fused_ops": {"list": {"s": ["Qmlhc0FkZA==", "UmVsdQ=="]}}}}, {"name": "mb/Openpose/MConv_Stage6_L2_3_depthwise/depthwise", "op": "DepthwiseConv2dNative", "input": ["mb/Openpose/MConv_Stage6_L2_2_pointwise/Relu", "mb/Openpose/MConv_Stage6_L2_3_depthwise/depthwise_weights"], "attr": {"padding": {"s": "U0FNRQ=="}, "dilations": {"list": {"i": ["1", "1", "1", "1"]}}, "T": {"type": "DT_FLOAT"}, "strides": {"list": {"i": ["1", "1", "1", "1"]}}, "data_format": {"s": "TkhXQw=="}}}, {"name": "mb/Openpose/MConv_Stage6_L1_3_depthwise/depthwise", "op": "DepthwiseConv2dNative", "input": ["mb/Openpose/MConv_Stage6_L1_2_pointwise/Relu", "mb/Openpose/MConv_Stage6_L1_3_depthwise/depthwise_weights"], "attr": {"padding": {"s": "U0FNRQ=="}, "dilations": {"list": {"i": ["1", "1", "1", "1"]}}, "T": {"type": "DT_FLOAT"}, "data_format": {"s": "TkhXQw=="}, "strides": {"list": {"i": ["1", "1", "1", "1"]}}}}, {"name": "mb/Openpose/MConv_Stage6_L2_3_pointwise/Relu", "op": "_FusedConv2D", "input": ["mb/Openpose/MConv_Stage6_L2_3_depthwise/depthwise", "mb/Openpose/MConv_Stage6_L2_3_pointwise/weights", "mb/Openpose/MConv_Stage6_L2_3_pointwise/Conv2D_bn_offset"], "device": "/device:CPU:0", "attr": {"dilations": {"list": {"i": ["1", "1", "1", "1"]}}, "T": {"type": "DT_FLOAT"}, "data_format": {"s": "TkhXQw=="}, "strides": {"list": {"i": ["1", "1", "1", "1"]}}, "use_cudnn_on_gpu": {"b": true}, "explicit_paddings": {"list": {}}, "num_args": {"i": "1"}, "epsilon": {"f": 0.0}, "padding": {"s": "U0FNRQ=="}, "fused_ops": {"list": {"s": ["Qmlhc0FkZA==", "UmVsdQ=="]}}}}, {"name": "mb/Openpose/MConv_Stage6_L1_3_pointwise/Relu", "op": "_FusedConv2D", "input": ["mb/Openpose/MConv_Stage6_L1_3_depthwise/depthwise", "mb/Openpose/MConv_Stage6_L1_3_pointwise/weights", "mb/Openpose/MConv_Stage6_L1_3_pointwise/Conv2D_bn_offset"], "device": "/device:CPU:0", "attr": {"dilations": {"list": {"i": ["1", "1", "1", "1"]}}, "T": {"type": "DT_FLOAT"}, "data_format": {"s": "TkhXQw=="}, "strides": {"list": {"i": ["1", "1", "1", "1"]}}, "use_cudnn_on_gpu": {"b": true}, "explicit_paddings": {"list": {}}, "num_args": {"i": "1"}, "epsilon": {"f": 0.0}, "padding": {"s": "U0FNRQ=="}, "fused_ops": {"list": {"s": ["Qmlhc0FkZA==", "UmVsdQ=="]}}}}, {"name": "mb/Openpose/MConv_Stage6_L2_4_depthwise/depthwise", "op": "DepthwiseConv2dNative", "input": ["mb/Openpose/MConv_Stage6_L2_3_pointwise/Relu", "mb/Openpose/MConv_Stage6_L2_4_depthwise/depthwise_weights"], "attr": {"padding": {"s": "U0FNRQ=="}, "dilations": {"list": {"i": ["1", "1", "1", "1"]}}, "T": {"type": "DT_FLOAT"}, "strides": {"list": {"i": ["1", "1", "1", "1"]}}, "data_format": {"s": "TkhXQw=="}}}, {"name": "mb/Openpose/MConv_Stage6_L1_4_depthwise/depthwise", "op": "DepthwiseConv2dNative", "input": ["mb/Openpose/MConv_Stage6_L1_3_pointwise/Relu", "mb/Openpose/MConv_Stage6_L1_4_depthwise/depthwise_weights"], "attr": {"padding": {"s": "U0FNRQ=="}, "dilations": {"list": {"i": ["1", "1", "1", "1"]}}, "T": {"type": "DT_FLOAT"}, "data_format": {"s": "TkhXQw=="}, "strides": {"list": {"i": ["1", "1", "1", "1"]}}}}, {"name": "mb/Openpose/MConv_Stage6_L2_4_pointwise/Relu", "op": "_FusedConv2D", "input": ["mb/Openpose/MConv_Stage6_L2_4_depthwise/depthwise", "mb/Openpose/MConv_Stage6_L2_4_pointwise/weights", "mb/Openpose/MConv_Stage6_L2_4_pointwise/Conv2D_bn_offset"], "device": "/device:CPU:0", "attr": {"dilations": {"list": {"i": ["1", "1", "1", "1"]}}, "T": {"type": "DT_FLOAT"}, "data_format": {"s": "TkhXQw=="}, "strides": {"list": {"i": ["1", "1", "1", "1"]}}, "use_cudnn_on_gpu": {"b": true}, "explicit_paddings": {"list": {}}, "num_args": {"i": "1"}, "epsilon": {"f": 0.0}, "padding": {"s": "U0FNRQ=="}, "fused_ops": {"list": {"s": ["Qmlhc0FkZA==", "UmVsdQ=="]}}}}, {"name": "mb/Openpose/MConv_Stage6_L1_4_pointwise/Relu", "op": "_FusedConv2D", "input": ["mb/Openpose/MConv_Stage6_L1_4_depthwise/depthwise", "mb/Openpose/MConv_Stage6_L1_4_pointwise/weights", "mb/Openpose/MConv_Stage6_L1_4_pointwise/Conv2D_bn_offset"], "device": "/device:CPU:0", "attr": {"dilations": {"list": {"i": ["1", "1", "1", "1"]}}, "T": {"type": "DT_FLOAT"}, "data_format": {"s": "TkhXQw=="}, "strides": {"list": {"i": ["1", "1", "1", "1"]}}, "use_cudnn_on_gpu": {"b": true}, "explicit_paddings": {"list": {}}, "num_args": {"i": "1"}, "epsilon": {"f": 0.0}, "padding": {"s": "U0FNRQ=="}, "fused_ops": {"list": {"s": ["Qmlhc0FkZA==", "UmVsdQ=="]}}}}, {"name": "mb/Openpose/MConv_Stage6_L2_5_depthwise/depthwise", "op": "DepthwiseConv2dNative", "input": ["mb/Openpose/MConv_Stage6_L2_4_pointwise/Relu", "mb/Openpose/MConv_Stage6_L2_5_depthwise/depthwise_weights"], "attr": {"padding": {"s": "U0FNRQ=="}, "dilations": {"list": {"i": ["1", "1", "1", "1"]}}, "T": {"type": "DT_FLOAT"}, "strides": {"list": {"i": ["1", "1", "1", "1"]}}, "data_format": {"s": "TkhXQw=="}}}, {"name": "mb/Openpose/MConv_Stage6_L1_5_depthwise/depthwise", "op": "DepthwiseConv2dNative", "input": ["mb/Openpose/MConv_Stage6_L1_4_pointwise/Relu", "mb/Openpose/MConv_Stage6_L1_5_depthwise/depthwise_weights"], "attr": {"padding": {"s": "U0FNRQ=="}, "dilations": {"list": {"i": ["1", "1", "1", "1"]}}, "T": {"type": "DT_FLOAT"}, "strides": {"list": {"i": ["1", "1", "1", "1"]}}, "data_format": {"s": "TkhXQw=="}}}, {"name": "mb/Openpose/MConv_Stage6_L2_5_pointwise/BatchNorm/FusedBatchNormV3", "op": "_FusedConv2D", "input": ["mb/Openpose/MConv_Stage6_L2_5_depthwise/depthwise", "mb/Openpose/MConv_Stage6_L2_5_pointwise/weights", "mb/Openpose/MConv_Stage6_L2_5_pointwise/Conv2D_bn_offset"], "device": "/device:CPU:0", "attr": {"dilations": {"list": {"i": ["1", "1", "1", "1"]}}, "T": {"type": "DT_FLOAT"}, "data_format": {"s": "TkhXQw=="}, "strides": {"list": {"i": ["1", "1", "1", "1"]}}, "use_cudnn_on_gpu": {"b": true}, "explicit_paddings": {"list": {}}, "num_args": {"i": "1"}, "epsilon": {"f": 0.0}, "padding": {"s": "U0FNRQ=="}, "fused_ops": {"list": {"s": ["Qmlhc0FkZA=="]}}}}, {"name": "mb/Openpose/MConv_Stage6_L1_5_pointwise/BatchNorm/FusedBatchNormV3", "op": "_FusedConv2D", "input": ["mb/Openpose/MConv_Stage6_L1_5_depthwise/depthwise", "mb/Openpose/MConv_Stage6_L1_5_pointwise/weights", "mb/Openpose/MConv_Stage6_L1_5_pointwise/Conv2D_bn_offset"], "device": "/device:CPU:0", "attr": {"dilations": {"list": {"i": ["1", "1", "1", "1"]}}, "T": {"type": "DT_FLOAT"}, "data_format": {"s": "TkhXQw=="}, "strides": {"list": {"i": ["1", "1", "1", "1"]}}, "use_cudnn_on_gpu": {"b": true}, "explicit_paddings": {"list": {}}, "num_args": {"i": "1"}, "epsilon": {"f": 0.0}, "padding": {"s": "U0FNRQ=="}, "fused_ops": {"list": {"s": ["Qmlhc0FkZA=="]}}}}, {"name": "mb/Openpose/concat_stage7", "op": "ConcatV2", "input": ["mb/Openpose/MConv_Stage6_L2_5_pointwise/BatchNorm/FusedBatchNormV3", "mb/Openpose/MConv_Stage6_L1_5_pointwise/BatchNorm/FusedBatchNormV3", "mb/Openpose/MConv_Stage2_concat/axis"], "attr": {"Tidx": {"type": "DT_INT32"}, "T": {"type": "DT_FLOAT"}, "N": {"i": "2"}}}], "library": {}, "versions": {}}, "weightsManifest": [{"paths": ["group1-shard1of2.bin", "group1-shard2of2.bin"], "weights": [{"name": "mb/Openpose/MConv_Stage6_L2_1_depthwise/depthwise_weights", "shape": [3, 3, 924, 1], "dtype": "float32"}, {"name": "mb/Openpose/MConv_Stage6_L2_2_depthwise/depthwise_weights", "shape": [3, 3, 64, 1], "dtype": "float32"}, {"name": "mb/Openpose/MConv_Stage6_L2_3_depthwise/depthwise_weights", "shape": [3, 3, 64, 1], "dtype": "float32"}, {"name": "mb/Openpose/MConv_Stage6_L2_4_depthwise/depthwise_weights", "shape": [1, 1, 64, 1], "dtype": "float32"}, {"name": "mb/Openpose/MConv_Stage6_L2_5_depthwise/depthwise_weights", "shape": [1, 1, 64, 1], "dtype": "float32"}, {"name": "mb/Openpose/MConv_Stage5_L1_1_depthwise/depthwise_weights", "shape": [3, 3, 924, 1], "dtype": "float32"}, {"name": "mb/Openpose/MConv_Stage5_L1_2_depthwise/depthwise_weights", "shape": [3, 3, 64, 1], "dtype": "float32"}, {"name": "mb/Openpose/MConv_Stage5_L1_3_depthwise/depthwise_weights", "shape": [3, 3, 64, 1], "dtype": "float32"}, {"name": "mb/Openpose/MConv_Stage5_L1_4_depthwise/depthwise_weights", "shape": [1, 1, 64, 1], "dtype": "float32"}, {"name": "mb/Openpose/MConv_Stage5_L1_5_depthwise/depthwise_weights", "shape": [1, 1, 64, 1], "dtype": "float32"}, {"name": "mb/Openpose/MConv_Stage4_L1_1_depthwise/depthwise_weights", "shape": [3, 3, 924, 1], "dtype": "float32"}, {"name": "mb/Openpose/MConv_Stage4_L1_2_depthwise/depthwise_weights", "shape": [3, 3, 64, 1], "dtype": "float32"}, {"name": "mb/Openpose/MConv_Stage4_L1_3_depthwise/depthwise_weights", "shape": [3, 3, 64, 1], "dtype": "float32"}, {"name": "mb/Openpose/MConv_Stage4_L1_4_depthwise/depthwise_weights", "shape": [1, 1, 64, 1], "dtype": "float32"}, {"name": "mb/Openpose/MConv_Stage4_L1_5_depthwise/depthwise_weights", "shape": [1, 1, 64, 1], "dtype": "float32"}, {"name": "mb/Openpose/MConv_Stage3_L1_1_depthwise/depthwise_weights", "shape": [3, 3, 924, 1], "dtype": "float32"}, {"name": "mb/Openpose/MConv_Stage3_L1_2_depthwise/depthwise_weights", "shape": [3, 3, 64, 1], "dtype": "float32"}, {"name": "mb/Openpose/MConv_Stage3_L1_3_depthwise/depthwise_weights", "shape": [3, 3, 64, 1], "dtype": "float32"}, {"name": "mb/Openpose/MConv_Stage3_L1_4_depthwise/depthwise_weights", "shape": [1, 1, 64, 1], "dtype": "float32"}, {"name": "mb/Openpose/MConv_Stage3_L1_5_depthwise/depthwise_weights", "shape": [1, 1, 64, 1], "dtype": "float32"}, {"name": "mb/Openpose/MConv_Stage2_L1_1_depthwise/depthwise_weights", "shape": [3, 3, 924, 1], "dtype": "float32"}, {"name": "mb/Openpose/MConv_Stage2_L1_2_depthwise/depthwise_weights", "shape": [3, 3, 64, 1], "dtype": "float32"}, {"name": "mb/Openpose/MConv_Stage2_L1_3_depthwise/depthwise_weights", "shape": [3, 3, 64, 1], "dtype": "float32"}, {"name": "mb/Openpose/MConv_Stage2_L1_4_depthwise/depthwise_weights", "shape": [1, 1, 64, 1], "dtype": "float32"}, {"name": "mb/Openpose/MConv_Stage2_L1_5_depthwise/depthwise_weights", "shape": [1, 1, 64, 1], "dtype": "float32"}, {"name": "mb/Openpose/MConv_Stage1_L1_1_depthwise/depthwise_weights", "shape": [3, 3, 864, 1], "dtype": "float32"}, {"name": "mb/Openpose/MConv_Stage1_L1_2_depthwise/depthwise_weights", "shape": [3, 3, 64, 1], "dtype": "float32"}, {"name": "mb/Openpose/MConv_Stage1_L1_3_depthwise/depthwise_weights", "shape": [3, 3, 64, 1], "dtype": "float32"}, {"name": "mb/Openpose/MConv_Stage1_L1_4_depthwise/depthwise_weights", "shape": [1, 1, 64, 1], "dtype": "float32"}, {"name": "mb/Openpose/MConv_Stage1_L1_5_depthwise/depthwise_weights", "shape": [1, 1, 256, 1], "dtype": "float32"}, {"name": "mb/Openpose/MConv_Stage1_L2_1_depthwise/depthwise_weights", "shape": [3, 3, 864, 1], "dtype": "float32"}, {"name": "mb/Openpose/MConv_Stage1_L2_2_depthwise/depthwise_weights", "shape": [3, 3, 64, 1], "dtype": "float32"}, {"name": "mb/Openpose/MConv_Stage1_L2_3_depthwise/depthwise_weights", "shape": [3, 3, 64, 1], "dtype": "float32"}, {"name": "mb/Openpose/MConv_Stage1_L2_4_depthwise/depthwise_weights", "shape": [1, 1, 64, 1], "dtype": "float32"}, {"name": "mb/Openpose/MConv_Stage1_L2_5_depthwise/depthwise_weights", "shape": [1, 1, 256, 1], "dtype": "float32"}, {"name": "mb/Openpose/MConv_Stage2_L2_1_depthwise/depthwise_weights", "shape": [3, 3, 924, 1], "dtype": "float32"}, {"name": "mb/Openpose/MConv_Stage2_L2_2_depthwise/depthwise_weights", "shape": [3, 3, 64, 1], "dtype": "float32"}, {"name": "mb/Openpose/MConv_Stage2_L2_3_depthwise/depthwise_weights", "shape": [3, 3, 64, 1], "dtype": "float32"}, {"name": "mb/Openpose/MConv_Stage2_L2_4_depthwise/depthwise_weights", "shape": [1, 1, 64, 1], "dtype": "float32"}, {"name": "mb/Openpose/MConv_Stage2_L2_5_depthwise/depthwise_weights", "shape": [1, 1, 64, 1], "dtype": "float32"}, {"name": "mb/Openpose/MConv_Stage3_L2_1_depthwise/depthwise_weights", "shape": [3, 3, 924, 1], "dtype": "float32"}, {"name": "mb/Openpose/MConv_Stage3_L2_2_depthwise/depthwise_weights", "shape": [3, 3, 64, 1], "dtype": "float32"}, {"name": "mb/Openpose/MConv_Stage3_L2_3_depthwise/depthwise_weights", "shape": [3, 3, 64, 1], "dtype": "float32"}, {"name": "mb/Openpose/MConv_Stage3_L2_4_depthwise/depthwise_weights", "shape": [1, 1, 64, 1], "dtype": "float32"}, {"name": "mb/Openpose/MConv_Stage3_L2_5_depthwise/depthwise_weights", "shape": [1, 1, 64, 1], "dtype": "float32"}, {"name": "mb/Openpose/MConv_Stage4_L2_1_depthwise/depthwise_weights", "shape": [3, 3, 924, 1], "dtype": "float32"}, {"name": "mb/Openpose/MConv_Stage4_L2_2_depthwise/depthwise_weights", "shape": [3, 3, 64, 1], "dtype": "float32"}, {"name": "mb/Openpose/MConv_Stage4_L2_3_depthwise/depthwise_weights", "shape": [3, 3, 64, 1], "dtype": "float32"}, {"name": "mb/Openpose/MConv_Stage4_L2_4_depthwise/depthwise_weights", "shape": [1, 1, 64, 1], "dtype": "float32"}, {"name": "mb/Openpose/MConv_Stage4_L2_5_depthwise/depthwise_weights", "shape": [1, 1, 64, 1], "dtype": "float32"}, {"name": "mb/Openpose/MConv_Stage5_L2_1_depthwise/depthwise_weights", "shape": [3, 3, 924, 1], "dtype": "float32"}, {"name": "mb/Openpose/MConv_Stage5_L2_2_depthwise/depthwise_weights", "shape": [3, 3, 64, 1], "dtype": "float32"}, {"name": "mb/Openpose/MConv_Stage5_L2_3_depthwise/depthwise_weights", "shape": [3, 3, 64, 1], "dtype": "float32"}, {"name": "mb/Openpose/MConv_Stage5_L2_4_depthwise/depthwise_weights", "shape": [1, 1, 64, 1], "dtype": "float32"}, {"name": "mb/Openpose/MConv_Stage5_L2_5_depthwise/depthwise_weights", "shape": [1, 1, 64, 1], "dtype": "float32"}, {"name": "mb/MobilenetV1/Conv2d_1_depthwise/depthwise_weights", "shape": [3, 3, 24, 1], "dtype": "float32"}, {"name": "mb/MobilenetV1/Conv2d_2_depthwise/depthwise_weights", "shape": [3, 3, 48, 1], "dtype": "float32"}, {"name": "mb/MobilenetV1/Conv2d_3_depthwise/depthwise_weights", "shape": [3, 3, 96, 1], "dtype": "float32"}, {"name": "mb/MobilenetV1/Conv2d_4_depthwise/depthwise_weights", "shape": [3, 3, 96, 1], "dtype": "float32"}, {"name": "mb/MobilenetV1/Conv2d_5_depthwise/depthwise_weights", "shape": [3, 3, 192, 1], "dtype": "float32"}, {"name": "mb/MobilenetV1/Conv2d_6_depthwise/depthwise_weights", "shape": [3, 3, 192, 1], "dtype": "float32"}, {"name": "mb/MobilenetV1/Conv2d_7_depthwise/depthwise_weights", "shape": [3, 3, 384, 1], "dtype": "float32"}, {"name": "mb/MobilenetV1/Conv2d_8_depthwise/depthwise_weights", "shape": [3, 3, 384, 1], "dtype": "float32"}, {"name": "mb/MobilenetV1/Conv2d_9_depthwise/depthwise_weights", "shape": [3, 3, 384, 1], "dtype": "float32"}, {"name": "mb/MobilenetV1/Conv2d_10_depthwise/depthwise_weights", "shape": [3, 3, 384, 1], "dtype": "float32"}, {"name": "mb/MobilenetV1/Conv2d_11_depthwise/depthwise_weights", "shape": [3, 3, 384, 1], "dtype": "float32"}, {"name": "mb/Openpose/MConv_Stage6_L1_1_depthwise/depthwise_weights", "shape": [3, 3, 924, 1], "dtype": "float32"}, {"name": "mb/Openpose/MConv_Stage6_L1_2_depthwise/depthwise_weights", "shape": [3, 3, 64, 1], "dtype": "float32"}, {"name": "mb/Openpose/MConv_Stage6_L1_3_depthwise/depthwise_weights", "shape": [3, 3, 64, 1], "dtype": "float32"}, {"name": "mb/Openpose/MConv_Stage6_L1_4_depthwise/depthwise_weights", "shape": [1, 1, 64, 1], "dtype": "float32"}, {"name": "mb/Openpose/MConv_Stage6_L1_5_depthwise/depthwise_weights", "shape": [1, 1, 64, 1], "dtype": "float32"}, {"name": "mb/Openpose/MConv_Stage2_concat/axis", "shape": [], "dtype": "int32"}, {"name": "mb/MobilenetV1/Conv2d_0/weights", "shape": [3, 3, 3, 24], "dtype": "float32"}, {"name": "mb/MobilenetV1/Conv2d_0/Conv2D_bn_offset", "shape": [24], "dtype": "float32"}, {"name": "mb/MobilenetV1/Conv2d_1_pointwise/weights", "shape": [1, 1, 24, 48], "dtype": "float32"}, {"name": "mb/MobilenetV1/Conv2d_1_pointwise/Conv2D_bn_offset", "shape": [48], "dtype": "float32"}, {"name": "mb/MobilenetV1/Conv2d_2_pointwise/weights", "shape": [1, 1, 48, 96], "dtype": "float32"}, {"name": "mb/MobilenetV1/Conv2d_2_pointwise/Conv2D_bn_offset", "shape": [96], "dtype": "float32"}, {"name": "mb/MobilenetV1/Conv2d_3_pointwise/weights", "shape": [1, 1, 96, 96], "dtype": "float32"}, {"name": "mb/MobilenetV1/Conv2d_3_pointwise/Conv2D_bn_offset", "shape": [96], "dtype": "float32"}, {"name": "mb/MobilenetV1/Conv2d_4_pointwise/weights", "shape": [1, 1, 96, 192], "dtype": "float32"}, {"name": "mb/MobilenetV1/Conv2d_4_pointwise/Conv2D_bn_offset", "shape": [192], "dtype": "float32"}, {"name": "mb/MobilenetV1/Conv2d_5_pointwise/weights", "shape": [1, 1, 192, 192], "dtype": "float32"}, {"name": "mb/MobilenetV1/Conv2d_5_pointwise/Conv2D_bn_offset", "shape": [192], "dtype": "float32"}, {"name": "mb/MobilenetV1/Conv2d_6_pointwise/weights", "shape": [1, 1, 192, 384], "dtype": "float32"}, {"name": "mb/MobilenetV1/Conv2d_6_pointwise/Conv2D_bn_offset", "shape": [384], "dtype": "float32"}, {"name": "mb/MobilenetV1/Conv2d_7_pointwise/weights", "shape": [1, 1, 384, 384], "dtype": "float32"}, {"name": "mb/MobilenetV1/Conv2d_7_pointwise/Conv2D_bn_offset", "shape": [384], "dtype": "float32"}, {"name": "mb/MobilenetV1/Conv2d_8_pointwise/weights", "shape": [1, 1, 384, 384], "dtype": "float32"}, {"name": "mb/MobilenetV1/Conv2d_8_pointwise/Conv2D_bn_offset", "shape": [384], "dtype": "float32"}, {"name": "mb/MobilenetV1/Conv2d_9_pointwise/weights", "shape": [1, 1, 384, 384], "dtype": "float32"}, {"name": "mb/MobilenetV1/Conv2d_9_pointwise/Conv2D_bn_offset", "shape": [384], "dtype": "float32"}, {"name": "mb/MobilenetV1/Conv2d_10_pointwise/weights", "shape": [1, 1, 384, 384], "dtype": "float32"}, {"name": "mb/MobilenetV1/Conv2d_10_pointwise/Conv2D_bn_offset", "shape": [384], "dtype": "float32"}, {"name": "mb/MobilenetV1/Conv2d_11_pointwise/weights", "shape": [1, 1, 384, 384], "dtype": "float32"}, {"name": "mb/MobilenetV1/Conv2d_11_pointwise/Conv2D_bn_offset", "shape": [384], "dtype": "float32"}, {"name": "mb/Openpose/MConv_Stage1_L1_1_pointwise/weights", "shape": [1, 1, 864, 64], "dtype": "float32"}, {"name": "mb/Openpose/MConv_Stage1_L1_1_pointwise/Conv2D_bn_offset", "shape": [64], "dtype": "float32"}, {"name": "mb/Openpose/MConv_Stage1_L2_1_pointwise/weights", "shape": [1, 1, 864, 64], "dtype": "float32"}, {"name": "mb/Openpose/MConv_Stage1_L2_1_pointwise/Conv2D_bn_offset", "shape": [64], "dtype": "float32"}, {"name": "mb/Openpose/MConv_Stage1_L1_2_pointwise/weights", "shape": [1, 1, 64, 64], "dtype": "float32"}, {"name": "mb/Openpose/MConv_Stage1_L1_2_pointwise/Conv2D_bn_offset", "shape": [64], "dtype": "float32"}, {"name": "mb/Openpose/MConv_Stage1_L2_2_pointwise/weights", "shape": [1, 1, 64, 64], "dtype": "float32"}, {"name": "mb/Openpose/MConv_Stage1_L2_2_pointwise/Conv2D_bn_offset", "shape": [64], "dtype": "float32"}, {"name": "mb/Openpose/MConv_Stage1_L1_3_pointwise/weights", "shape": [1, 1, 64, 64], "dtype": "float32"}, {"name": "mb/Openpose/MConv_Stage1_L1_3_pointwise/Conv2D_bn_offset", "shape": [64], "dtype": "float32"}, {"name": "mb/Openpose/MConv_Stage1_L2_3_pointwise/weights", "shape": [1, 1, 64, 64], "dtype": "float32"}, {"name": "mb/Openpose/MConv_Stage1_L2_3_pointwise/Conv2D_bn_offset", "shape": [64], "dtype": "float32"}, {"name": "mb/Openpose/MConv_Stage1_L1_4_pointwise/weights", "shape": [1, 1, 64, 256], "dtype": "float32"}, {"name": "mb/Openpose/MConv_Stage1_L1_4_pointwise/Conv2D_bn_offset", "shape": [256], "dtype": "float32"}, {"name": "mb/Openpose/MConv_Stage1_L2_4_pointwise/weights", "shape": [1, 1, 64, 256], "dtype": "float32"}, {"name": "mb/Openpose/MConv_Stage1_L2_4_pointwise/Conv2D_bn_offset", "shape": [256], "dtype": "float32"}, {"name": "mb/Openpose/MConv_Stage1_L1_5_pointwise/weights", "shape": [1, 1, 256, 38], "dtype": "float32"}, {"name": "mb/Openpose/MConv_Stage1_L1_5_pointwise/Conv2D_bn_offset", "shape": [38], "dtype": "float32"}, {"name": "mb/Openpose/MConv_Stage1_L2_5_pointwise/weights", "shape": [1, 1, 256, 22], "dtype": "float32"}, {"name": "mb/Openpose/MConv_Stage1_L2_5_pointwise/Conv2D_bn_offset", "shape": [22], "dtype": "float32"}, {"name": "mb/Openpose/MConv_Stage2_L1_1_pointwise/weights", "shape": [1, 1, 924, 64], "dtype": "float32"}, {"name": "mb/Openpose/MConv_Stage2_L1_1_pointwise/Conv2D_bn_offset", "shape": [64], "dtype": "float32"}, {"name": "mb/Openpose/MConv_Stage2_L2_1_pointwise/weights", "shape": [1, 1, 924, 64], "dtype": "float32"}, {"name": "mb/Openpose/MConv_Stage2_L2_1_pointwise/Conv2D_bn_offset", "shape": [64], "dtype": "float32"}, {"name": "mb/Openpose/MConv_Stage2_L1_2_pointwise/weights", "shape": [1, 1, 64, 64], "dtype": "float32"}, {"name": "mb/Openpose/MConv_Stage2_L1_2_pointwise/Conv2D_bn_offset", "shape": [64], "dtype": "float32"}, {"name": "mb/Openpose/MConv_Stage2_L2_2_pointwise/weights", "shape": [1, 1, 64, 64], "dtype": "float32"}, {"name": "mb/Openpose/MConv_Stage2_L2_2_pointwise/Conv2D_bn_offset", "shape": [64], "dtype": "float32"}, {"name": "mb/Openpose/MConv_Stage2_L1_3_pointwise/weights", "shape": [1, 1, 64, 64], "dtype": "float32"}, {"name": "mb/Openpose/MConv_Stage2_L1_3_pointwise/Conv2D_bn_offset", "shape": [64], "dtype": "float32"}, {"name": "mb/Openpose/MConv_Stage2_L2_3_pointwise/weights", "shape": [1, 1, 64, 64], "dtype": "float32"}, {"name": "mb/Openpose/MConv_Stage2_L2_3_pointwise/Conv2D_bn_offset", "shape": [64], "dtype": "float32"}, {"name": "mb/Openpose/MConv_Stage2_L1_4_pointwise/weights", "shape": [1, 1, 64, 64], "dtype": "float32"}, {"name": "mb/Openpose/MConv_Stage2_L1_4_pointwise/Conv2D_bn_offset", "shape": [64], "dtype": "float32"}, {"name": "mb/Openpose/MConv_Stage2_L2_4_pointwise/weights", "shape": [1, 1, 64, 64], "dtype": "float32"}, {"name": "mb/Openpose/MConv_Stage2_L2_4_pointwise/Conv2D_bn_offset", "shape": [64], "dtype": "float32"}, {"name": "mb/Openpose/MConv_Stage2_L1_5_pointwise/weights", "shape": [1, 1, 64, 38], "dtype": "float32"}, {"name": "mb/Openpose/MConv_Stage2_L1_5_pointwise/Conv2D_bn_offset", "shape": [38], "dtype": "float32"}, {"name": "mb/Openpose/MConv_Stage2_L2_5_pointwise/weights", "shape": [1, 1, 64, 22], "dtype": "float32"}, {"name": "mb/Openpose/MConv_Stage2_L2_5_pointwise/Conv2D_bn_offset", "shape": [22], "dtype": "float32"}, {"name": "mb/Openpose/MConv_Stage3_L1_1_pointwise/weights", "shape": [1, 1, 924, 64], "dtype": "float32"}, {"name": "mb/Openpose/MConv_Stage3_L1_1_pointwise/Conv2D_bn_offset", "shape": [64], "dtype": "float32"}, {"name": "mb/Openpose/MConv_Stage3_L2_1_pointwise/weights", "shape": [1, 1, 924, 64], "dtype": "float32"}, {"name": "mb/Openpose/MConv_Stage3_L2_1_pointwise/Conv2D_bn_offset", "shape": [64], "dtype": "float32"}, {"name": "mb/Openpose/MConv_Stage3_L1_2_pointwise/weights", "shape": [1, 1, 64, 64], "dtype": "float32"}, {"name": "mb/Openpose/MConv_Stage3_L1_2_pointwise/Conv2D_bn_offset", "shape": [64], "dtype": "float32"}, {"name": "mb/Openpose/MConv_Stage3_L2_2_pointwise/weights", "shape": [1, 1, 64, 64], "dtype": "float32"}, {"name": "mb/Openpose/MConv_Stage3_L2_2_pointwise/Conv2D_bn_offset", "shape": [64], "dtype": "float32"}, {"name": "mb/Openpose/MConv_Stage3_L1_3_pointwise/weights", "shape": [1, 1, 64, 64], "dtype": "float32"}, {"name": "mb/Openpose/MConv_Stage3_L1_3_pointwise/Conv2D_bn_offset", "shape": [64], "dtype": "float32"}, {"name": "mb/Openpose/MConv_Stage3_L2_3_pointwise/weights", "shape": [1, 1, 64, 64], "dtype": "float32"}, {"name": "mb/Openpose/MConv_Stage3_L2_3_pointwise/Conv2D_bn_offset", "shape": [64], "dtype": "float32"}, {"name": "mb/Openpose/MConv_Stage3_L1_4_pointwise/weights", "shape": [1, 1, 64, 64], "dtype": "float32"}, {"name": "mb/Openpose/MConv_Stage3_L1_4_pointwise/Conv2D_bn_offset", "shape": [64], "dtype": "float32"}, {"name": "mb/Openpose/MConv_Stage3_L2_4_pointwise/weights", "shape": [1, 1, 64, 64], "dtype": "float32"}, {"name": "mb/Openpose/MConv_Stage3_L2_4_pointwise/Conv2D_bn_offset", "shape": [64], "dtype": "float32"}, {"name": "mb/Openpose/MConv_Stage3_L1_5_pointwise/weights", "shape": [1, 1, 64, 38], "dtype": "float32"}, {"name": "mb/Openpose/MConv_Stage3_L1_5_pointwise/Conv2D_bn_offset", "shape": [38], "dtype": "float32"}, {"name": "mb/Openpose/MConv_Stage3_L2_5_pointwise/weights", "shape": [1, 1, 64, 22], "dtype": "float32"}, {"name": "mb/Openpose/MConv_Stage3_L2_5_pointwise/Conv2D_bn_offset", "shape": [22], "dtype": "float32"}, {"name": "mb/Openpose/MConv_Stage4_L1_1_pointwise/weights", "shape": [1, 1, 924, 64], "dtype": "float32"}, {"name": "mb/Openpose/MConv_Stage4_L1_1_pointwise/Conv2D_bn_offset", "shape": [64], "dtype": "float32"}, {"name": "mb/Openpose/MConv_Stage4_L2_1_pointwise/weights", "shape": [1, 1, 924, 64], "dtype": "float32"}, {"name": "mb/Openpose/MConv_Stage4_L2_1_pointwise/Conv2D_bn_offset", "shape": [64], "dtype": "float32"}, {"name": "mb/Openpose/MConv_Stage4_L1_2_pointwise/weights", "shape": [1, 1, 64, 64], "dtype": "float32"}, {"name": "mb/Openpose/MConv_Stage4_L1_2_pointwise/Conv2D_bn_offset", "shape": [64], "dtype": "float32"}, {"name": "mb/Openpose/MConv_Stage4_L2_2_pointwise/weights", "shape": [1, 1, 64, 64], "dtype": "float32"}, {"name": "mb/Openpose/MConv_Stage4_L2_2_pointwise/Conv2D_bn_offset", "shape": [64], "dtype": "float32"}, {"name": "mb/Openpose/MConv_Stage4_L1_3_pointwise/weights", "shape": [1, 1, 64, 64], "dtype": "float32"}, {"name": "mb/Openpose/MConv_Stage4_L1_3_pointwise/Conv2D_bn_offset", "shape": [64], "dtype": "float32"}, {"name": "mb/Openpose/MConv_Stage4_L2_3_pointwise/weights", "shape": [1, 1, 64, 64], "dtype": "float32"}, {"name": "mb/Openpose/MConv_Stage4_L2_3_pointwise/Conv2D_bn_offset", "shape": [64], "dtype": "float32"}, {"name": "mb/Openpose/MConv_Stage4_L1_4_pointwise/weights", "shape": [1, 1, 64, 64], "dtype": "float32"}, {"name": "mb/Openpose/MConv_Stage4_L1_4_pointwise/Conv2D_bn_offset", "shape": [64], "dtype": "float32"}, {"name": "mb/Openpose/MConv_Stage4_L2_4_pointwise/weights", "shape": [1, 1, 64, 64], "dtype": "float32"}, {"name": "mb/Openpose/MConv_Stage4_L2_4_pointwise/Conv2D_bn_offset", "shape": [64], "dtype": "float32"}, {"name": "mb/Openpose/MConv_Stage4_L1_5_pointwise/weights", "shape": [1, 1, 64, 38], "dtype": "float32"}, {"name": "mb/Openpose/MConv_Stage4_L1_5_pointwise/Conv2D_bn_offset", "shape": [38], "dtype": "float32"}, {"name": "mb/Openpose/MConv_Stage4_L2_5_pointwise/weights", "shape": [1, 1, 64, 22], "dtype": "float32"}, {"name": "mb/Openpose/MConv_Stage4_L2_5_pointwise/Conv2D_bn_offset", "shape": [22], "dtype": "float32"}, {"name": "mb/Openpose/MConv_Stage5_L1_1_pointwise/weights", "shape": [1, 1, 924, 64], "dtype": "float32"}, {"name": "mb/Openpose/MConv_Stage5_L1_1_pointwise/Conv2D_bn_offset", "shape": [64], "dtype": "float32"}, {"name": "mb/Openpose/MConv_Stage5_L2_1_pointwise/weights", "shape": [1, 1, 924, 64], "dtype": "float32"}, {"name": "mb/Openpose/MConv_Stage5_L2_1_pointwise/Conv2D_bn_offset", "shape": [64], "dtype": "float32"}, {"name": "mb/Openpose/MConv_Stage5_L1_2_pointwise/weights", "shape": [1, 1, 64, 64], "dtype": "float32"}, {"name": "mb/Openpose/MConv_Stage5_L1_2_pointwise/Conv2D_bn_offset", "shape": [64], "dtype": "float32"}, {"name": "mb/Openpose/MConv_Stage5_L2_2_pointwise/weights", "shape": [1, 1, 64, 64], "dtype": "float32"}, {"name": "mb/Openpose/MConv_Stage5_L2_2_pointwise/Conv2D_bn_offset", "shape": [64], "dtype": "float32"}, {"name": "mb/Openpose/MConv_Stage5_L1_3_pointwise/weights", "shape": [1, 1, 64, 64], "dtype": "float32"}, {"name": "mb/Openpose/MConv_Stage5_L1_3_pointwise/Conv2D_bn_offset", "shape": [64], "dtype": "float32"}, {"name": "mb/Openpose/MConv_Stage5_L2_3_pointwise/weights", "shape": [1, 1, 64, 64], "dtype": "float32"}, {"name": "mb/Openpose/MConv_Stage5_L2_3_pointwise/Conv2D_bn_offset", "shape": [64], "dtype": "float32"}, {"name": "mb/Openpose/MConv_Stage5_L1_4_pointwise/weights", "shape": [1, 1, 64, 64], "dtype": "float32"}, {"name": "mb/Openpose/MConv_Stage5_L1_4_pointwise/Conv2D_bn_offset", "shape": [64], "dtype": "float32"}, {"name": "mb/Openpose/MConv_Stage5_L2_4_pointwise/weights", "shape": [1, 1, 64, 64], "dtype": "float32"}, {"name": "mb/Openpose/MConv_Stage5_L2_4_pointwise/Conv2D_bn_offset", "shape": [64], "dtype": "float32"}, {"name": "mb/Openpose/MConv_Stage5_L1_5_pointwise/weights", "shape": [1, 1, 64, 38], "dtype": "float32"}, {"name": "mb/Openpose/MConv_Stage5_L1_5_pointwise/Conv2D_bn_offset", "shape": [38], "dtype": "float32"}, {"name": "mb/Openpose/MConv_Stage5_L2_5_pointwise/weights", "shape": [1, 1, 64, 22], "dtype": "float32"}, {"name": "mb/Openpose/MConv_Stage5_L2_5_pointwise/Conv2D_bn_offset", "shape": [22], "dtype": "float32"}, {"name": "mb/Openpose/MConv_Stage6_L2_1_pointwise/weights", "shape": [1, 1, 924, 64], "dtype": "float32"}, {"name": "mb/Openpose/MConv_Stage6_L2_1_pointwise/Conv2D_bn_offset", "shape": [64], "dtype": "float32"}, {"name": "mb/Openpose/MConv_Stage6_L1_1_pointwise/weights", "shape": [1, 1, 924, 64], "dtype": "float32"}, {"name": "mb/Openpose/MConv_Stage6_L1_1_pointwise/Conv2D_bn_offset", "shape": [64], "dtype": "float32"}, {"name": "mb/Openpose/MConv_Stage6_L2_2_pointwise/weights", "shape": [1, 1, 64, 64], "dtype": "float32"}, {"name": "mb/Openpose/MConv_Stage6_L2_2_pointwise/Conv2D_bn_offset", "shape": [64], "dtype": "float32"}, {"name": "mb/Openpose/MConv_Stage6_L1_2_pointwise/weights", "shape": [1, 1, 64, 64], "dtype": "float32"}, {"name": "mb/Openpose/MConv_Stage6_L1_2_pointwise/Conv2D_bn_offset", "shape": [64], "dtype": "float32"}, {"name": "mb/Openpose/MConv_Stage6_L2_3_pointwise/weights", "shape": [1, 1, 64, 64], "dtype": "float32"}, {"name": "mb/Openpose/MConv_Stage6_L2_3_pointwise/Conv2D_bn_offset", "shape": [64], "dtype": "float32"}, {"name": "mb/Openpose/MConv_Stage6_L1_3_pointwise/weights", "shape": [1, 1, 64, 64], "dtype": "float32"}, {"name": "mb/Openpose/MConv_Stage6_L1_3_pointwise/Conv2D_bn_offset", "shape": [64], "dtype": "float32"}, {"name": "mb/Openpose/MConv_Stage6_L2_4_pointwise/weights", "shape": [1, 1, 64, 64], "dtype": "float32"}, {"name": "mb/Openpose/MConv_Stage6_L2_4_pointwise/Conv2D_bn_offset", "shape": [64], "dtype": "float32"}, {"name": "mb/Openpose/MConv_Stage6_L1_4_pointwise/weights", "shape": [1, 1, 64, 64], "dtype": "float32"}, {"name": "mb/Openpose/MConv_Stage6_L1_4_pointwise/Conv2D_bn_offset", "shape": [64], "dtype": "float32"}, {"name": "mb/Openpose/MConv_Stage6_L2_5_pointwise/weights", "shape": [1, 1, 64, 22], "dtype": "float32"}, {"name": "mb/Openpose/MConv_Stage6_L2_5_pointwise/Conv2D_bn_offset", "shape": [22], "dtype": "float32"}, {"name": "mb/Openpose/MConv_Stage6_L1_5_pointwise/weights", "shape": [1, 1, 64, 38], "dtype": "float32"}, {"name": "mb/Openpose/MConv_Stage6_L1_5_pointwise/Conv2D_bn_offset", "shape": [38], "dtype": "float32"}]}]}