{"format": "layers-model", "generatedBy": "keras v2.2.5", "convertedBy": "TensorFlow.js Converter v1.1.2", "modelTopology": {"keras_version": "2.2.5", "backend": "tensorflow", "model_config": {"class_name": "Model", "config": {"name": "model_1", "layers": [{"name": "image", "class_name": "InputLayer", "config": {"batch_input_shape": [null, 368, 368, 3], "dtype": "float32", "sparse": false, "name": "image"}, "inbound_nodes": []}, {"name": "MobilenetV1/Conv2d_0", "class_name": "Conv2D", "config": {"name": "MobilenetV1/Conv2d_0", "trainable": true, "dtype": "float32", "filters": 24, "kernel_size": [3, 3], "strides": [2, 2], "padding": "same", "data_format": "channels_last", "dilation_rate": [1, 1], "activation": "relu", "use_bias": false, "kernel_initializer": {"class_name": "VarianceScaling", "config": {"scale": 1.0, "mode": "fan_avg", "distribution": "uniform", "seed": null}}, "bias_initializer": {"class_name": "Zeros", "config": {}}, "kernel_regularizer": {"class_name": "L1L2", "config": {"l1": 0.0, "l2": 3.9999998989515007e-05}}, "bias_regularizer": null, "activity_regularizer": null, "kernel_constraint": null, "bias_constraint": null}, "inbound_nodes": [[["image", 0, 0, {}]]]}, {"name": "MobilenetV1/Conv2d_0BatchNorm", "class_name": "BatchNormalization", "config": {"name": "MobilenetV1/Conv2d_0BatchNorm", "trainable": true, "dtype": "float32", "axis": -1, "momentum": 0.999, "epsilon": 0.001, "center": true, "scale": false, "beta_initializer": {"class_name": "Zeros", "config": {}}, "gamma_initializer": {"class_name": "Ones", "config": {}}, "moving_mean_initializer": {"class_name": "Zeros", "config": {}}, "moving_variance_initializer": {"class_name": "Ones", "config": {}}, "beta_regularizer": null, "gamma_regularizer": null, "beta_constraint": null, "gamma_constraint": null}, "inbound_nodes": [[["MobilenetV1/Conv2d_0", 0, 0, {}]]]}, {"name": "MobilenetV1/Conv2d_1_depthwise", "class_name": "DepthwiseConv2D", "config": {"name": "MobilenetV1/Conv2d_1_depthwise", "trainable": true, "dtype": "float32", "kernel_size": [3, 3], "strides": [1, 1], "padding": "same", "data_format": "channels_last", "dilation_rate": [1, 1], "activation": "linear", "use_bias": false, "bias_initializer": {"class_name": "Zeros", "config": {}}, "bias_regularizer": null, "activity_regularizer": null, "bias_constraint": null, "depth_multiplier": 1, "depthwise_initializer": {"class_name": "VarianceScaling", "config": {"scale": 1.0, "mode": "fan_avg", "distribution": "uniform", "seed": null}}, "depthwise_regularizer": {"class_name": "L1L2", "config": {"l1": 0.0, "l2": 3.9999998989515007e-05}}, "depthwise_constraint": null}, "inbound_nodes": [[["MobilenetV1/Conv2d_0BatchNorm", 0, 0, {}]]]}, {"name": "MobilenetV1/Conv2d_1_pointwise", "class_name": "Conv2D", "config": {"name": "MobilenetV1/Conv2d_1_pointwise", "trainable": true, "dtype": "float32", "filters": 48, "kernel_size": [1, 1], "strides": [1, 1], "padding": "same", "data_format": "channels_last", "dilation_rate": [1, 1], "activation": "relu", "use_bias": false, "kernel_initializer": {"class_name": "VarianceScaling", "config": {"scale": 1.0, "mode": "fan_avg", "distribution": "uniform", "seed": null}}, "bias_initializer": {"class_name": "Zeros", "config": {}}, "kernel_regularizer": {"class_name": "L1L2", "config": {"l1": 0.0, "l2": 3.9999998989515007e-05}}, "bias_regularizer": null, "activity_regularizer": null, "kernel_constraint": null, "bias_constraint": null}, "inbound_nodes": [[["MobilenetV1/Conv2d_1_depthwise", 0, 0, {}]]]}, {"name": "MobilenetV1/Conv2d_1BatchNorm", "class_name": "BatchNormalization", "config": {"name": "MobilenetV1/Conv2d_1BatchNorm", "trainable": true, "dtype": "float32", "axis": -1, "momentum": 0.999, "epsilon": 0.001, "center": true, "scale": false, "beta_initializer": {"class_name": "Zeros", "config": {}}, "gamma_initializer": {"class_name": "Ones", "config": {}}, "moving_mean_initializer": {"class_name": "Zeros", "config": {}}, "moving_variance_initializer": {"class_name": "Ones", "config": {}}, "beta_regularizer": null, "gamma_regularizer": null, "beta_constraint": null, "gamma_constraint": null}, "inbound_nodes": [[["MobilenetV1/Conv2d_1_pointwise", 0, 0, {}]]]}, {"name": "MobilenetV1/Conv2d_2_depthwise", "class_name": "DepthwiseConv2D", "config": {"name": "MobilenetV1/Conv2d_2_depthwise", "trainable": true, "dtype": "float32", "kernel_size": [3, 3], "strides": [2, 2], "padding": "same", "data_format": "channels_last", "dilation_rate": [1, 1], "activation": "linear", "use_bias": false, "bias_initializer": {"class_name": "Zeros", "config": {}}, "bias_regularizer": null, "activity_regularizer": null, "bias_constraint": null, "depth_multiplier": 1, "depthwise_initializer": {"class_name": "VarianceScaling", "config": {"scale": 1.0, "mode": "fan_avg", "distribution": "uniform", "seed": null}}, "depthwise_regularizer": {"class_name": "L1L2", "config": {"l1": 0.0, "l2": 3.9999998989515007e-05}}, "depthwise_constraint": null}, "inbound_nodes": [[["MobilenetV1/Conv2d_1BatchNorm", 0, 0, {}]]]}, {"name": "MobilenetV1/Conv2d_2_pointwise", "class_name": "Conv2D", "config": {"name": "MobilenetV1/Conv2d_2_pointwise", "trainable": true, "dtype": "float32", "filters": 96, "kernel_size": [1, 1], "strides": [1, 1], "padding": "same", "data_format": "channels_last", "dilation_rate": [1, 1], "activation": "relu", "use_bias": false, "kernel_initializer": {"class_name": "VarianceScaling", "config": {"scale": 1.0, "mode": "fan_avg", "distribution": "uniform", "seed": null}}, "bias_initializer": {"class_name": "Zeros", "config": {}}, "kernel_regularizer": {"class_name": "L1L2", "config": {"l1": 0.0, "l2": 3.9999998989515007e-05}}, "bias_regularizer": null, "activity_regularizer": null, "kernel_constraint": null, "bias_constraint": null}, "inbound_nodes": [[["MobilenetV1/Conv2d_2_depthwise", 0, 0, {}]]]}, {"name": "MobilenetV1/Conv2d_2BatchNorm", "class_name": "BatchNormalization", "config": {"name": "MobilenetV1/Conv2d_2BatchNorm", "trainable": true, "dtype": "float32", "axis": -1, "momentum": 0.999, "epsilon": 0.001, "center": true, "scale": false, "beta_initializer": {"class_name": "Zeros", "config": {}}, "gamma_initializer": {"class_name": "Ones", "config": {}}, "moving_mean_initializer": {"class_name": "Zeros", "config": {}}, "moving_variance_initializer": {"class_name": "Ones", "config": {}}, "beta_regularizer": null, "gamma_regularizer": null, "beta_constraint": null, "gamma_constraint": null}, "inbound_nodes": [[["MobilenetV1/Conv2d_2_pointwise", 0, 0, {}]]]}, {"name": "MobilenetV1/Conv2d_3_depthwise", "class_name": "DepthwiseConv2D", "config": {"name": "MobilenetV1/Conv2d_3_depthwise", "trainable": true, "dtype": "float32", "kernel_size": [3, 3], "strides": [1, 1], "padding": "same", "data_format": "channels_last", "dilation_rate": [1, 1], "activation": "linear", "use_bias": false, "bias_initializer": {"class_name": "Zeros", "config": {}}, "bias_regularizer": null, "activity_regularizer": null, "bias_constraint": null, "depth_multiplier": 1, "depthwise_initializer": {"class_name": "VarianceScaling", "config": {"scale": 1.0, "mode": "fan_avg", "distribution": "uniform", "seed": null}}, "depthwise_regularizer": {"class_name": "L1L2", "config": {"l1": 0.0, "l2": 3.9999998989515007e-05}}, "depthwise_constraint": null}, "inbound_nodes": [[["MobilenetV1/Conv2d_2BatchNorm", 0, 0, {}]]]}, {"name": "MobilenetV1/Conv2d_3_pointwise", "class_name": "Conv2D", "config": {"name": "MobilenetV1/Conv2d_3_pointwise", "trainable": true, "dtype": "float32", "filters": 96, "kernel_size": [1, 1], "strides": [1, 1], "padding": "same", "data_format": "channels_last", "dilation_rate": [1, 1], "activation": "relu", "use_bias": false, "kernel_initializer": {"class_name": "VarianceScaling", "config": {"scale": 1.0, "mode": "fan_avg", "distribution": "uniform", "seed": null}}, "bias_initializer": {"class_name": "Zeros", "config": {}}, "kernel_regularizer": {"class_name": "L1L2", "config": {"l1": 0.0, "l2": 3.9999998989515007e-05}}, "bias_regularizer": null, "activity_regularizer": null, "kernel_constraint": null, "bias_constraint": null}, "inbound_nodes": [[["MobilenetV1/Conv2d_3_depthwise", 0, 0, {}]]]}, {"name": "MobilenetV1/Conv2d_3BatchNorm", "class_name": "BatchNormalization", "config": {"name": "MobilenetV1/Conv2d_3BatchNorm", "trainable": true, "dtype": "float32", "axis": -1, "momentum": 0.999, "epsilon": 0.001, "center": true, "scale": false, "beta_initializer": {"class_name": "Zeros", "config": {}}, "gamma_initializer": {"class_name": "Ones", "config": {}}, "moving_mean_initializer": {"class_name": "Zeros", "config": {}}, "moving_variance_initializer": {"class_name": "Ones", "config": {}}, "beta_regularizer": null, "gamma_regularizer": null, "beta_constraint": null, "gamma_constraint": null}, "inbound_nodes": [[["MobilenetV1/Conv2d_3_pointwise", 0, 0, {}]]]}, {"name": "MobilenetV1/Conv2d_4_depthwise", "class_name": "DepthwiseConv2D", "config": {"name": "MobilenetV1/Conv2d_4_depthwise", "trainable": true, "dtype": "float32", "kernel_size": [3, 3], "strides": [2, 2], "padding": "same", "data_format": "channels_last", "dilation_rate": [1, 1], "activation": "linear", "use_bias": false, "bias_initializer": {"class_name": "Zeros", "config": {}}, "bias_regularizer": null, "activity_regularizer": null, "bias_constraint": null, "depth_multiplier": 1, "depthwise_initializer": {"class_name": "VarianceScaling", "config": {"scale": 1.0, "mode": "fan_avg", "distribution": "uniform", "seed": null}}, "depthwise_regularizer": {"class_name": "L1L2", "config": {"l1": 0.0, "l2": 3.9999998989515007e-05}}, "depthwise_constraint": null}, "inbound_nodes": [[["MobilenetV1/Conv2d_3BatchNorm", 0, 0, {}]]]}, {"name": "MobilenetV1/Conv2d_4_pointwise", "class_name": "Conv2D", "config": {"name": "MobilenetV1/Conv2d_4_pointwise", "trainable": true, "dtype": "float32", "filters": 192, "kernel_size": [1, 1], "strides": [1, 1], "padding": "same", "data_format": "channels_last", "dilation_rate": [1, 1], "activation": "relu", "use_bias": false, "kernel_initializer": {"class_name": "VarianceScaling", "config": {"scale": 1.0, "mode": "fan_avg", "distribution": "uniform", "seed": null}}, "bias_initializer": {"class_name": "Zeros", "config": {}}, "kernel_regularizer": {"class_name": "L1L2", "config": {"l1": 0.0, "l2": 3.9999998989515007e-05}}, "bias_regularizer": null, "activity_regularizer": null, "kernel_constraint": null, "bias_constraint": null}, "inbound_nodes": [[["MobilenetV1/Conv2d_4_depthwise", 0, 0, {}]]]}, {"name": "MobilenetV1/Conv2d_4BatchNorm", "class_name": "BatchNormalization", "config": {"name": "MobilenetV1/Conv2d_4BatchNorm", "trainable": true, "dtype": "float32", "axis": -1, "momentum": 0.999, "epsilon": 0.001, "center": true, "scale": false, "beta_initializer": {"class_name": "Zeros", "config": {}}, "gamma_initializer": {"class_name": "Ones", "config": {}}, "moving_mean_initializer": {"class_name": "Zeros", "config": {}}, "moving_variance_initializer": {"class_name": "Ones", "config": {}}, "beta_regularizer": null, "gamma_regularizer": null, "beta_constraint": null, "gamma_constraint": null}, "inbound_nodes": [[["MobilenetV1/Conv2d_4_pointwise", 0, 0, {}]]]}, {"name": "MobilenetV1/Conv2d_5_depthwise", "class_name": "DepthwiseConv2D", "config": {"name": "MobilenetV1/Conv2d_5_depthwise", "trainable": true, "dtype": "float32", "kernel_size": [3, 3], "strides": [1, 1], "padding": "same", "data_format": "channels_last", "dilation_rate": [1, 1], "activation": "linear", "use_bias": false, "bias_initializer": {"class_name": "Zeros", "config": {}}, "bias_regularizer": null, "activity_regularizer": null, "bias_constraint": null, "depth_multiplier": 1, "depthwise_initializer": {"class_name": "VarianceScaling", "config": {"scale": 1.0, "mode": "fan_avg", "distribution": "uniform", "seed": null}}, "depthwise_regularizer": {"class_name": "L1L2", "config": {"l1": 0.0, "l2": 3.9999998989515007e-05}}, "depthwise_constraint": null}, "inbound_nodes": [[["MobilenetV1/Conv2d_4BatchNorm", 0, 0, {}]]]}, {"name": "MobilenetV1/Conv2d_5_pointwise", "class_name": "Conv2D", "config": {"name": "MobilenetV1/Conv2d_5_pointwise", "trainable": true, "dtype": "float32", "filters": 192, "kernel_size": [1, 1], "strides": [1, 1], "padding": "same", "data_format": "channels_last", "dilation_rate": [1, 1], "activation": "relu", "use_bias": false, "kernel_initializer": {"class_name": "VarianceScaling", "config": {"scale": 1.0, "mode": "fan_avg", "distribution": "uniform", "seed": null}}, "bias_initializer": {"class_name": "Zeros", "config": {}}, "kernel_regularizer": {"class_name": "L1L2", "config": {"l1": 0.0, "l2": 3.9999998989515007e-05}}, "bias_regularizer": null, "activity_regularizer": null, "kernel_constraint": null, "bias_constraint": null}, "inbound_nodes": [[["MobilenetV1/Conv2d_5_depthwise", 0, 0, {}]]]}, {"name": "MobilenetV1/Conv2d_5BatchNorm", "class_name": "BatchNormalization", "config": {"name": "MobilenetV1/Conv2d_5BatchNorm", "trainable": true, "dtype": "float32", "axis": -1, "momentum": 0.999, "epsilon": 0.001, "center": true, "scale": false, "beta_initializer": {"class_name": "Zeros", "config": {}}, "gamma_initializer": {"class_name": "Ones", "config": {}}, "moving_mean_initializer": {"class_name": "Zeros", "config": {}}, "moving_variance_initializer": {"class_name": "Ones", "config": {}}, "beta_regularizer": null, "gamma_regularizer": null, "beta_constraint": null, "gamma_constraint": null}, "inbound_nodes": [[["MobilenetV1/Conv2d_5_pointwise", 0, 0, {}]]]}, {"name": "MobilenetV1/Conv2d_6_depthwise", "class_name": "DepthwiseConv2D", "config": {"name": "MobilenetV1/Conv2d_6_depthwise", "trainable": true, "dtype": "float32", "kernel_size": [3, 3], "strides": [1, 1], "padding": "same", "data_format": "channels_last", "dilation_rate": [1, 1], "activation": "linear", "use_bias": false, "bias_initializer": {"class_name": "Zeros", "config": {}}, "bias_regularizer": null, "activity_regularizer": null, "bias_constraint": null, "depth_multiplier": 1, "depthwise_initializer": {"class_name": "VarianceScaling", "config": {"scale": 1.0, "mode": "fan_avg", "distribution": "uniform", "seed": null}}, "depthwise_regularizer": {"class_name": "L1L2", "config": {"l1": 0.0, "l2": 3.9999998989515007e-05}}, "depthwise_constraint": null}, "inbound_nodes": [[["MobilenetV1/Conv2d_5BatchNorm", 0, 0, {}]]]}, {"name": "MobilenetV1/Conv2d_6_pointwise", "class_name": "Conv2D", "config": {"name": "MobilenetV1/Conv2d_6_pointwise", "trainable": true, "dtype": "float32", "filters": 384, "kernel_size": [1, 1], "strides": [1, 1], "padding": "same", "data_format": "channels_last", "dilation_rate": [1, 1], "activation": "relu", "use_bias": false, "kernel_initializer": {"class_name": "VarianceScaling", "config": {"scale": 1.0, "mode": "fan_avg", "distribution": "uniform", "seed": null}}, "bias_initializer": {"class_name": "Zeros", "config": {}}, "kernel_regularizer": {"class_name": "L1L2", "config": {"l1": 0.0, "l2": 3.9999998989515007e-05}}, "bias_regularizer": null, "activity_regularizer": null, "kernel_constraint": null, "bias_constraint": null}, "inbound_nodes": [[["MobilenetV1/Conv2d_6_depthwise", 0, 0, {}]]]}, {"name": "MobilenetV1/Conv2d_6BatchNorm", "class_name": "BatchNormalization", "config": {"name": "MobilenetV1/Conv2d_6BatchNorm", "trainable": true, "dtype": "float32", "axis": -1, "momentum": 0.999, "epsilon": 0.001, "center": true, "scale": false, "beta_initializer": {"class_name": "Zeros", "config": {}}, "gamma_initializer": {"class_name": "Ones", "config": {}}, "moving_mean_initializer": {"class_name": "Zeros", "config": {}}, "moving_variance_initializer": {"class_name": "Ones", "config": {}}, "beta_regularizer": null, "gamma_regularizer": null, "beta_constraint": null, "gamma_constraint": null}, "inbound_nodes": [[["MobilenetV1/Conv2d_6_pointwise", 0, 0, {}]]]}, {"name": "MobilenetV1/Conv2d_8_depthwise", "class_name": "DepthwiseConv2D", "config": {"name": "MobilenetV1/Conv2d_8_depthwise", "trainable": true, "dtype": "float32", "kernel_size": [3, 3], "strides": [1, 1], "padding": "same", "data_format": "channels_last", "dilation_rate": [1, 1], "activation": "linear", "use_bias": false, "bias_initializer": {"class_name": "Zeros", "config": {}}, "bias_regularizer": null, "activity_regularizer": null, "bias_constraint": null, "depth_multiplier": 1, "depthwise_initializer": {"class_name": "VarianceScaling", "config": {"scale": 1.0, "mode": "fan_avg", "distribution": "uniform", "seed": null}}, "depthwise_regularizer": {"class_name": "L1L2", "config": {"l1": 0.0, "l2": 3.9999998989515007e-05}}, "depthwise_constraint": null}, "inbound_nodes": [[["MobilenetV1/Conv2d_6BatchNorm", 0, 0, {}]]]}, {"name": "MobilenetV1/Conv2d_8_pointwise", "class_name": "Conv2D", "config": {"name": "MobilenetV1/Conv2d_8_pointwise", "trainable": true, "dtype": "float32", "filters": 384, "kernel_size": [1, 1], "strides": [1, 1], "padding": "same", "data_format": "channels_last", "dilation_rate": [1, 1], "activation": "relu", "use_bias": false, "kernel_initializer": {"class_name": "VarianceScaling", "config": {"scale": 1.0, "mode": "fan_avg", "distribution": "uniform", "seed": null}}, "bias_initializer": {"class_name": "Zeros", "config": {}}, "kernel_regularizer": {"class_name": "L1L2", "config": {"l1": 0.0, "l2": 3.9999998989515007e-05}}, "bias_regularizer": null, "activity_regularizer": null, "kernel_constraint": null, "bias_constraint": null}, "inbound_nodes": [[["MobilenetV1/Conv2d_8_depthwise", 0, 0, {}]]]}, {"name": "MobilenetV1/Conv2d_8BatchNorm", "class_name": "BatchNormalization", "config": {"name": "MobilenetV1/Conv2d_8BatchNorm", "trainable": true, "dtype": "float32", "axis": -1, "momentum": 0.999, "epsilon": 0.001, "center": true, "scale": false, "beta_initializer": {"class_name": "Zeros", "config": {}}, "gamma_initializer": {"class_name": "Ones", "config": {}}, "moving_mean_initializer": {"class_name": "Zeros", "config": {}}, "moving_variance_initializer": {"class_name": "Ones", "config": {}}, "beta_regularizer": null, "gamma_regularizer": null, "beta_constraint": null, "gamma_constraint": null}, "inbound_nodes": [[["MobilenetV1/Conv2d_8_pointwise", 0, 0, {}]]]}, {"name": "MobilenetV1/Conv2d_9_depthwise", "class_name": "DepthwiseConv2D", "config": {"name": "MobilenetV1/Conv2d_9_depthwise", "trainable": true, "dtype": "float32", "kernel_size": [3, 3], "strides": [1, 1], "padding": "same", "data_format": "channels_last", "dilation_rate": [1, 1], "activation": "linear", "use_bias": false, "bias_initializer": {"class_name": "Zeros", "config": {}}, "bias_regularizer": null, "activity_regularizer": null, "bias_constraint": null, "depth_multiplier": 1, "depthwise_initializer": {"class_name": "VarianceScaling", "config": {"scale": 1.0, "mode": "fan_avg", "distribution": "uniform", "seed": null}}, "depthwise_regularizer": {"class_name": "L1L2", "config": {"l1": 0.0, "l2": 3.9999998989515007e-05}}, "depthwise_constraint": null}, "inbound_nodes": [[["MobilenetV1/Conv2d_8BatchNorm", 0, 0, {}]]]}, {"name": "MobilenetV1/Conv2d_9_pointwise", "class_name": "Conv2D", "config": {"name": "MobilenetV1/Conv2d_9_pointwise", "trainable": true, "dtype": "float32", "filters": 384, "kernel_size": [1, 1], "strides": [1, 1], "padding": "same", "data_format": "channels_last", "dilation_rate": [1, 1], "activation": "relu", "use_bias": false, "kernel_initializer": {"class_name": "VarianceScaling", "config": {"scale": 1.0, "mode": "fan_avg", "distribution": "uniform", "seed": null}}, "bias_initializer": {"class_name": "Zeros", "config": {}}, "kernel_regularizer": {"class_name": "L1L2", "config": {"l1": 0.0, "l2": 3.9999998989515007e-05}}, "bias_regularizer": null, "activity_regularizer": null, "kernel_constraint": null, "bias_constraint": null}, "inbound_nodes": [[["MobilenetV1/Conv2d_9_depthwise", 0, 0, {}]]]}, {"name": "MobilenetV1/Conv2d_9BatchNorm", "class_name": "BatchNormalization", "config": {"name": "MobilenetV1/Conv2d_9BatchNorm", "trainable": true, "dtype": "float32", "axis": -1, "momentum": 0.999, "epsilon": 0.001, "center": true, "scale": false, "beta_initializer": {"class_name": "Zeros", "config": {}}, "gamma_initializer": {"class_name": "Ones", "config": {}}, "moving_mean_initializer": {"class_name": "Zeros", "config": {}}, "moving_variance_initializer": {"class_name": "Ones", "config": {}}, "beta_regularizer": null, "gamma_regularizer": null, "beta_constraint": null, "gamma_constraint": null}, "inbound_nodes": [[["MobilenetV1/Conv2d_9_pointwise", 0, 0, {}]]]}, {"name": "MobilenetV1/Conv2d_10_depthwise", "class_name": "DepthwiseConv2D", "config": {"name": "MobilenetV1/Conv2d_10_depthwise", "trainable": true, "dtype": "float32", "kernel_size": [3, 3], "strides": [1, 1], "padding": "same", "data_format": "channels_last", "dilation_rate": [1, 1], "activation": "linear", "use_bias": false, "bias_initializer": {"class_name": "Zeros", "config": {}}, "bias_regularizer": null, "activity_regularizer": null, "bias_constraint": null, "depth_multiplier": 1, "depthwise_initializer": {"class_name": "VarianceScaling", "config": {"scale": 1.0, "mode": "fan_avg", "distribution": "uniform", "seed": null}}, "depthwise_regularizer": {"class_name": "L1L2", "config": {"l1": 0.0, "l2": 3.9999998989515007e-05}}, "depthwise_constraint": null}, "inbound_nodes": [[["MobilenetV1/Conv2d_9BatchNorm", 0, 0, {}]]]}, {"name": "MobilenetV1/Conv2d_10_pointwise", "class_name": "Conv2D", "config": {"name": "MobilenetV1/Conv2d_10_pointwise", "trainable": true, "dtype": "float32", "filters": 384, "kernel_size": [1, 1], "strides": [1, 1], "padding": "same", "data_format": "channels_last", "dilation_rate": [1, 1], "activation": "relu", "use_bias": false, "kernel_initializer": {"class_name": "VarianceScaling", "config": {"scale": 1.0, "mode": "fan_avg", "distribution": "uniform", "seed": null}}, "bias_initializer": {"class_name": "Zeros", "config": {}}, "kernel_regularizer": {"class_name": "L1L2", "config": {"l1": 0.0, "l2": 3.9999998989515007e-05}}, "bias_regularizer": null, "activity_regularizer": null, "kernel_constraint": null, "bias_constraint": null}, "inbound_nodes": [[["MobilenetV1/Conv2d_10_depthwise", 0, 0, {}]]]}, {"name": "MobilenetV1/Conv2d_10BatchNorm", "class_name": "BatchNormalization", "config": {"name": "MobilenetV1/Conv2d_10BatchNorm", "trainable": true, "dtype": "float32", "axis": -1, "momentum": 0.999, "epsilon": 0.001, "center": true, "scale": false, "beta_initializer": {"class_name": "Zeros", "config": {}}, "gamma_initializer": {"class_name": "Ones", "config": {}}, "moving_mean_initializer": {"class_name": "Zeros", "config": {}}, "moving_variance_initializer": {"class_name": "Ones", "config": {}}, "beta_regularizer": null, "gamma_regularizer": null, "beta_constraint": null, "gamma_constraint": null}, "inbound_nodes": [[["MobilenetV1/Conv2d_10_pointwise", 0, 0, {}]]]}, {"name": "MobilenetV1/Conv2d_7_depthwise", "class_name": "DepthwiseConv2D", "config": {"name": "MobilenetV1/Conv2d_7_depthwise", "trainable": true, "dtype": "float32", "kernel_size": [3, 3], "strides": [1, 1], "padding": "same", "data_format": "channels_last", "dilation_rate": [1, 1], "activation": "linear", "use_bias": false, "bias_initializer": {"class_name": "Zeros", "config": {}}, "bias_regularizer": null, "activity_regularizer": null, "bias_constraint": null, "depth_multiplier": 1, "depthwise_initializer": {"class_name": "VarianceScaling", "config": {"scale": 1.0, "mode": "fan_avg", "distribution": "uniform", "seed": null}}, "depthwise_regularizer": {"class_name": "L1L2", "config": {"l1": 0.0, "l2": 3.9999998989515007e-05}}, "depthwise_constraint": null}, "inbound_nodes": [[["MobilenetV1/Conv2d_6BatchNorm", 0, 0, {}]]]}, {"name": "MobilenetV1/Conv2d_11_depthwise", "class_name": "DepthwiseConv2D", "config": {"name": "MobilenetV1/Conv2d_11_depthwise", "trainable": true, "dtype": "float32", "kernel_size": [3, 3], "strides": [1, 1], "padding": "same", "data_format": "channels_last", "dilation_rate": [1, 1], "activation": "linear", "use_bias": false, "bias_initializer": {"class_name": "Zeros", "config": {}}, "bias_regularizer": null, "activity_regularizer": null, "bias_constraint": null, "depth_multiplier": 1, "depthwise_initializer": {"class_name": "VarianceScaling", "config": {"scale": 1.0, "mode": "fan_avg", "distribution": "uniform", "seed": null}}, "depthwise_regularizer": {"class_name": "L1L2", "config": {"l1": 0.0, "l2": 3.9999998989515007e-05}}, "depthwise_constraint": null}, "inbound_nodes": [[["MobilenetV1/Conv2d_10BatchNorm", 0, 0, {}]]]}, {"name": "MobilenetV1/Conv2d_7_pointwise", "class_name": "Conv2D", "config": {"name": "MobilenetV1/Conv2d_7_pointwise", "trainable": true, "dtype": "float32", "filters": 384, "kernel_size": [1, 1], "strides": [1, 1], "padding": "same", "data_format": "channels_last", "dilation_rate": [1, 1], "activation": "relu", "use_bias": false, "kernel_initializer": {"class_name": "VarianceScaling", "config": {"scale": 1.0, "mode": "fan_avg", "distribution": "uniform", "seed": null}}, "bias_initializer": {"class_name": "Zeros", "config": {}}, "kernel_regularizer": {"class_name": "L1L2", "config": {"l1": 0.0, "l2": 3.9999998989515007e-05}}, "bias_regularizer": null, "activity_regularizer": null, "kernel_constraint": null, "bias_constraint": null}, "inbound_nodes": [[["MobilenetV1/Conv2d_7_depthwise", 0, 0, {}]]]}, {"name": "MobilenetV1/Conv2d_11_pointwise", "class_name": "Conv2D", "config": {"name": "MobilenetV1/Conv2d_11_pointwise", "trainable": true, "dtype": "float32", "filters": 384, "kernel_size": [1, 1], "strides": [1, 1], "padding": "same", "data_format": "channels_last", "dilation_rate": [1, 1], "activation": "relu", "use_bias": false, "kernel_initializer": {"class_name": "VarianceScaling", "config": {"scale": 1.0, "mode": "fan_avg", "distribution": "uniform", "seed": null}}, "bias_initializer": {"class_name": "Zeros", "config": {}}, "kernel_regularizer": {"class_name": "L1L2", "config": {"l1": 0.0, "l2": 3.9999998989515007e-05}}, "bias_regularizer": null, "activity_regularizer": null, "kernel_constraint": null, "bias_constraint": null}, "inbound_nodes": [[["MobilenetV1/Conv2d_11_depthwise", 0, 0, {}]]]}, {"name": "Conv2d_3_pool", "class_name": "MaxPooling2D", "config": {"name": "Conv2d_3_pool", "trainable": true, "dtype": "float32", "pool_size": [2, 2], "padding": "same", "strides": [2, 2], "data_format": "channels_last"}, "inbound_nodes": [[["MobilenetV1/Conv2d_3BatchNorm", 0, 0, {}]]]}, {"name": "MobilenetV1/Conv2d_7BatchNorm", "class_name": "BatchNormalization", "config": {"name": "MobilenetV1/Conv2d_7BatchNorm", "trainable": true, "dtype": "float32", "axis": -1, "momentum": 0.999, "epsilon": 0.001, "center": true, "scale": false, "beta_initializer": {"class_name": "Zeros", "config": {}}, "gamma_initializer": {"class_name": "Ones", "config": {}}, "moving_mean_initializer": {"class_name": "Zeros", "config": {}}, "moving_variance_initializer": {"class_name": "Ones", "config": {}}, "beta_regularizer": null, "gamma_regularizer": null, "beta_constraint": null, "gamma_constraint": null}, "inbound_nodes": [[["MobilenetV1/Conv2d_7_pointwise", 0, 0, {}]]]}, {"name": "MobilenetV1/Conv2d_11BatchNorm", "class_name": "BatchNormalization", "config": {"name": "MobilenetV1/Conv2d_11BatchNorm", "trainable": true, "dtype": "float32", "axis": -1, "momentum": 0.999, "epsilon": 0.001, "center": true, "scale": false, "beta_initializer": {"class_name": "Zeros", "config": {}}, "gamma_initializer": {"class_name": "Ones", "config": {}}, "moving_mean_initializer": {"class_name": "Zeros", "config": {}}, "moving_variance_initializer": {"class_name": "Ones", "config": {}}, "beta_regularizer": null, "gamma_regularizer": null, "beta_constraint": null, "gamma_constraint": null}, "inbound_nodes": [[["MobilenetV1/Conv2d_11_pointwise", 0, 0, {}]]]}, {"name": "feat_concat", "class_name": "Concatenate", "config": {"name": "feat_concat", "trainable": true, "dtype": "float32", "axis": 3}, "inbound_nodes": [[["Conv2d_3_pool", 0, 0, {}], ["MobilenetV1/Conv2d_7BatchNorm", 0, 0, {}], ["MobilenetV1/Conv2d_11BatchNorm", 0, 0, {}]]]}, {"name": "Openpose/MConv_Stage1_L1_1_depthwise", "class_name": "DepthwiseConv2D", "config": {"name": "Openpose/MConv_Stage1_L1_1_depthwise", "trainable": true, "dtype": "float32", "kernel_size": [3, 3], "strides": [1, 1], "padding": "same", "data_format": "channels_last", "dilation_rate": [1, 1], "activation": "linear", "use_bias": false, "bias_initializer": {"class_name": "Zeros", "config": {}}, "bias_regularizer": null, "activity_regularizer": null, "bias_constraint": null, "depth_multiplier": 1, "depthwise_initializer": {"class_name": "VarianceScaling", "config": {"scale": 1.0, "mode": "fan_avg", "distribution": "uniform", "seed": null}}, "depthwise_regularizer": {"class_name": "L1L2", "config": {"l1": 0.0, "l2": 3.9999998989515007e-05}}, "depthwise_constraint": null}, "inbound_nodes": [[["feat_concat", 0, 0, {}]]]}, {"name": "Openpose/MConv_Stage1_L2_1_depthwise", "class_name": "DepthwiseConv2D", "config": {"name": "Openpose/MConv_Stage1_L2_1_depthwise", "trainable": true, "dtype": "float32", "kernel_size": [3, 3], "strides": [1, 1], "padding": "same", "data_format": "channels_last", "dilation_rate": [1, 1], "activation": "linear", "use_bias": false, "bias_initializer": {"class_name": "Zeros", "config": {}}, "bias_regularizer": null, "activity_regularizer": null, "bias_constraint": null, "depth_multiplier": 1, "depthwise_initializer": {"class_name": "VarianceScaling", "config": {"scale": 1.0, "mode": "fan_avg", "distribution": "uniform", "seed": null}}, "depthwise_regularizer": {"class_name": "L1L2", "config": {"l1": 0.0, "l2": 3.9999998989515007e-05}}, "depthwise_constraint": null}, "inbound_nodes": [[["feat_concat", 0, 0, {}]]]}, {"name": "Openpose/MConv_Stage1_L1_1_pointwise", "class_name": "Conv2D", "config": {"name": "Openpose/MConv_Stage1_L1_1_pointwise", "trainable": true, "dtype": "float32", "filters": 64, "kernel_size": [1, 1], "strides": [1, 1], "padding": "same", "data_format": "channels_last", "dilation_rate": [1, 1], "activation": "relu", "use_bias": false, "kernel_initializer": {"class_name": "VarianceScaling", "config": {"scale": 1.0, "mode": "fan_avg", "distribution": "uniform", "seed": null}}, "bias_initializer": {"class_name": "Zeros", "config": {}}, "kernel_regularizer": {"class_name": "L1L2", "config": {"l1": 0.0, "l2": 3.9999998989515007e-05}}, "bias_regularizer": null, "activity_regularizer": null, "kernel_constraint": null, "bias_constraint": null}, "inbound_nodes": [[["Openpose/MConv_Stage1_L1_1_depthwise", 0, 0, {}]]]}, {"name": "Openpose/MConv_Stage1_L2_1_pointwise", "class_name": "Conv2D", "config": {"name": "Openpose/MConv_Stage1_L2_1_pointwise", "trainable": true, "dtype": "float32", "filters": 64, "kernel_size": [1, 1], "strides": [1, 1], "padding": "same", "data_format": "channels_last", "dilation_rate": [1, 1], "activation": "relu", "use_bias": false, "kernel_initializer": {"class_name": "VarianceScaling", "config": {"scale": 1.0, "mode": "fan_avg", "distribution": "uniform", "seed": null}}, "bias_initializer": {"class_name": "Zeros", "config": {}}, "kernel_regularizer": {"class_name": "L1L2", "config": {"l1": 0.0, "l2": 3.9999998989515007e-05}}, "bias_regularizer": null, "activity_regularizer": null, "kernel_constraint": null, "bias_constraint": null}, "inbound_nodes": [[["Openpose/MConv_Stage1_L2_1_depthwise", 0, 0, {}]]]}, {"name": "Openpose/MConv_Stage1_L1_1BatchNorm", "class_name": "BatchNormalization", "config": {"name": "Openpose/MConv_Stage1_L1_1BatchNorm", "trainable": true, "dtype": "float32", "axis": -1, "momentum": 0.999, "epsilon": 0.001, "center": true, "scale": false, "beta_initializer": {"class_name": "Zeros", "config": {}}, "gamma_initializer": {"class_name": "Ones", "config": {}}, "moving_mean_initializer": {"class_name": "Zeros", "config": {}}, "moving_variance_initializer": {"class_name": "Ones", "config": {}}, "beta_regularizer": null, "gamma_regularizer": null, "beta_constraint": null, "gamma_constraint": null}, "inbound_nodes": [[["Openpose/MConv_Stage1_L1_1_pointwise", 0, 0, {}]]]}, {"name": "Openpose/MConv_Stage1_L2_1BatchNorm", "class_name": "BatchNormalization", "config": {"name": "Openpose/MConv_Stage1_L2_1BatchNorm", "trainable": true, "dtype": "float32", "axis": -1, "momentum": 0.999, "epsilon": 0.001, "center": true, "scale": false, "beta_initializer": {"class_name": "Zeros", "config": {}}, "gamma_initializer": {"class_name": "Ones", "config": {}}, "moving_mean_initializer": {"class_name": "Zeros", "config": {}}, "moving_variance_initializer": {"class_name": "Ones", "config": {}}, "beta_regularizer": null, "gamma_regularizer": null, "beta_constraint": null, "gamma_constraint": null}, "inbound_nodes": [[["Openpose/MConv_Stage1_L2_1_pointwise", 0, 0, {}]]]}, {"name": "Openpose/MConv_Stage1_L1_2_depthwise", "class_name": "DepthwiseConv2D", "config": {"name": "Openpose/MConv_Stage1_L1_2_depthwise", "trainable": true, "dtype": "float32", "kernel_size": [3, 3], "strides": [1, 1], "padding": "same", "data_format": "channels_last", "dilation_rate": [1, 1], "activation": "linear", "use_bias": false, "bias_initializer": {"class_name": "Zeros", "config": {}}, "bias_regularizer": null, "activity_regularizer": null, "bias_constraint": null, "depth_multiplier": 1, "depthwise_initializer": {"class_name": "VarianceScaling", "config": {"scale": 1.0, "mode": "fan_avg", "distribution": "uniform", "seed": null}}, "depthwise_regularizer": {"class_name": "L1L2", "config": {"l1": 0.0, "l2": 3.9999998989515007e-05}}, "depthwise_constraint": null}, "inbound_nodes": [[["Openpose/MConv_Stage1_L1_1BatchNorm", 0, 0, {}]]]}, {"name": "Openpose/MConv_Stage1_L2_2_depthwise", "class_name": "DepthwiseConv2D", "config": {"name": "Openpose/MConv_Stage1_L2_2_depthwise", "trainable": true, "dtype": "float32", "kernel_size": [3, 3], "strides": [1, 1], "padding": "same", "data_format": "channels_last", "dilation_rate": [1, 1], "activation": "linear", "use_bias": false, "bias_initializer": {"class_name": "Zeros", "config": {}}, "bias_regularizer": null, "activity_regularizer": null, "bias_constraint": null, "depth_multiplier": 1, "depthwise_initializer": {"class_name": "VarianceScaling", "config": {"scale": 1.0, "mode": "fan_avg", "distribution": "uniform", "seed": null}}, "depthwise_regularizer": {"class_name": "L1L2", "config": {"l1": 0.0, "l2": 3.9999998989515007e-05}}, "depthwise_constraint": null}, "inbound_nodes": [[["Openpose/MConv_Stage1_L2_1BatchNorm", 0, 0, {}]]]}, {"name": "Openpose/MConv_Stage1_L1_2_pointwise", "class_name": "Conv2D", "config": {"name": "Openpose/MConv_Stage1_L1_2_pointwise", "trainable": true, "dtype": "float32", "filters": 64, "kernel_size": [1, 1], "strides": [1, 1], "padding": "same", "data_format": "channels_last", "dilation_rate": [1, 1], "activation": "relu", "use_bias": false, "kernel_initializer": {"class_name": "VarianceScaling", "config": {"scale": 1.0, "mode": "fan_avg", "distribution": "uniform", "seed": null}}, "bias_initializer": {"class_name": "Zeros", "config": {}}, "kernel_regularizer": {"class_name": "L1L2", "config": {"l1": 0.0, "l2": 3.9999998989515007e-05}}, "bias_regularizer": null, "activity_regularizer": null, "kernel_constraint": null, "bias_constraint": null}, "inbound_nodes": [[["Openpose/MConv_Stage1_L1_2_depthwise", 0, 0, {}]]]}, {"name": "Openpose/MConv_Stage1_L2_2_pointwise", "class_name": "Conv2D", "config": {"name": "Openpose/MConv_Stage1_L2_2_pointwise", "trainable": true, "dtype": "float32", "filters": 64, "kernel_size": [1, 1], "strides": [1, 1], "padding": "same", "data_format": "channels_last", "dilation_rate": [1, 1], "activation": "relu", "use_bias": false, "kernel_initializer": {"class_name": "VarianceScaling", "config": {"scale": 1.0, "mode": "fan_avg", "distribution": "uniform", "seed": null}}, "bias_initializer": {"class_name": "Zeros", "config": {}}, "kernel_regularizer": {"class_name": "L1L2", "config": {"l1": 0.0, "l2": 3.9999998989515007e-05}}, "bias_regularizer": null, "activity_regularizer": null, "kernel_constraint": null, "bias_constraint": null}, "inbound_nodes": [[["Openpose/MConv_Stage1_L2_2_depthwise", 0, 0, {}]]]}, {"name": "Openpose/MConv_Stage1_L1_2BatchNorm", "class_name": "BatchNormalization", "config": {"name": "Openpose/MConv_Stage1_L1_2BatchNorm", "trainable": true, "dtype": "float32", "axis": -1, "momentum": 0.999, "epsilon": 0.001, "center": true, "scale": false, "beta_initializer": {"class_name": "Zeros", "config": {}}, "gamma_initializer": {"class_name": "Ones", "config": {}}, "moving_mean_initializer": {"class_name": "Zeros", "config": {}}, "moving_variance_initializer": {"class_name": "Ones", "config": {}}, "beta_regularizer": null, "gamma_regularizer": null, "beta_constraint": null, "gamma_constraint": null}, "inbound_nodes": [[["Openpose/MConv_Stage1_L1_2_pointwise", 0, 0, {}]]]}, {"name": "Openpose/MConv_Stage1_L2_2BatchNorm", "class_name": "BatchNormalization", "config": {"name": "Openpose/MConv_Stage1_L2_2BatchNorm", "trainable": true, "dtype": "float32", "axis": -1, "momentum": 0.999, "epsilon": 0.001, "center": true, "scale": false, "beta_initializer": {"class_name": "Zeros", "config": {}}, "gamma_initializer": {"class_name": "Ones", "config": {}}, "moving_mean_initializer": {"class_name": "Zeros", "config": {}}, "moving_variance_initializer": {"class_name": "Ones", "config": {}}, "beta_regularizer": null, "gamma_regularizer": null, "beta_constraint": null, "gamma_constraint": null}, "inbound_nodes": [[["Openpose/MConv_Stage1_L2_2_pointwise", 0, 0, {}]]]}, {"name": "Openpose/MConv_Stage1_L1_3_depthwise", "class_name": "DepthwiseConv2D", "config": {"name": "Openpose/MConv_Stage1_L1_3_depthwise", "trainable": true, "dtype": "float32", "kernel_size": [3, 3], "strides": [1, 1], "padding": "same", "data_format": "channels_last", "dilation_rate": [1, 1], "activation": "linear", "use_bias": false, "bias_initializer": {"class_name": "Zeros", "config": {}}, "bias_regularizer": null, "activity_regularizer": null, "bias_constraint": null, "depth_multiplier": 1, "depthwise_initializer": {"class_name": "VarianceScaling", "config": {"scale": 1.0, "mode": "fan_avg", "distribution": "uniform", "seed": null}}, "depthwise_regularizer": {"class_name": "L1L2", "config": {"l1": 0.0, "l2": 3.9999998989515007e-05}}, "depthwise_constraint": null}, "inbound_nodes": [[["Openpose/MConv_Stage1_L1_2BatchNorm", 0, 0, {}]]]}, {"name": "Openpose/MConv_Stage1_L2_3_depthwise", "class_name": "DepthwiseConv2D", "config": {"name": "Openpose/MConv_Stage1_L2_3_depthwise", "trainable": true, "dtype": "float32", "kernel_size": [3, 3], "strides": [1, 1], "padding": "same", "data_format": "channels_last", "dilation_rate": [1, 1], "activation": "linear", "use_bias": false, "bias_initializer": {"class_name": "Zeros", "config": {}}, "bias_regularizer": null, "activity_regularizer": null, "bias_constraint": null, "depth_multiplier": 1, "depthwise_initializer": {"class_name": "VarianceScaling", "config": {"scale": 1.0, "mode": "fan_avg", "distribution": "uniform", "seed": null}}, "depthwise_regularizer": {"class_name": "L1L2", "config": {"l1": 0.0, "l2": 3.9999998989515007e-05}}, "depthwise_constraint": null}, "inbound_nodes": [[["Openpose/MConv_Stage1_L2_2BatchNorm", 0, 0, {}]]]}, {"name": "Openpose/MConv_Stage1_L1_3_pointwise", "class_name": "Conv2D", "config": {"name": "Openpose/MConv_Stage1_L1_3_pointwise", "trainable": true, "dtype": "float32", "filters": 64, "kernel_size": [1, 1], "strides": [1, 1], "padding": "same", "data_format": "channels_last", "dilation_rate": [1, 1], "activation": "relu", "use_bias": false, "kernel_initializer": {"class_name": "VarianceScaling", "config": {"scale": 1.0, "mode": "fan_avg", "distribution": "uniform", "seed": null}}, "bias_initializer": {"class_name": "Zeros", "config": {}}, "kernel_regularizer": {"class_name": "L1L2", "config": {"l1": 0.0, "l2": 3.9999998989515007e-05}}, "bias_regularizer": null, "activity_regularizer": null, "kernel_constraint": null, "bias_constraint": null}, "inbound_nodes": [[["Openpose/MConv_Stage1_L1_3_depthwise", 0, 0, {}]]]}, {"name": "Openpose/MConv_Stage1_L2_3_pointwise", "class_name": "Conv2D", "config": {"name": "Openpose/MConv_Stage1_L2_3_pointwise", "trainable": true, "dtype": "float32", "filters": 64, "kernel_size": [1, 1], "strides": [1, 1], "padding": "same", "data_format": "channels_last", "dilation_rate": [1, 1], "activation": "relu", "use_bias": false, "kernel_initializer": {"class_name": "VarianceScaling", "config": {"scale": 1.0, "mode": "fan_avg", "distribution": "uniform", "seed": null}}, "bias_initializer": {"class_name": "Zeros", "config": {}}, "kernel_regularizer": {"class_name": "L1L2", "config": {"l1": 0.0, "l2": 3.9999998989515007e-05}}, "bias_regularizer": null, "activity_regularizer": null, "kernel_constraint": null, "bias_constraint": null}, "inbound_nodes": [[["Openpose/MConv_Stage1_L2_3_depthwise", 0, 0, {}]]]}, {"name": "Openpose/MConv_Stage1_L1_3BatchNorm", "class_name": "BatchNormalization", "config": {"name": "Openpose/MConv_Stage1_L1_3BatchNorm", "trainable": true, "dtype": "float32", "axis": -1, "momentum": 0.999, "epsilon": 0.001, "center": true, "scale": false, "beta_initializer": {"class_name": "Zeros", "config": {}}, "gamma_initializer": {"class_name": "Ones", "config": {}}, "moving_mean_initializer": {"class_name": "Zeros", "config": {}}, "moving_variance_initializer": {"class_name": "Ones", "config": {}}, "beta_regularizer": null, "gamma_regularizer": null, "beta_constraint": null, "gamma_constraint": null}, "inbound_nodes": [[["Openpose/MConv_Stage1_L1_3_pointwise", 0, 0, {}]]]}, {"name": "Openpose/MConv_Stage1_L2_3BatchNorm", "class_name": "BatchNormalization", "config": {"name": "Openpose/MConv_Stage1_L2_3BatchNorm", "trainable": true, "dtype": "float32", "axis": -1, "momentum": 0.999, "epsilon": 0.001, "center": true, "scale": false, "beta_initializer": {"class_name": "Zeros", "config": {}}, "gamma_initializer": {"class_name": "Ones", "config": {}}, "moving_mean_initializer": {"class_name": "Zeros", "config": {}}, "moving_variance_initializer": {"class_name": "Ones", "config": {}}, "beta_regularizer": null, "gamma_regularizer": null, "beta_constraint": null, "gamma_constraint": null}, "inbound_nodes": [[["Openpose/MConv_Stage1_L2_3_pointwise", 0, 0, {}]]]}, {"name": "Openpose/MConv_Stage1_L1_4_depthwise", "class_name": "DepthwiseConv2D", "config": {"name": "Openpose/MConv_Stage1_L1_4_depthwise", "trainable": true, "dtype": "float32", "kernel_size": [1, 1], "strides": [1, 1], "padding": "same", "data_format": "channels_last", "dilation_rate": [1, 1], "activation": "linear", "use_bias": false, "bias_initializer": {"class_name": "Zeros", "config": {}}, "bias_regularizer": null, "activity_regularizer": null, "bias_constraint": null, "depth_multiplier": 1, "depthwise_initializer": {"class_name": "VarianceScaling", "config": {"scale": 1.0, "mode": "fan_avg", "distribution": "uniform", "seed": null}}, "depthwise_regularizer": {"class_name": "L1L2", "config": {"l1": 0.0, "l2": 3.9999998989515007e-05}}, "depthwise_constraint": null}, "inbound_nodes": [[["Openpose/MConv_Stage1_L1_3BatchNorm", 0, 0, {}]]]}, {"name": "Openpose/MConv_Stage1_L2_4_depthwise", "class_name": "DepthwiseConv2D", "config": {"name": "Openpose/MConv_Stage1_L2_4_depthwise", "trainable": true, "dtype": "float32", "kernel_size": [1, 1], "strides": [1, 1], "padding": "same", "data_format": "channels_last", "dilation_rate": [1, 1], "activation": "linear", "use_bias": false, "bias_initializer": {"class_name": "Zeros", "config": {}}, "bias_regularizer": null, "activity_regularizer": null, "bias_constraint": null, "depth_multiplier": 1, "depthwise_initializer": {"class_name": "VarianceScaling", "config": {"scale": 1.0, "mode": "fan_avg", "distribution": "uniform", "seed": null}}, "depthwise_regularizer": {"class_name": "L1L2", "config": {"l1": 0.0, "l2": 3.9999998989515007e-05}}, "depthwise_constraint": null}, "inbound_nodes": [[["Openpose/MConv_Stage1_L2_3BatchNorm", 0, 0, {}]]]}, {"name": "Openpose/MConv_Stage1_L1_4_pointwise", "class_name": "Conv2D", "config": {"name": "Openpose/MConv_Stage1_L1_4_pointwise", "trainable": true, "dtype": "float32", "filters": 256, "kernel_size": [1, 1], "strides": [1, 1], "padding": "same", "data_format": "channels_last", "dilation_rate": [1, 1], "activation": "relu", "use_bias": false, "kernel_initializer": {"class_name": "VarianceScaling", "config": {"scale": 1.0, "mode": "fan_avg", "distribution": "uniform", "seed": null}}, "bias_initializer": {"class_name": "Zeros", "config": {}}, "kernel_regularizer": {"class_name": "L1L2", "config": {"l1": 0.0, "l2": 3.9999998989515007e-05}}, "bias_regularizer": null, "activity_regularizer": null, "kernel_constraint": null, "bias_constraint": null}, "inbound_nodes": [[["Openpose/MConv_Stage1_L1_4_depthwise", 0, 0, {}]]]}, {"name": "Openpose/MConv_Stage1_L2_4_pointwise", "class_name": "Conv2D", "config": {"name": "Openpose/MConv_Stage1_L2_4_pointwise", "trainable": true, "dtype": "float32", "filters": 256, "kernel_size": [1, 1], "strides": [1, 1], "padding": "same", "data_format": "channels_last", "dilation_rate": [1, 1], "activation": "relu", "use_bias": false, "kernel_initializer": {"class_name": "VarianceScaling", "config": {"scale": 1.0, "mode": "fan_avg", "distribution": "uniform", "seed": null}}, "bias_initializer": {"class_name": "Zeros", "config": {}}, "kernel_regularizer": {"class_name": "L1L2", "config": {"l1": 0.0, "l2": 3.9999998989515007e-05}}, "bias_regularizer": null, "activity_regularizer": null, "kernel_constraint": null, "bias_constraint": null}, "inbound_nodes": [[["Openpose/MConv_Stage1_L2_4_depthwise", 0, 0, {}]]]}, {"name": "Openpose/MConv_Stage1_L1_4BatchNorm", "class_name": "BatchNormalization", "config": {"name": "Openpose/MConv_Stage1_L1_4BatchNorm", "trainable": true, "dtype": "float32", "axis": -1, "momentum": 0.999, "epsilon": 0.001, "center": true, "scale": false, "beta_initializer": {"class_name": "Zeros", "config": {}}, "gamma_initializer": {"class_name": "Ones", "config": {}}, "moving_mean_initializer": {"class_name": "Zeros", "config": {}}, "moving_variance_initializer": {"class_name": "Ones", "config": {}}, "beta_regularizer": null, "gamma_regularizer": null, "beta_constraint": null, "gamma_constraint": null}, "inbound_nodes": [[["Openpose/MConv_Stage1_L1_4_pointwise", 0, 0, {}]]]}, {"name": "Openpose/MConv_Stage1_L2_4BatchNorm", "class_name": "BatchNormalization", "config": {"name": "Openpose/MConv_Stage1_L2_4BatchNorm", "trainable": true, "dtype": "float32", "axis": -1, "momentum": 0.999, "epsilon": 0.001, "center": true, "scale": false, "beta_initializer": {"class_name": "Zeros", "config": {}}, "gamma_initializer": {"class_name": "Ones", "config": {}}, "moving_mean_initializer": {"class_name": "Zeros", "config": {}}, "moving_variance_initializer": {"class_name": "Ones", "config": {}}, "beta_regularizer": null, "gamma_regularizer": null, "beta_constraint": null, "gamma_constraint": null}, "inbound_nodes": [[["Openpose/MConv_Stage1_L2_4_pointwise", 0, 0, {}]]]}, {"name": "Openpose/MConv_Stage1_L1_5_depthwise", "class_name": "DepthwiseConv2D", "config": {"name": "Openpose/MConv_Stage1_L1_5_depthwise", "trainable": true, "dtype": "float32", "kernel_size": [1, 1], "strides": [1, 1], "padding": "same", "data_format": "channels_last", "dilation_rate": [1, 1], "activation": "linear", "use_bias": false, "bias_initializer": {"class_name": "Zeros", "config": {}}, "bias_regularizer": null, "activity_regularizer": null, "bias_constraint": null, "depth_multiplier": 1, "depthwise_initializer": {"class_name": "VarianceScaling", "config": {"scale": 1.0, "mode": "fan_avg", "distribution": "uniform", "seed": null}}, "depthwise_regularizer": {"class_name": "L1L2", "config": {"l1": 0.0, "l2": 3.9999998989515007e-05}}, "depthwise_constraint": null}, "inbound_nodes": [[["Openpose/MConv_Stage1_L1_4BatchNorm", 0, 0, {}]]]}, {"name": "Openpose/MConv_Stage1_L2_5_depthwise", "class_name": "DepthwiseConv2D", "config": {"name": "Openpose/MConv_Stage1_L2_5_depthwise", "trainable": true, "dtype": "float32", "kernel_size": [1, 1], "strides": [1, 1], "padding": "same", "data_format": "channels_last", "dilation_rate": [1, 1], "activation": "linear", "use_bias": false, "bias_initializer": {"class_name": "Zeros", "config": {}}, "bias_regularizer": null, "activity_regularizer": null, "bias_constraint": null, "depth_multiplier": 1, "depthwise_initializer": {"class_name": "VarianceScaling", "config": {"scale": 1.0, "mode": "fan_avg", "distribution": "uniform", "seed": null}}, "depthwise_regularizer": {"class_name": "L1L2", "config": {"l1": 0.0, "l2": 3.9999998989515007e-05}}, "depthwise_constraint": null}, "inbound_nodes": [[["Openpose/MConv_Stage1_L2_4BatchNorm", 0, 0, {}]]]}, {"name": "Openpose/MConv_Stage1_L1_5_pointwise", "class_name": "Conv2D", "config": {"name": "Openpose/MConv_Stage1_L1_5_pointwise", "trainable": true, "dtype": "float32", "filters": 38, "kernel_size": [1, 1], "strides": [1, 1], "padding": "same", "data_format": "channels_last", "dilation_rate": [1, 1], "activation": "linear", "use_bias": false, "kernel_initializer": {"class_name": "VarianceScaling", "config": {"scale": 1.0, "mode": "fan_avg", "distribution": "uniform", "seed": null}}, "bias_initializer": {"class_name": "Zeros", "config": {}}, "kernel_regularizer": {"class_name": "L1L2", "config": {"l1": 0.0, "l2": 3.9999998989515007e-05}}, "bias_regularizer": null, "activity_regularizer": null, "kernel_constraint": null, "bias_constraint": null}, "inbound_nodes": [[["Openpose/MConv_Stage1_L1_5_depthwise", 0, 0, {}]]]}, {"name": "Openpose/MConv_Stage1_L2_5_pointwise", "class_name": "Conv2D", "config": {"name": "Openpose/MConv_Stage1_L2_5_pointwise", "trainable": true, "dtype": "float32", "filters": 22, "kernel_size": [1, 1], "strides": [1, 1], "padding": "same", "data_format": "channels_last", "dilation_rate": [1, 1], "activation": "linear", "use_bias": false, "kernel_initializer": {"class_name": "VarianceScaling", "config": {"scale": 1.0, "mode": "fan_avg", "distribution": "uniform", "seed": null}}, "bias_initializer": {"class_name": "Zeros", "config": {}}, "kernel_regularizer": {"class_name": "L1L2", "config": {"l1": 0.0, "l2": 3.9999998989515007e-05}}, "bias_regularizer": null, "activity_regularizer": null, "kernel_constraint": null, "bias_constraint": null}, "inbound_nodes": [[["Openpose/MConv_Stage1_L2_5_depthwise", 0, 0, {}]]]}, {"name": "Openpose/MConv_Stage1_L1_5BatchNorm", "class_name": "BatchNormalization", "config": {"name": "Openpose/MConv_Stage1_L1_5BatchNorm", "trainable": true, "dtype": "float32", "axis": -1, "momentum": 0.999, "epsilon": 0.001, "center": true, "scale": false, "beta_initializer": {"class_name": "Zeros", "config": {}}, "gamma_initializer": {"class_name": "Ones", "config": {}}, "moving_mean_initializer": {"class_name": "Zeros", "config": {}}, "moving_variance_initializer": {"class_name": "Ones", "config": {}}, "beta_regularizer": null, "gamma_regularizer": null, "beta_constraint": null, "gamma_constraint": null}, "inbound_nodes": [[["Openpose/MConv_Stage1_L1_5_pointwise", 0, 0, {}]]]}, {"name": "Openpose/MConv_Stage1_L2_5BatchNorm", "class_name": "BatchNormalization", "config": {"name": "Openpose/MConv_Stage1_L2_5BatchNorm", "trainable": true, "dtype": "float32", "axis": -1, "momentum": 0.999, "epsilon": 0.001, "center": true, "scale": false, "beta_initializer": {"class_name": "Zeros", "config": {}}, "gamma_initializer": {"class_name": "Ones", "config": {}}, "moving_mean_initializer": {"class_name": "Zeros", "config": {}}, "moving_variance_initializer": {"class_name": "Ones", "config": {}}, "beta_regularizer": null, "gamma_regularizer": null, "beta_constraint": null, "gamma_constraint": null}, "inbound_nodes": [[["Openpose/MConv_Stage1_L2_5_pointwise", 0, 0, {}]]]}, {"name": "Openpose/MConv_Stage2_concat", "class_name": "Concatenate", "config": {"name": "Openpose/MConv_Stage2_concat", "trainable": true, "dtype": "float32", "axis": 3}, "inbound_nodes": [[["Openpose/MConv_Stage1_L1_5BatchNorm", 0, 0, {}], ["Openpose/MConv_Stage1_L2_5BatchNorm", 0, 0, {}], ["feat_concat", 0, 0, {}]]]}, {"name": "Openpose/MConv_Stage2_L1_1_depthwise", "class_name": "DepthwiseConv2D", "config": {"name": "Openpose/MConv_Stage2_L1_1_depthwise", "trainable": true, "dtype": "float32", "kernel_size": [3, 3], "strides": [1, 1], "padding": "same", "data_format": "channels_last", "dilation_rate": [1, 1], "activation": "linear", "use_bias": false, "bias_initializer": {"class_name": "Zeros", "config": {}}, "bias_regularizer": null, "activity_regularizer": null, "bias_constraint": null, "depth_multiplier": 1, "depthwise_initializer": {"class_name": "VarianceScaling", "config": {"scale": 1.0, "mode": "fan_avg", "distribution": "uniform", "seed": null}}, "depthwise_regularizer": {"class_name": "L1L2", "config": {"l1": 0.0, "l2": 3.9999998989515007e-05}}, "depthwise_constraint": null}, "inbound_nodes": [[["Openpose/MConv_Stage2_concat", 0, 0, {}]]]}, {"name": "Openpose/MConv_Stage2_L2_1_depthwise", "class_name": "DepthwiseConv2D", "config": {"name": "Openpose/MConv_Stage2_L2_1_depthwise", "trainable": true, "dtype": "float32", "kernel_size": [3, 3], "strides": [1, 1], "padding": "same", "data_format": "channels_last", "dilation_rate": [1, 1], "activation": "linear", "use_bias": false, "bias_initializer": {"class_name": "Zeros", "config": {}}, "bias_regularizer": null, "activity_regularizer": null, "bias_constraint": null, "depth_multiplier": 1, "depthwise_initializer": {"class_name": "VarianceScaling", "config": {"scale": 1.0, "mode": "fan_avg", "distribution": "uniform", "seed": null}}, "depthwise_regularizer": {"class_name": "L1L2", "config": {"l1": 0.0, "l2": 3.9999998989515007e-05}}, "depthwise_constraint": null}, "inbound_nodes": [[["Openpose/MConv_Stage2_concat", 0, 0, {}]]]}, {"name": "Openpose/MConv_Stage2_L1_1_pointwise", "class_name": "Conv2D", "config": {"name": "Openpose/MConv_Stage2_L1_1_pointwise", "trainable": true, "dtype": "float32", "filters": 64, "kernel_size": [1, 1], "strides": [1, 1], "padding": "same", "data_format": "channels_last", "dilation_rate": [1, 1], "activation": "relu", "use_bias": false, "kernel_initializer": {"class_name": "VarianceScaling", "config": {"scale": 1.0, "mode": "fan_avg", "distribution": "uniform", "seed": null}}, "bias_initializer": {"class_name": "Zeros", "config": {}}, "kernel_regularizer": {"class_name": "L1L2", "config": {"l1": 0.0, "l2": 3.9999998989515007e-05}}, "bias_regularizer": null, "activity_regularizer": null, "kernel_constraint": null, "bias_constraint": null}, "inbound_nodes": [[["Openpose/MConv_Stage2_L1_1_depthwise", 0, 0, {}]]]}, {"name": "Openpose/MConv_Stage2_L2_1_pointwise", "class_name": "Conv2D", "config": {"name": "Openpose/MConv_Stage2_L2_1_pointwise", "trainable": true, "dtype": "float32", "filters": 64, "kernel_size": [1, 1], "strides": [1, 1], "padding": "same", "data_format": "channels_last", "dilation_rate": [1, 1], "activation": "relu", "use_bias": false, "kernel_initializer": {"class_name": "VarianceScaling", "config": {"scale": 1.0, "mode": "fan_avg", "distribution": "uniform", "seed": null}}, "bias_initializer": {"class_name": "Zeros", "config": {}}, "kernel_regularizer": {"class_name": "L1L2", "config": {"l1": 0.0, "l2": 3.9999998989515007e-05}}, "bias_regularizer": null, "activity_regularizer": null, "kernel_constraint": null, "bias_constraint": null}, "inbound_nodes": [[["Openpose/MConv_Stage2_L2_1_depthwise", 0, 0, {}]]]}, {"name": "Openpose/MConv_Stage2_L1_1BatchNorm", "class_name": "BatchNormalization", "config": {"name": "Openpose/MConv_Stage2_L1_1BatchNorm", "trainable": true, "dtype": "float32", "axis": -1, "momentum": 0.999, "epsilon": 0.001, "center": true, "scale": false, "beta_initializer": {"class_name": "Zeros", "config": {}}, "gamma_initializer": {"class_name": "Ones", "config": {}}, "moving_mean_initializer": {"class_name": "Zeros", "config": {}}, "moving_variance_initializer": {"class_name": "Ones", "config": {}}, "beta_regularizer": null, "gamma_regularizer": null, "beta_constraint": null, "gamma_constraint": null}, "inbound_nodes": [[["Openpose/MConv_Stage2_L1_1_pointwise", 0, 0, {}]]]}, {"name": "Openpose/MConv_Stage2_L2_1BatchNorm", "class_name": "BatchNormalization", "config": {"name": "Openpose/MConv_Stage2_L2_1BatchNorm", "trainable": true, "dtype": "float32", "axis": -1, "momentum": 0.999, "epsilon": 0.001, "center": true, "scale": false, "beta_initializer": {"class_name": "Zeros", "config": {}}, "gamma_initializer": {"class_name": "Ones", "config": {}}, "moving_mean_initializer": {"class_name": "Zeros", "config": {}}, "moving_variance_initializer": {"class_name": "Ones", "config": {}}, "beta_regularizer": null, "gamma_regularizer": null, "beta_constraint": null, "gamma_constraint": null}, "inbound_nodes": [[["Openpose/MConv_Stage2_L2_1_pointwise", 0, 0, {}]]]}, {"name": "Openpose/MConv_Stage2_L1_2_depthwise", "class_name": "DepthwiseConv2D", "config": {"name": "Openpose/MConv_Stage2_L1_2_depthwise", "trainable": true, "dtype": "float32", "kernel_size": [3, 3], "strides": [1, 1], "padding": "same", "data_format": "channels_last", "dilation_rate": [1, 1], "activation": "linear", "use_bias": false, "bias_initializer": {"class_name": "Zeros", "config": {}}, "bias_regularizer": null, "activity_regularizer": null, "bias_constraint": null, "depth_multiplier": 1, "depthwise_initializer": {"class_name": "VarianceScaling", "config": {"scale": 1.0, "mode": "fan_avg", "distribution": "uniform", "seed": null}}, "depthwise_regularizer": {"class_name": "L1L2", "config": {"l1": 0.0, "l2": 3.9999998989515007e-05}}, "depthwise_constraint": null}, "inbound_nodes": [[["Openpose/MConv_Stage2_L1_1BatchNorm", 0, 0, {}]]]}, {"name": "Openpose/MConv_Stage2_L2_2_depthwise", "class_name": "DepthwiseConv2D", "config": {"name": "Openpose/MConv_Stage2_L2_2_depthwise", "trainable": true, "dtype": "float32", "kernel_size": [3, 3], "strides": [1, 1], "padding": "same", "data_format": "channels_last", "dilation_rate": [1, 1], "activation": "linear", "use_bias": false, "bias_initializer": {"class_name": "Zeros", "config": {}}, "bias_regularizer": null, "activity_regularizer": null, "bias_constraint": null, "depth_multiplier": 1, "depthwise_initializer": {"class_name": "VarianceScaling", "config": {"scale": 1.0, "mode": "fan_avg", "distribution": "uniform", "seed": null}}, "depthwise_regularizer": {"class_name": "L1L2", "config": {"l1": 0.0, "l2": 3.9999998989515007e-05}}, "depthwise_constraint": null}, "inbound_nodes": [[["Openpose/MConv_Stage2_L2_1BatchNorm", 0, 0, {}]]]}, {"name": "Openpose/MConv_Stage2_L1_2_pointwise", "class_name": "Conv2D", "config": {"name": "Openpose/MConv_Stage2_L1_2_pointwise", "trainable": true, "dtype": "float32", "filters": 64, "kernel_size": [1, 1], "strides": [1, 1], "padding": "same", "data_format": "channels_last", "dilation_rate": [1, 1], "activation": "relu", "use_bias": false, "kernel_initializer": {"class_name": "VarianceScaling", "config": {"scale": 1.0, "mode": "fan_avg", "distribution": "uniform", "seed": null}}, "bias_initializer": {"class_name": "Zeros", "config": {}}, "kernel_regularizer": {"class_name": "L1L2", "config": {"l1": 0.0, "l2": 3.9999998989515007e-05}}, "bias_regularizer": null, "activity_regularizer": null, "kernel_constraint": null, "bias_constraint": null}, "inbound_nodes": [[["Openpose/MConv_Stage2_L1_2_depthwise", 0, 0, {}]]]}, {"name": "Openpose/MConv_Stage2_L2_2_pointwise", "class_name": "Conv2D", "config": {"name": "Openpose/MConv_Stage2_L2_2_pointwise", "trainable": true, "dtype": "float32", "filters": 64, "kernel_size": [1, 1], "strides": [1, 1], "padding": "same", "data_format": "channels_last", "dilation_rate": [1, 1], "activation": "relu", "use_bias": false, "kernel_initializer": {"class_name": "VarianceScaling", "config": {"scale": 1.0, "mode": "fan_avg", "distribution": "uniform", "seed": null}}, "bias_initializer": {"class_name": "Zeros", "config": {}}, "kernel_regularizer": {"class_name": "L1L2", "config": {"l1": 0.0, "l2": 3.9999998989515007e-05}}, "bias_regularizer": null, "activity_regularizer": null, "kernel_constraint": null, "bias_constraint": null}, "inbound_nodes": [[["Openpose/MConv_Stage2_L2_2_depthwise", 0, 0, {}]]]}, {"name": "Openpose/MConv_Stage2_L1_2BatchNorm", "class_name": "BatchNormalization", "config": {"name": "Openpose/MConv_Stage2_L1_2BatchNorm", "trainable": true, "dtype": "float32", "axis": -1, "momentum": 0.999, "epsilon": 0.001, "center": true, "scale": false, "beta_initializer": {"class_name": "Zeros", "config": {}}, "gamma_initializer": {"class_name": "Ones", "config": {}}, "moving_mean_initializer": {"class_name": "Zeros", "config": {}}, "moving_variance_initializer": {"class_name": "Ones", "config": {}}, "beta_regularizer": null, "gamma_regularizer": null, "beta_constraint": null, "gamma_constraint": null}, "inbound_nodes": [[["Openpose/MConv_Stage2_L1_2_pointwise", 0, 0, {}]]]}, {"name": "Openpose/MConv_Stage2_L2_2BatchNorm", "class_name": "BatchNormalization", "config": {"name": "Openpose/MConv_Stage2_L2_2BatchNorm", "trainable": true, "dtype": "float32", "axis": -1, "momentum": 0.999, "epsilon": 0.001, "center": true, "scale": false, "beta_initializer": {"class_name": "Zeros", "config": {}}, "gamma_initializer": {"class_name": "Ones", "config": {}}, "moving_mean_initializer": {"class_name": "Zeros", "config": {}}, "moving_variance_initializer": {"class_name": "Ones", "config": {}}, "beta_regularizer": null, "gamma_regularizer": null, "beta_constraint": null, "gamma_constraint": null}, "inbound_nodes": [[["Openpose/MConv_Stage2_L2_2_pointwise", 0, 0, {}]]]}, {"name": "Openpose/MConv_Stage2_L1_3_depthwise", "class_name": "DepthwiseConv2D", "config": {"name": "Openpose/MConv_Stage2_L1_3_depthwise", "trainable": true, "dtype": "float32", "kernel_size": [3, 3], "strides": [1, 1], "padding": "same", "data_format": "channels_last", "dilation_rate": [1, 1], "activation": "linear", "use_bias": false, "bias_initializer": {"class_name": "Zeros", "config": {}}, "bias_regularizer": null, "activity_regularizer": null, "bias_constraint": null, "depth_multiplier": 1, "depthwise_initializer": {"class_name": "VarianceScaling", "config": {"scale": 1.0, "mode": "fan_avg", "distribution": "uniform", "seed": null}}, "depthwise_regularizer": {"class_name": "L1L2", "config": {"l1": 0.0, "l2": 3.9999998989515007e-05}}, "depthwise_constraint": null}, "inbound_nodes": [[["Openpose/MConv_Stage2_L1_2BatchNorm", 0, 0, {}]]]}, {"name": "Openpose/MConv_Stage2_L2_3_depthwise", "class_name": "DepthwiseConv2D", "config": {"name": "Openpose/MConv_Stage2_L2_3_depthwise", "trainable": true, "dtype": "float32", "kernel_size": [3, 3], "strides": [1, 1], "padding": "same", "data_format": "channels_last", "dilation_rate": [1, 1], "activation": "linear", "use_bias": false, "bias_initializer": {"class_name": "Zeros", "config": {}}, "bias_regularizer": null, "activity_regularizer": null, "bias_constraint": null, "depth_multiplier": 1, "depthwise_initializer": {"class_name": "VarianceScaling", "config": {"scale": 1.0, "mode": "fan_avg", "distribution": "uniform", "seed": null}}, "depthwise_regularizer": {"class_name": "L1L2", "config": {"l1": 0.0, "l2": 3.9999998989515007e-05}}, "depthwise_constraint": null}, "inbound_nodes": [[["Openpose/MConv_Stage2_L2_2BatchNorm", 0, 0, {}]]]}, {"name": "Openpose/MConv_Stage2_L1_3_pointwise", "class_name": "Conv2D", "config": {"name": "Openpose/MConv_Stage2_L1_3_pointwise", "trainable": true, "dtype": "float32", "filters": 64, "kernel_size": [1, 1], "strides": [1, 1], "padding": "same", "data_format": "channels_last", "dilation_rate": [1, 1], "activation": "relu", "use_bias": false, "kernel_initializer": {"class_name": "VarianceScaling", "config": {"scale": 1.0, "mode": "fan_avg", "distribution": "uniform", "seed": null}}, "bias_initializer": {"class_name": "Zeros", "config": {}}, "kernel_regularizer": {"class_name": "L1L2", "config": {"l1": 0.0, "l2": 3.9999998989515007e-05}}, "bias_regularizer": null, "activity_regularizer": null, "kernel_constraint": null, "bias_constraint": null}, "inbound_nodes": [[["Openpose/MConv_Stage2_L1_3_depthwise", 0, 0, {}]]]}, {"name": "Openpose/MConv_Stage2_L2_3_pointwise", "class_name": "Conv2D", "config": {"name": "Openpose/MConv_Stage2_L2_3_pointwise", "trainable": true, "dtype": "float32", "filters": 64, "kernel_size": [1, 1], "strides": [1, 1], "padding": "same", "data_format": "channels_last", "dilation_rate": [1, 1], "activation": "relu", "use_bias": false, "kernel_initializer": {"class_name": "VarianceScaling", "config": {"scale": 1.0, "mode": "fan_avg", "distribution": "uniform", "seed": null}}, "bias_initializer": {"class_name": "Zeros", "config": {}}, "kernel_regularizer": {"class_name": "L1L2", "config": {"l1": 0.0, "l2": 3.9999998989515007e-05}}, "bias_regularizer": null, "activity_regularizer": null, "kernel_constraint": null, "bias_constraint": null}, "inbound_nodes": [[["Openpose/MConv_Stage2_L2_3_depthwise", 0, 0, {}]]]}, {"name": "Openpose/MConv_Stage2_L1_3BatchNorm", "class_name": "BatchNormalization", "config": {"name": "Openpose/MConv_Stage2_L1_3BatchNorm", "trainable": true, "dtype": "float32", "axis": -1, "momentum": 0.999, "epsilon": 0.001, "center": true, "scale": false, "beta_initializer": {"class_name": "Zeros", "config": {}}, "gamma_initializer": {"class_name": "Ones", "config": {}}, "moving_mean_initializer": {"class_name": "Zeros", "config": {}}, "moving_variance_initializer": {"class_name": "Ones", "config": {}}, "beta_regularizer": null, "gamma_regularizer": null, "beta_constraint": null, "gamma_constraint": null}, "inbound_nodes": [[["Openpose/MConv_Stage2_L1_3_pointwise", 0, 0, {}]]]}, {"name": "Openpose/MConv_Stage2_L2_3BatchNorm", "class_name": "BatchNormalization", "config": {"name": "Openpose/MConv_Stage2_L2_3BatchNorm", "trainable": true, "dtype": "float32", "axis": -1, "momentum": 0.999, "epsilon": 0.001, "center": true, "scale": false, "beta_initializer": {"class_name": "Zeros", "config": {}}, "gamma_initializer": {"class_name": "Ones", "config": {}}, "moving_mean_initializer": {"class_name": "Zeros", "config": {}}, "moving_variance_initializer": {"class_name": "Ones", "config": {}}, "beta_regularizer": null, "gamma_regularizer": null, "beta_constraint": null, "gamma_constraint": null}, "inbound_nodes": [[["Openpose/MConv_Stage2_L2_3_pointwise", 0, 0, {}]]]}, {"name": "Openpose/MConv_Stage2_L1_4_depthwise", "class_name": "DepthwiseConv2D", "config": {"name": "Openpose/MConv_Stage2_L1_4_depthwise", "trainable": true, "dtype": "float32", "kernel_size": [1, 1], "strides": [1, 1], "padding": "same", "data_format": "channels_last", "dilation_rate": [1, 1], "activation": "linear", "use_bias": false, "bias_initializer": {"class_name": "Zeros", "config": {}}, "bias_regularizer": null, "activity_regularizer": null, "bias_constraint": null, "depth_multiplier": 1, "depthwise_initializer": {"class_name": "VarianceScaling", "config": {"scale": 1.0, "mode": "fan_avg", "distribution": "uniform", "seed": null}}, "depthwise_regularizer": {"class_name": "L1L2", "config": {"l1": 0.0, "l2": 3.9999998989515007e-05}}, "depthwise_constraint": null}, "inbound_nodes": [[["Openpose/MConv_Stage2_L1_3BatchNorm", 0, 0, {}]]]}, {"name": "Openpose/MConv_Stage2_L2_4_depthwise", "class_name": "DepthwiseConv2D", "config": {"name": "Openpose/MConv_Stage2_L2_4_depthwise", "trainable": true, "dtype": "float32", "kernel_size": [1, 1], "strides": [1, 1], "padding": "same", "data_format": "channels_last", "dilation_rate": [1, 1], "activation": "linear", "use_bias": false, "bias_initializer": {"class_name": "Zeros", "config": {}}, "bias_regularizer": null, "activity_regularizer": null, "bias_constraint": null, "depth_multiplier": 1, "depthwise_initializer": {"class_name": "VarianceScaling", "config": {"scale": 1.0, "mode": "fan_avg", "distribution": "uniform", "seed": null}}, "depthwise_regularizer": {"class_name": "L1L2", "config": {"l1": 0.0, "l2": 3.9999998989515007e-05}}, "depthwise_constraint": null}, "inbound_nodes": [[["Openpose/MConv_Stage2_L2_3BatchNorm", 0, 0, {}]]]}, {"name": "Openpose/MConv_Stage2_L1_4_pointwise", "class_name": "Conv2D", "config": {"name": "Openpose/MConv_Stage2_L1_4_pointwise", "trainable": true, "dtype": "float32", "filters": 64, "kernel_size": [1, 1], "strides": [1, 1], "padding": "same", "data_format": "channels_last", "dilation_rate": [1, 1], "activation": "relu", "use_bias": false, "kernel_initializer": {"class_name": "VarianceScaling", "config": {"scale": 1.0, "mode": "fan_avg", "distribution": "uniform", "seed": null}}, "bias_initializer": {"class_name": "Zeros", "config": {}}, "kernel_regularizer": {"class_name": "L1L2", "config": {"l1": 0.0, "l2": 3.9999998989515007e-05}}, "bias_regularizer": null, "activity_regularizer": null, "kernel_constraint": null, "bias_constraint": null}, "inbound_nodes": [[["Openpose/MConv_Stage2_L1_4_depthwise", 0, 0, {}]]]}, {"name": "Openpose/MConv_Stage2_L2_4_pointwise", "class_name": "Conv2D", "config": {"name": "Openpose/MConv_Stage2_L2_4_pointwise", "trainable": true, "dtype": "float32", "filters": 64, "kernel_size": [1, 1], "strides": [1, 1], "padding": "same", "data_format": "channels_last", "dilation_rate": [1, 1], "activation": "relu", "use_bias": false, "kernel_initializer": {"class_name": "VarianceScaling", "config": {"scale": 1.0, "mode": "fan_avg", "distribution": "uniform", "seed": null}}, "bias_initializer": {"class_name": "Zeros", "config": {}}, "kernel_regularizer": {"class_name": "L1L2", "config": {"l1": 0.0, "l2": 3.9999998989515007e-05}}, "bias_regularizer": null, "activity_regularizer": null, "kernel_constraint": null, "bias_constraint": null}, "inbound_nodes": [[["Openpose/MConv_Stage2_L2_4_depthwise", 0, 0, {}]]]}, {"name": "Openpose/MConv_Stage2_L1_4BatchNorm", "class_name": "BatchNormalization", "config": {"name": "Openpose/MConv_Stage2_L1_4BatchNorm", "trainable": true, "dtype": "float32", "axis": -1, "momentum": 0.999, "epsilon": 0.001, "center": true, "scale": false, "beta_initializer": {"class_name": "Zeros", "config": {}}, "gamma_initializer": {"class_name": "Ones", "config": {}}, "moving_mean_initializer": {"class_name": "Zeros", "config": {}}, "moving_variance_initializer": {"class_name": "Ones", "config": {}}, "beta_regularizer": null, "gamma_regularizer": null, "beta_constraint": null, "gamma_constraint": null}, "inbound_nodes": [[["Openpose/MConv_Stage2_L1_4_pointwise", 0, 0, {}]]]}, {"name": "Openpose/MConv_Stage2_L2_4BatchNorm", "class_name": "BatchNormalization", "config": {"name": "Openpose/MConv_Stage2_L2_4BatchNorm", "trainable": true, "dtype": "float32", "axis": -1, "momentum": 0.999, "epsilon": 0.001, "center": true, "scale": false, "beta_initializer": {"class_name": "Zeros", "config": {}}, "gamma_initializer": {"class_name": "Ones", "config": {}}, "moving_mean_initializer": {"class_name": "Zeros", "config": {}}, "moving_variance_initializer": {"class_name": "Ones", "config": {}}, "beta_regularizer": null, "gamma_regularizer": null, "beta_constraint": null, "gamma_constraint": null}, "inbound_nodes": [[["Openpose/MConv_Stage2_L2_4_pointwise", 0, 0, {}]]]}, {"name": "Openpose/MConv_Stage2_L1_5_depthwise", "class_name": "DepthwiseConv2D", "config": {"name": "Openpose/MConv_Stage2_L1_5_depthwise", "trainable": true, "dtype": "float32", "kernel_size": [1, 1], "strides": [1, 1], "padding": "same", "data_format": "channels_last", "dilation_rate": [1, 1], "activation": "linear", "use_bias": false, "bias_initializer": {"class_name": "Zeros", "config": {}}, "bias_regularizer": null, "activity_regularizer": null, "bias_constraint": null, "depth_multiplier": 1, "depthwise_initializer": {"class_name": "VarianceScaling", "config": {"scale": 1.0, "mode": "fan_avg", "distribution": "uniform", "seed": null}}, "depthwise_regularizer": {"class_name": "L1L2", "config": {"l1": 0.0, "l2": 3.9999998989515007e-05}}, "depthwise_constraint": null}, "inbound_nodes": [[["Openpose/MConv_Stage2_L1_4BatchNorm", 0, 0, {}]]]}, {"name": "Openpose/MConv_Stage2_L2_5_depthwise", "class_name": "DepthwiseConv2D", "config": {"name": "Openpose/MConv_Stage2_L2_5_depthwise", "trainable": true, "dtype": "float32", "kernel_size": [1, 1], "strides": [1, 1], "padding": "same", "data_format": "channels_last", "dilation_rate": [1, 1], "activation": "linear", "use_bias": false, "bias_initializer": {"class_name": "Zeros", "config": {}}, "bias_regularizer": null, "activity_regularizer": null, "bias_constraint": null, "depth_multiplier": 1, "depthwise_initializer": {"class_name": "VarianceScaling", "config": {"scale": 1.0, "mode": "fan_avg", "distribution": "uniform", "seed": null}}, "depthwise_regularizer": {"class_name": "L1L2", "config": {"l1": 0.0, "l2": 3.9999998989515007e-05}}, "depthwise_constraint": null}, "inbound_nodes": [[["Openpose/MConv_Stage2_L2_4BatchNorm", 0, 0, {}]]]}, {"name": "Openpose/MConv_Stage2_L1_5_pointwise", "class_name": "Conv2D", "config": {"name": "Openpose/MConv_Stage2_L1_5_pointwise", "trainable": true, "dtype": "float32", "filters": 38, "kernel_size": [1, 1], "strides": [1, 1], "padding": "same", "data_format": "channels_last", "dilation_rate": [1, 1], "activation": "linear", "use_bias": false, "kernel_initializer": {"class_name": "VarianceScaling", "config": {"scale": 1.0, "mode": "fan_avg", "distribution": "uniform", "seed": null}}, "bias_initializer": {"class_name": "Zeros", "config": {}}, "kernel_regularizer": {"class_name": "L1L2", "config": {"l1": 0.0, "l2": 3.9999998989515007e-05}}, "bias_regularizer": null, "activity_regularizer": null, "kernel_constraint": null, "bias_constraint": null}, "inbound_nodes": [[["Openpose/MConv_Stage2_L1_5_depthwise", 0, 0, {}]]]}, {"name": "Openpose/MConv_Stage2_L2_5_pointwise", "class_name": "Conv2D", "config": {"name": "Openpose/MConv_Stage2_L2_5_pointwise", "trainable": true, "dtype": "float32", "filters": 22, "kernel_size": [1, 1], "strides": [1, 1], "padding": "same", "data_format": "channels_last", "dilation_rate": [1, 1], "activation": "linear", "use_bias": false, "kernel_initializer": {"class_name": "VarianceScaling", "config": {"scale": 1.0, "mode": "fan_avg", "distribution": "uniform", "seed": null}}, "bias_initializer": {"class_name": "Zeros", "config": {}}, "kernel_regularizer": {"class_name": "L1L2", "config": {"l1": 0.0, "l2": 3.9999998989515007e-05}}, "bias_regularizer": null, "activity_regularizer": null, "kernel_constraint": null, "bias_constraint": null}, "inbound_nodes": [[["Openpose/MConv_Stage2_L2_5_depthwise", 0, 0, {}]]]}, {"name": "Openpose/MConv_Stage2_L1_5BatchNorm", "class_name": "BatchNormalization", "config": {"name": "Openpose/MConv_Stage2_L1_5BatchNorm", "trainable": true, "dtype": "float32", "axis": -1, "momentum": 0.999, "epsilon": 0.001, "center": true, "scale": false, "beta_initializer": {"class_name": "Zeros", "config": {}}, "gamma_initializer": {"class_name": "Ones", "config": {}}, "moving_mean_initializer": {"class_name": "Zeros", "config": {}}, "moving_variance_initializer": {"class_name": "Ones", "config": {}}, "beta_regularizer": null, "gamma_regularizer": null, "beta_constraint": null, "gamma_constraint": null}, "inbound_nodes": [[["Openpose/MConv_Stage2_L1_5_pointwise", 0, 0, {}]]]}, {"name": "Openpose/MConv_Stage2_L2_5BatchNorm", "class_name": "BatchNormalization", "config": {"name": "Openpose/MConv_Stage2_L2_5BatchNorm", "trainable": true, "dtype": "float32", "axis": -1, "momentum": 0.999, "epsilon": 0.001, "center": true, "scale": false, "beta_initializer": {"class_name": "Zeros", "config": {}}, "gamma_initializer": {"class_name": "Ones", "config": {}}, "moving_mean_initializer": {"class_name": "Zeros", "config": {}}, "moving_variance_initializer": {"class_name": "Ones", "config": {}}, "beta_regularizer": null, "gamma_regularizer": null, "beta_constraint": null, "gamma_constraint": null}, "inbound_nodes": [[["Openpose/MConv_Stage2_L2_5_pointwise", 0, 0, {}]]]}, {"name": "Openpose/MConv_Stage3_concat", "class_name": "Concatenate", "config": {"name": "Openpose/MConv_Stage3_concat", "trainable": true, "dtype": "float32", "axis": 3}, "inbound_nodes": [[["Openpose/MConv_Stage2_L1_5BatchNorm", 0, 0, {}], ["Openpose/MConv_Stage2_L2_5BatchNorm", 0, 0, {}], ["feat_concat", 0, 0, {}]]]}, {"name": "Openpose/MConv_Stage3_L1_1_depthwise", "class_name": "DepthwiseConv2D", "config": {"name": "Openpose/MConv_Stage3_L1_1_depthwise", "trainable": true, "dtype": "float32", "kernel_size": [3, 3], "strides": [1, 1], "padding": "same", "data_format": "channels_last", "dilation_rate": [1, 1], "activation": "linear", "use_bias": false, "bias_initializer": {"class_name": "Zeros", "config": {}}, "bias_regularizer": null, "activity_regularizer": null, "bias_constraint": null, "depth_multiplier": 1, "depthwise_initializer": {"class_name": "VarianceScaling", "config": {"scale": 1.0, "mode": "fan_avg", "distribution": "uniform", "seed": null}}, "depthwise_regularizer": {"class_name": "L1L2", "config": {"l1": 0.0, "l2": 3.9999998989515007e-05}}, "depthwise_constraint": null}, "inbound_nodes": [[["Openpose/MConv_Stage3_concat", 0, 0, {}]]]}, {"name": "Openpose/MConv_Stage3_L2_1_depthwise", "class_name": "DepthwiseConv2D", "config": {"name": "Openpose/MConv_Stage3_L2_1_depthwise", "trainable": true, "dtype": "float32", "kernel_size": [3, 3], "strides": [1, 1], "padding": "same", "data_format": "channels_last", "dilation_rate": [1, 1], "activation": "linear", "use_bias": false, "bias_initializer": {"class_name": "Zeros", "config": {}}, "bias_regularizer": null, "activity_regularizer": null, "bias_constraint": null, "depth_multiplier": 1, "depthwise_initializer": {"class_name": "VarianceScaling", "config": {"scale": 1.0, "mode": "fan_avg", "distribution": "uniform", "seed": null}}, "depthwise_regularizer": {"class_name": "L1L2", "config": {"l1": 0.0, "l2": 3.9999998989515007e-05}}, "depthwise_constraint": null}, "inbound_nodes": [[["Openpose/MConv_Stage3_concat", 0, 0, {}]]]}, {"name": "Openpose/MConv_Stage3_L1_1_pointwise", "class_name": "Conv2D", "config": {"name": "Openpose/MConv_Stage3_L1_1_pointwise", "trainable": true, "dtype": "float32", "filters": 64, "kernel_size": [1, 1], "strides": [1, 1], "padding": "same", "data_format": "channels_last", "dilation_rate": [1, 1], "activation": "relu", "use_bias": false, "kernel_initializer": {"class_name": "VarianceScaling", "config": {"scale": 1.0, "mode": "fan_avg", "distribution": "uniform", "seed": null}}, "bias_initializer": {"class_name": "Zeros", "config": {}}, "kernel_regularizer": {"class_name": "L1L2", "config": {"l1": 0.0, "l2": 3.9999998989515007e-05}}, "bias_regularizer": null, "activity_regularizer": null, "kernel_constraint": null, "bias_constraint": null}, "inbound_nodes": [[["Openpose/MConv_Stage3_L1_1_depthwise", 0, 0, {}]]]}, {"name": "Openpose/MConv_Stage3_L2_1_pointwise", "class_name": "Conv2D", "config": {"name": "Openpose/MConv_Stage3_L2_1_pointwise", "trainable": true, "dtype": "float32", "filters": 64, "kernel_size": [1, 1], "strides": [1, 1], "padding": "same", "data_format": "channels_last", "dilation_rate": [1, 1], "activation": "relu", "use_bias": false, "kernel_initializer": {"class_name": "VarianceScaling", "config": {"scale": 1.0, "mode": "fan_avg", "distribution": "uniform", "seed": null}}, "bias_initializer": {"class_name": "Zeros", "config": {}}, "kernel_regularizer": {"class_name": "L1L2", "config": {"l1": 0.0, "l2": 3.9999998989515007e-05}}, "bias_regularizer": null, "activity_regularizer": null, "kernel_constraint": null, "bias_constraint": null}, "inbound_nodes": [[["Openpose/MConv_Stage3_L2_1_depthwise", 0, 0, {}]]]}, {"name": "Openpose/MConv_Stage3_L1_1BatchNorm", "class_name": "BatchNormalization", "config": {"name": "Openpose/MConv_Stage3_L1_1BatchNorm", "trainable": true, "dtype": "float32", "axis": -1, "momentum": 0.999, "epsilon": 0.001, "center": true, "scale": false, "beta_initializer": {"class_name": "Zeros", "config": {}}, "gamma_initializer": {"class_name": "Ones", "config": {}}, "moving_mean_initializer": {"class_name": "Zeros", "config": {}}, "moving_variance_initializer": {"class_name": "Ones", "config": {}}, "beta_regularizer": null, "gamma_regularizer": null, "beta_constraint": null, "gamma_constraint": null}, "inbound_nodes": [[["Openpose/MConv_Stage3_L1_1_pointwise", 0, 0, {}]]]}, {"name": "Openpose/MConv_Stage3_L2_1BatchNorm", "class_name": "BatchNormalization", "config": {"name": "Openpose/MConv_Stage3_L2_1BatchNorm", "trainable": true, "dtype": "float32", "axis": -1, "momentum": 0.999, "epsilon": 0.001, "center": true, "scale": false, "beta_initializer": {"class_name": "Zeros", "config": {}}, "gamma_initializer": {"class_name": "Ones", "config": {}}, "moving_mean_initializer": {"class_name": "Zeros", "config": {}}, "moving_variance_initializer": {"class_name": "Ones", "config": {}}, "beta_regularizer": null, "gamma_regularizer": null, "beta_constraint": null, "gamma_constraint": null}, "inbound_nodes": [[["Openpose/MConv_Stage3_L2_1_pointwise", 0, 0, {}]]]}, {"name": "Openpose/MConv_Stage3_L1_2_depthwise", "class_name": "DepthwiseConv2D", "config": {"name": "Openpose/MConv_Stage3_L1_2_depthwise", "trainable": true, "dtype": "float32", "kernel_size": [3, 3], "strides": [1, 1], "padding": "same", "data_format": "channels_last", "dilation_rate": [1, 1], "activation": "linear", "use_bias": false, "bias_initializer": {"class_name": "Zeros", "config": {}}, "bias_regularizer": null, "activity_regularizer": null, "bias_constraint": null, "depth_multiplier": 1, "depthwise_initializer": {"class_name": "VarianceScaling", "config": {"scale": 1.0, "mode": "fan_avg", "distribution": "uniform", "seed": null}}, "depthwise_regularizer": {"class_name": "L1L2", "config": {"l1": 0.0, "l2": 3.9999998989515007e-05}}, "depthwise_constraint": null}, "inbound_nodes": [[["Openpose/MConv_Stage3_L1_1BatchNorm", 0, 0, {}]]]}, {"name": "Openpose/MConv_Stage3_L2_2_depthwise", "class_name": "DepthwiseConv2D", "config": {"name": "Openpose/MConv_Stage3_L2_2_depthwise", "trainable": true, "dtype": "float32", "kernel_size": [3, 3], "strides": [1, 1], "padding": "same", "data_format": "channels_last", "dilation_rate": [1, 1], "activation": "linear", "use_bias": false, "bias_initializer": {"class_name": "Zeros", "config": {}}, "bias_regularizer": null, "activity_regularizer": null, "bias_constraint": null, "depth_multiplier": 1, "depthwise_initializer": {"class_name": "VarianceScaling", "config": {"scale": 1.0, "mode": "fan_avg", "distribution": "uniform", "seed": null}}, "depthwise_regularizer": {"class_name": "L1L2", "config": {"l1": 0.0, "l2": 3.9999998989515007e-05}}, "depthwise_constraint": null}, "inbound_nodes": [[["Openpose/MConv_Stage3_L2_1BatchNorm", 0, 0, {}]]]}, {"name": "Openpose/MConv_Stage3_L1_2_pointwise", "class_name": "Conv2D", "config": {"name": "Openpose/MConv_Stage3_L1_2_pointwise", "trainable": true, "dtype": "float32", "filters": 64, "kernel_size": [1, 1], "strides": [1, 1], "padding": "same", "data_format": "channels_last", "dilation_rate": [1, 1], "activation": "relu", "use_bias": false, "kernel_initializer": {"class_name": "VarianceScaling", "config": {"scale": 1.0, "mode": "fan_avg", "distribution": "uniform", "seed": null}}, "bias_initializer": {"class_name": "Zeros", "config": {}}, "kernel_regularizer": {"class_name": "L1L2", "config": {"l1": 0.0, "l2": 3.9999998989515007e-05}}, "bias_regularizer": null, "activity_regularizer": null, "kernel_constraint": null, "bias_constraint": null}, "inbound_nodes": [[["Openpose/MConv_Stage3_L1_2_depthwise", 0, 0, {}]]]}, {"name": "Openpose/MConv_Stage3_L2_2_pointwise", "class_name": "Conv2D", "config": {"name": "Openpose/MConv_Stage3_L2_2_pointwise", "trainable": true, "dtype": "float32", "filters": 64, "kernel_size": [1, 1], "strides": [1, 1], "padding": "same", "data_format": "channels_last", "dilation_rate": [1, 1], "activation": "relu", "use_bias": false, "kernel_initializer": {"class_name": "VarianceScaling", "config": {"scale": 1.0, "mode": "fan_avg", "distribution": "uniform", "seed": null}}, "bias_initializer": {"class_name": "Zeros", "config": {}}, "kernel_regularizer": {"class_name": "L1L2", "config": {"l1": 0.0, "l2": 3.9999998989515007e-05}}, "bias_regularizer": null, "activity_regularizer": null, "kernel_constraint": null, "bias_constraint": null}, "inbound_nodes": [[["Openpose/MConv_Stage3_L2_2_depthwise", 0, 0, {}]]]}, {"name": "Openpose/MConv_Stage3_L1_2BatchNorm", "class_name": "BatchNormalization", "config": {"name": "Openpose/MConv_Stage3_L1_2BatchNorm", "trainable": true, "dtype": "float32", "axis": -1, "momentum": 0.999, "epsilon": 0.001, "center": true, "scale": false, "beta_initializer": {"class_name": "Zeros", "config": {}}, "gamma_initializer": {"class_name": "Ones", "config": {}}, "moving_mean_initializer": {"class_name": "Zeros", "config": {}}, "moving_variance_initializer": {"class_name": "Ones", "config": {}}, "beta_regularizer": null, "gamma_regularizer": null, "beta_constraint": null, "gamma_constraint": null}, "inbound_nodes": [[["Openpose/MConv_Stage3_L1_2_pointwise", 0, 0, {}]]]}, {"name": "Openpose/MConv_Stage3_L2_2BatchNorm", "class_name": "BatchNormalization", "config": {"name": "Openpose/MConv_Stage3_L2_2BatchNorm", "trainable": true, "dtype": "float32", "axis": -1, "momentum": 0.999, "epsilon": 0.001, "center": true, "scale": false, "beta_initializer": {"class_name": "Zeros", "config": {}}, "gamma_initializer": {"class_name": "Ones", "config": {}}, "moving_mean_initializer": {"class_name": "Zeros", "config": {}}, "moving_variance_initializer": {"class_name": "Ones", "config": {}}, "beta_regularizer": null, "gamma_regularizer": null, "beta_constraint": null, "gamma_constraint": null}, "inbound_nodes": [[["Openpose/MConv_Stage3_L2_2_pointwise", 0, 0, {}]]]}, {"name": "Openpose/MConv_Stage3_L1_3_depthwise", "class_name": "DepthwiseConv2D", "config": {"name": "Openpose/MConv_Stage3_L1_3_depthwise", "trainable": true, "dtype": "float32", "kernel_size": [3, 3], "strides": [1, 1], "padding": "same", "data_format": "channels_last", "dilation_rate": [1, 1], "activation": "linear", "use_bias": false, "bias_initializer": {"class_name": "Zeros", "config": {}}, "bias_regularizer": null, "activity_regularizer": null, "bias_constraint": null, "depth_multiplier": 1, "depthwise_initializer": {"class_name": "VarianceScaling", "config": {"scale": 1.0, "mode": "fan_avg", "distribution": "uniform", "seed": null}}, "depthwise_regularizer": {"class_name": "L1L2", "config": {"l1": 0.0, "l2": 3.9999998989515007e-05}}, "depthwise_constraint": null}, "inbound_nodes": [[["Openpose/MConv_Stage3_L1_2BatchNorm", 0, 0, {}]]]}, {"name": "Openpose/MConv_Stage3_L2_3_depthwise", "class_name": "DepthwiseConv2D", "config": {"name": "Openpose/MConv_Stage3_L2_3_depthwise", "trainable": true, "dtype": "float32", "kernel_size": [3, 3], "strides": [1, 1], "padding": "same", "data_format": "channels_last", "dilation_rate": [1, 1], "activation": "linear", "use_bias": false, "bias_initializer": {"class_name": "Zeros", "config": {}}, "bias_regularizer": null, "activity_regularizer": null, "bias_constraint": null, "depth_multiplier": 1, "depthwise_initializer": {"class_name": "VarianceScaling", "config": {"scale": 1.0, "mode": "fan_avg", "distribution": "uniform", "seed": null}}, "depthwise_regularizer": {"class_name": "L1L2", "config": {"l1": 0.0, "l2": 3.9999998989515007e-05}}, "depthwise_constraint": null}, "inbound_nodes": [[["Openpose/MConv_Stage3_L2_2BatchNorm", 0, 0, {}]]]}, {"name": "Openpose/MConv_Stage3_L1_3_pointwise", "class_name": "Conv2D", "config": {"name": "Openpose/MConv_Stage3_L1_3_pointwise", "trainable": true, "dtype": "float32", "filters": 64, "kernel_size": [1, 1], "strides": [1, 1], "padding": "same", "data_format": "channels_last", "dilation_rate": [1, 1], "activation": "relu", "use_bias": false, "kernel_initializer": {"class_name": "VarianceScaling", "config": {"scale": 1.0, "mode": "fan_avg", "distribution": "uniform", "seed": null}}, "bias_initializer": {"class_name": "Zeros", "config": {}}, "kernel_regularizer": {"class_name": "L1L2", "config": {"l1": 0.0, "l2": 3.9999998989515007e-05}}, "bias_regularizer": null, "activity_regularizer": null, "kernel_constraint": null, "bias_constraint": null}, "inbound_nodes": [[["Openpose/MConv_Stage3_L1_3_depthwise", 0, 0, {}]]]}, {"name": "Openpose/MConv_Stage3_L2_3_pointwise", "class_name": "Conv2D", "config": {"name": "Openpose/MConv_Stage3_L2_3_pointwise", "trainable": true, "dtype": "float32", "filters": 64, "kernel_size": [1, 1], "strides": [1, 1], "padding": "same", "data_format": "channels_last", "dilation_rate": [1, 1], "activation": "relu", "use_bias": false, "kernel_initializer": {"class_name": "VarianceScaling", "config": {"scale": 1.0, "mode": "fan_avg", "distribution": "uniform", "seed": null}}, "bias_initializer": {"class_name": "Zeros", "config": {}}, "kernel_regularizer": {"class_name": "L1L2", "config": {"l1": 0.0, "l2": 3.9999998989515007e-05}}, "bias_regularizer": null, "activity_regularizer": null, "kernel_constraint": null, "bias_constraint": null}, "inbound_nodes": [[["Openpose/MConv_Stage3_L2_3_depthwise", 0, 0, {}]]]}, {"name": "Openpose/MConv_Stage3_L1_3BatchNorm", "class_name": "BatchNormalization", "config": {"name": "Openpose/MConv_Stage3_L1_3BatchNorm", "trainable": true, "dtype": "float32", "axis": -1, "momentum": 0.999, "epsilon": 0.001, "center": true, "scale": false, "beta_initializer": {"class_name": "Zeros", "config": {}}, "gamma_initializer": {"class_name": "Ones", "config": {}}, "moving_mean_initializer": {"class_name": "Zeros", "config": {}}, "moving_variance_initializer": {"class_name": "Ones", "config": {}}, "beta_regularizer": null, "gamma_regularizer": null, "beta_constraint": null, "gamma_constraint": null}, "inbound_nodes": [[["Openpose/MConv_Stage3_L1_3_pointwise", 0, 0, {}]]]}, {"name": "Openpose/MConv_Stage3_L2_3BatchNorm", "class_name": "BatchNormalization", "config": {"name": "Openpose/MConv_Stage3_L2_3BatchNorm", "trainable": true, "dtype": "float32", "axis": -1, "momentum": 0.999, "epsilon": 0.001, "center": true, "scale": false, "beta_initializer": {"class_name": "Zeros", "config": {}}, "gamma_initializer": {"class_name": "Ones", "config": {}}, "moving_mean_initializer": {"class_name": "Zeros", "config": {}}, "moving_variance_initializer": {"class_name": "Ones", "config": {}}, "beta_regularizer": null, "gamma_regularizer": null, "beta_constraint": null, "gamma_constraint": null}, "inbound_nodes": [[["Openpose/MConv_Stage3_L2_3_pointwise", 0, 0, {}]]]}, {"name": "Openpose/MConv_Stage3_L1_4_depthwise", "class_name": "DepthwiseConv2D", "config": {"name": "Openpose/MConv_Stage3_L1_4_depthwise", "trainable": true, "dtype": "float32", "kernel_size": [1, 1], "strides": [1, 1], "padding": "same", "data_format": "channels_last", "dilation_rate": [1, 1], "activation": "linear", "use_bias": false, "bias_initializer": {"class_name": "Zeros", "config": {}}, "bias_regularizer": null, "activity_regularizer": null, "bias_constraint": null, "depth_multiplier": 1, "depthwise_initializer": {"class_name": "VarianceScaling", "config": {"scale": 1.0, "mode": "fan_avg", "distribution": "uniform", "seed": null}}, "depthwise_regularizer": {"class_name": "L1L2", "config": {"l1": 0.0, "l2": 3.9999998989515007e-05}}, "depthwise_constraint": null}, "inbound_nodes": [[["Openpose/MConv_Stage3_L1_3BatchNorm", 0, 0, {}]]]}, {"name": "Openpose/MConv_Stage3_L2_4_depthwise", "class_name": "DepthwiseConv2D", "config": {"name": "Openpose/MConv_Stage3_L2_4_depthwise", "trainable": true, "dtype": "float32", "kernel_size": [1, 1], "strides": [1, 1], "padding": "same", "data_format": "channels_last", "dilation_rate": [1, 1], "activation": "linear", "use_bias": false, "bias_initializer": {"class_name": "Zeros", "config": {}}, "bias_regularizer": null, "activity_regularizer": null, "bias_constraint": null, "depth_multiplier": 1, "depthwise_initializer": {"class_name": "VarianceScaling", "config": {"scale": 1.0, "mode": "fan_avg", "distribution": "uniform", "seed": null}}, "depthwise_regularizer": {"class_name": "L1L2", "config": {"l1": 0.0, "l2": 3.9999998989515007e-05}}, "depthwise_constraint": null}, "inbound_nodes": [[["Openpose/MConv_Stage3_L2_3BatchNorm", 0, 0, {}]]]}, {"name": "Openpose/MConv_Stage3_L1_4_pointwise", "class_name": "Conv2D", "config": {"name": "Openpose/MConv_Stage3_L1_4_pointwise", "trainable": true, "dtype": "float32", "filters": 64, "kernel_size": [1, 1], "strides": [1, 1], "padding": "same", "data_format": "channels_last", "dilation_rate": [1, 1], "activation": "relu", "use_bias": false, "kernel_initializer": {"class_name": "VarianceScaling", "config": {"scale": 1.0, "mode": "fan_avg", "distribution": "uniform", "seed": null}}, "bias_initializer": {"class_name": "Zeros", "config": {}}, "kernel_regularizer": {"class_name": "L1L2", "config": {"l1": 0.0, "l2": 3.9999998989515007e-05}}, "bias_regularizer": null, "activity_regularizer": null, "kernel_constraint": null, "bias_constraint": null}, "inbound_nodes": [[["Openpose/MConv_Stage3_L1_4_depthwise", 0, 0, {}]]]}, {"name": "Openpose/MConv_Stage3_L2_4_pointwise", "class_name": "Conv2D", "config": {"name": "Openpose/MConv_Stage3_L2_4_pointwise", "trainable": true, "dtype": "float32", "filters": 64, "kernel_size": [1, 1], "strides": [1, 1], "padding": "same", "data_format": "channels_last", "dilation_rate": [1, 1], "activation": "relu", "use_bias": false, "kernel_initializer": {"class_name": "VarianceScaling", "config": {"scale": 1.0, "mode": "fan_avg", "distribution": "uniform", "seed": null}}, "bias_initializer": {"class_name": "Zeros", "config": {}}, "kernel_regularizer": {"class_name": "L1L2", "config": {"l1": 0.0, "l2": 3.9999998989515007e-05}}, "bias_regularizer": null, "activity_regularizer": null, "kernel_constraint": null, "bias_constraint": null}, "inbound_nodes": [[["Openpose/MConv_Stage3_L2_4_depthwise", 0, 0, {}]]]}, {"name": "Openpose/MConv_Stage3_L1_4BatchNorm", "class_name": "BatchNormalization", "config": {"name": "Openpose/MConv_Stage3_L1_4BatchNorm", "trainable": true, "dtype": "float32", "axis": -1, "momentum": 0.999, "epsilon": 0.001, "center": true, "scale": false, "beta_initializer": {"class_name": "Zeros", "config": {}}, "gamma_initializer": {"class_name": "Ones", "config": {}}, "moving_mean_initializer": {"class_name": "Zeros", "config": {}}, "moving_variance_initializer": {"class_name": "Ones", "config": {}}, "beta_regularizer": null, "gamma_regularizer": null, "beta_constraint": null, "gamma_constraint": null}, "inbound_nodes": [[["Openpose/MConv_Stage3_L1_4_pointwise", 0, 0, {}]]]}, {"name": "Openpose/MConv_Stage3_L2_4BatchNorm", "class_name": "BatchNormalization", "config": {"name": "Openpose/MConv_Stage3_L2_4BatchNorm", "trainable": true, "dtype": "float32", "axis": -1, "momentum": 0.999, "epsilon": 0.001, "center": true, "scale": false, "beta_initializer": {"class_name": "Zeros", "config": {}}, "gamma_initializer": {"class_name": "Ones", "config": {}}, "moving_mean_initializer": {"class_name": "Zeros", "config": {}}, "moving_variance_initializer": {"class_name": "Ones", "config": {}}, "beta_regularizer": null, "gamma_regularizer": null, "beta_constraint": null, "gamma_constraint": null}, "inbound_nodes": [[["Openpose/MConv_Stage3_L2_4_pointwise", 0, 0, {}]]]}, {"name": "Openpose/MConv_Stage3_L1_5_depthwise", "class_name": "DepthwiseConv2D", "config": {"name": "Openpose/MConv_Stage3_L1_5_depthwise", "trainable": true, "dtype": "float32", "kernel_size": [1, 1], "strides": [1, 1], "padding": "same", "data_format": "channels_last", "dilation_rate": [1, 1], "activation": "linear", "use_bias": false, "bias_initializer": {"class_name": "Zeros", "config": {}}, "bias_regularizer": null, "activity_regularizer": null, "bias_constraint": null, "depth_multiplier": 1, "depthwise_initializer": {"class_name": "VarianceScaling", "config": {"scale": 1.0, "mode": "fan_avg", "distribution": "uniform", "seed": null}}, "depthwise_regularizer": {"class_name": "L1L2", "config": {"l1": 0.0, "l2": 3.9999998989515007e-05}}, "depthwise_constraint": null}, "inbound_nodes": [[["Openpose/MConv_Stage3_L1_4BatchNorm", 0, 0, {}]]]}, {"name": "Openpose/MConv_Stage3_L2_5_depthwise", "class_name": "DepthwiseConv2D", "config": {"name": "Openpose/MConv_Stage3_L2_5_depthwise", "trainable": true, "dtype": "float32", "kernel_size": [1, 1], "strides": [1, 1], "padding": "same", "data_format": "channels_last", "dilation_rate": [1, 1], "activation": "linear", "use_bias": false, "bias_initializer": {"class_name": "Zeros", "config": {}}, "bias_regularizer": null, "activity_regularizer": null, "bias_constraint": null, "depth_multiplier": 1, "depthwise_initializer": {"class_name": "VarianceScaling", "config": {"scale": 1.0, "mode": "fan_avg", "distribution": "uniform", "seed": null}}, "depthwise_regularizer": {"class_name": "L1L2", "config": {"l1": 0.0, "l2": 3.9999998989515007e-05}}, "depthwise_constraint": null}, "inbound_nodes": [[["Openpose/MConv_Stage3_L2_4BatchNorm", 0, 0, {}]]]}, {"name": "Openpose/MConv_Stage3_L1_5_pointwise", "class_name": "Conv2D", "config": {"name": "Openpose/MConv_Stage3_L1_5_pointwise", "trainable": true, "dtype": "float32", "filters": 38, "kernel_size": [1, 1], "strides": [1, 1], "padding": "same", "data_format": "channels_last", "dilation_rate": [1, 1], "activation": "linear", "use_bias": false, "kernel_initializer": {"class_name": "VarianceScaling", "config": {"scale": 1.0, "mode": "fan_avg", "distribution": "uniform", "seed": null}}, "bias_initializer": {"class_name": "Zeros", "config": {}}, "kernel_regularizer": {"class_name": "L1L2", "config": {"l1": 0.0, "l2": 3.9999998989515007e-05}}, "bias_regularizer": null, "activity_regularizer": null, "kernel_constraint": null, "bias_constraint": null}, "inbound_nodes": [[["Openpose/MConv_Stage3_L1_5_depthwise", 0, 0, {}]]]}, {"name": "Openpose/MConv_Stage3_L2_5_pointwise", "class_name": "Conv2D", "config": {"name": "Openpose/MConv_Stage3_L2_5_pointwise", "trainable": true, "dtype": "float32", "filters": 22, "kernel_size": [1, 1], "strides": [1, 1], "padding": "same", "data_format": "channels_last", "dilation_rate": [1, 1], "activation": "linear", "use_bias": false, "kernel_initializer": {"class_name": "VarianceScaling", "config": {"scale": 1.0, "mode": "fan_avg", "distribution": "uniform", "seed": null}}, "bias_initializer": {"class_name": "Zeros", "config": {}}, "kernel_regularizer": {"class_name": "L1L2", "config": {"l1": 0.0, "l2": 3.9999998989515007e-05}}, "bias_regularizer": null, "activity_regularizer": null, "kernel_constraint": null, "bias_constraint": null}, "inbound_nodes": [[["Openpose/MConv_Stage3_L2_5_depthwise", 0, 0, {}]]]}, {"name": "Openpose/MConv_Stage3_L1_5BatchNorm", "class_name": "BatchNormalization", "config": {"name": "Openpose/MConv_Stage3_L1_5BatchNorm", "trainable": true, "dtype": "float32", "axis": -1, "momentum": 0.999, "epsilon": 0.001, "center": true, "scale": false, "beta_initializer": {"class_name": "Zeros", "config": {}}, "gamma_initializer": {"class_name": "Ones", "config": {}}, "moving_mean_initializer": {"class_name": "Zeros", "config": {}}, "moving_variance_initializer": {"class_name": "Ones", "config": {}}, "beta_regularizer": null, "gamma_regularizer": null, "beta_constraint": null, "gamma_constraint": null}, "inbound_nodes": [[["Openpose/MConv_Stage3_L1_5_pointwise", 0, 0, {}]]]}, {"name": "Openpose/MConv_Stage3_L2_5BatchNorm", "class_name": "BatchNormalization", "config": {"name": "Openpose/MConv_Stage3_L2_5BatchNorm", "trainable": true, "dtype": "float32", "axis": -1, "momentum": 0.999, "epsilon": 0.001, "center": true, "scale": false, "beta_initializer": {"class_name": "Zeros", "config": {}}, "gamma_initializer": {"class_name": "Ones", "config": {}}, "moving_mean_initializer": {"class_name": "Zeros", "config": {}}, "moving_variance_initializer": {"class_name": "Ones", "config": {}}, "beta_regularizer": null, "gamma_regularizer": null, "beta_constraint": null, "gamma_constraint": null}, "inbound_nodes": [[["Openpose/MConv_Stage3_L2_5_pointwise", 0, 0, {}]]]}, {"name": "Openpose/MConv_Stage4_concat", "class_name": "Concatenate", "config": {"name": "Openpose/MConv_Stage4_concat", "trainable": true, "dtype": "float32", "axis": 3}, "inbound_nodes": [[["Openpose/MConv_Stage3_L1_5BatchNorm", 0, 0, {}], ["Openpose/MConv_Stage3_L2_5BatchNorm", 0, 0, {}], ["feat_concat", 0, 0, {}]]]}, {"name": "Openpose/MConv_Stage4_L1_1_depthwise", "class_name": "DepthwiseConv2D", "config": {"name": "Openpose/MConv_Stage4_L1_1_depthwise", "trainable": true, "dtype": "float32", "kernel_size": [3, 3], "strides": [1, 1], "padding": "same", "data_format": "channels_last", "dilation_rate": [1, 1], "activation": "linear", "use_bias": false, "bias_initializer": {"class_name": "Zeros", "config": {}}, "bias_regularizer": null, "activity_regularizer": null, "bias_constraint": null, "depth_multiplier": 1, "depthwise_initializer": {"class_name": "VarianceScaling", "config": {"scale": 1.0, "mode": "fan_avg", "distribution": "uniform", "seed": null}}, "depthwise_regularizer": {"class_name": "L1L2", "config": {"l1": 0.0, "l2": 3.9999998989515007e-05}}, "depthwise_constraint": null}, "inbound_nodes": [[["Openpose/MConv_Stage4_concat", 0, 0, {}]]]}, {"name": "Openpose/MConv_Stage4_L2_1_depthwise", "class_name": "DepthwiseConv2D", "config": {"name": "Openpose/MConv_Stage4_L2_1_depthwise", "trainable": true, "dtype": "float32", "kernel_size": [3, 3], "strides": [1, 1], "padding": "same", "data_format": "channels_last", "dilation_rate": [1, 1], "activation": "linear", "use_bias": false, "bias_initializer": {"class_name": "Zeros", "config": {}}, "bias_regularizer": null, "activity_regularizer": null, "bias_constraint": null, "depth_multiplier": 1, "depthwise_initializer": {"class_name": "VarianceScaling", "config": {"scale": 1.0, "mode": "fan_avg", "distribution": "uniform", "seed": null}}, "depthwise_regularizer": {"class_name": "L1L2", "config": {"l1": 0.0, "l2": 3.9999998989515007e-05}}, "depthwise_constraint": null}, "inbound_nodes": [[["Openpose/MConv_Stage4_concat", 0, 0, {}]]]}, {"name": "Openpose/MConv_Stage4_L1_1_pointwise", "class_name": "Conv2D", "config": {"name": "Openpose/MConv_Stage4_L1_1_pointwise", "trainable": true, "dtype": "float32", "filters": 64, "kernel_size": [1, 1], "strides": [1, 1], "padding": "same", "data_format": "channels_last", "dilation_rate": [1, 1], "activation": "relu", "use_bias": false, "kernel_initializer": {"class_name": "VarianceScaling", "config": {"scale": 1.0, "mode": "fan_avg", "distribution": "uniform", "seed": null}}, "bias_initializer": {"class_name": "Zeros", "config": {}}, "kernel_regularizer": {"class_name": "L1L2", "config": {"l1": 0.0, "l2": 3.9999998989515007e-05}}, "bias_regularizer": null, "activity_regularizer": null, "kernel_constraint": null, "bias_constraint": null}, "inbound_nodes": [[["Openpose/MConv_Stage4_L1_1_depthwise", 0, 0, {}]]]}, {"name": "Openpose/MConv_Stage4_L2_1_pointwise", "class_name": "Conv2D", "config": {"name": "Openpose/MConv_Stage4_L2_1_pointwise", "trainable": true, "dtype": "float32", "filters": 64, "kernel_size": [1, 1], "strides": [1, 1], "padding": "same", "data_format": "channels_last", "dilation_rate": [1, 1], "activation": "relu", "use_bias": false, "kernel_initializer": {"class_name": "VarianceScaling", "config": {"scale": 1.0, "mode": "fan_avg", "distribution": "uniform", "seed": null}}, "bias_initializer": {"class_name": "Zeros", "config": {}}, "kernel_regularizer": {"class_name": "L1L2", "config": {"l1": 0.0, "l2": 3.9999998989515007e-05}}, "bias_regularizer": null, "activity_regularizer": null, "kernel_constraint": null, "bias_constraint": null}, "inbound_nodes": [[["Openpose/MConv_Stage4_L2_1_depthwise", 0, 0, {}]]]}, {"name": "Openpose/MConv_Stage4_L1_1BatchNorm", "class_name": "BatchNormalization", "config": {"name": "Openpose/MConv_Stage4_L1_1BatchNorm", "trainable": true, "dtype": "float32", "axis": -1, "momentum": 0.999, "epsilon": 0.001, "center": true, "scale": false, "beta_initializer": {"class_name": "Zeros", "config": {}}, "gamma_initializer": {"class_name": "Ones", "config": {}}, "moving_mean_initializer": {"class_name": "Zeros", "config": {}}, "moving_variance_initializer": {"class_name": "Ones", "config": {}}, "beta_regularizer": null, "gamma_regularizer": null, "beta_constraint": null, "gamma_constraint": null}, "inbound_nodes": [[["Openpose/MConv_Stage4_L1_1_pointwise", 0, 0, {}]]]}, {"name": "Openpose/MConv_Stage4_L2_1BatchNorm", "class_name": "BatchNormalization", "config": {"name": "Openpose/MConv_Stage4_L2_1BatchNorm", "trainable": true, "dtype": "float32", "axis": -1, "momentum": 0.999, "epsilon": 0.001, "center": true, "scale": false, "beta_initializer": {"class_name": "Zeros", "config": {}}, "gamma_initializer": {"class_name": "Ones", "config": {}}, "moving_mean_initializer": {"class_name": "Zeros", "config": {}}, "moving_variance_initializer": {"class_name": "Ones", "config": {}}, "beta_regularizer": null, "gamma_regularizer": null, "beta_constraint": null, "gamma_constraint": null}, "inbound_nodes": [[["Openpose/MConv_Stage4_L2_1_pointwise", 0, 0, {}]]]}, {"name": "Openpose/MConv_Stage4_L1_2_depthwise", "class_name": "DepthwiseConv2D", "config": {"name": "Openpose/MConv_Stage4_L1_2_depthwise", "trainable": true, "dtype": "float32", "kernel_size": [3, 3], "strides": [1, 1], "padding": "same", "data_format": "channels_last", "dilation_rate": [1, 1], "activation": "linear", "use_bias": false, "bias_initializer": {"class_name": "Zeros", "config": {}}, "bias_regularizer": null, "activity_regularizer": null, "bias_constraint": null, "depth_multiplier": 1, "depthwise_initializer": {"class_name": "VarianceScaling", "config": {"scale": 1.0, "mode": "fan_avg", "distribution": "uniform", "seed": null}}, "depthwise_regularizer": {"class_name": "L1L2", "config": {"l1": 0.0, "l2": 3.9999998989515007e-05}}, "depthwise_constraint": null}, "inbound_nodes": [[["Openpose/MConv_Stage4_L1_1BatchNorm", 0, 0, {}]]]}, {"name": "Openpose/MConv_Stage4_L2_2_depthwise", "class_name": "DepthwiseConv2D", "config": {"name": "Openpose/MConv_Stage4_L2_2_depthwise", "trainable": true, "dtype": "float32", "kernel_size": [3, 3], "strides": [1, 1], "padding": "same", "data_format": "channels_last", "dilation_rate": [1, 1], "activation": "linear", "use_bias": false, "bias_initializer": {"class_name": "Zeros", "config": {}}, "bias_regularizer": null, "activity_regularizer": null, "bias_constraint": null, "depth_multiplier": 1, "depthwise_initializer": {"class_name": "VarianceScaling", "config": {"scale": 1.0, "mode": "fan_avg", "distribution": "uniform", "seed": null}}, "depthwise_regularizer": {"class_name": "L1L2", "config": {"l1": 0.0, "l2": 3.9999998989515007e-05}}, "depthwise_constraint": null}, "inbound_nodes": [[["Openpose/MConv_Stage4_L2_1BatchNorm", 0, 0, {}]]]}, {"name": "Openpose/MConv_Stage4_L1_2_pointwise", "class_name": "Conv2D", "config": {"name": "Openpose/MConv_Stage4_L1_2_pointwise", "trainable": true, "dtype": "float32", "filters": 64, "kernel_size": [1, 1], "strides": [1, 1], "padding": "same", "data_format": "channels_last", "dilation_rate": [1, 1], "activation": "relu", "use_bias": false, "kernel_initializer": {"class_name": "VarianceScaling", "config": {"scale": 1.0, "mode": "fan_avg", "distribution": "uniform", "seed": null}}, "bias_initializer": {"class_name": "Zeros", "config": {}}, "kernel_regularizer": {"class_name": "L1L2", "config": {"l1": 0.0, "l2": 3.9999998989515007e-05}}, "bias_regularizer": null, "activity_regularizer": null, "kernel_constraint": null, "bias_constraint": null}, "inbound_nodes": [[["Openpose/MConv_Stage4_L1_2_depthwise", 0, 0, {}]]]}, {"name": "Openpose/MConv_Stage4_L2_2_pointwise", "class_name": "Conv2D", "config": {"name": "Openpose/MConv_Stage4_L2_2_pointwise", "trainable": true, "dtype": "float32", "filters": 64, "kernel_size": [1, 1], "strides": [1, 1], "padding": "same", "data_format": "channels_last", "dilation_rate": [1, 1], "activation": "relu", "use_bias": false, "kernel_initializer": {"class_name": "VarianceScaling", "config": {"scale": 1.0, "mode": "fan_avg", "distribution": "uniform", "seed": null}}, "bias_initializer": {"class_name": "Zeros", "config": {}}, "kernel_regularizer": {"class_name": "L1L2", "config": {"l1": 0.0, "l2": 3.9999998989515007e-05}}, "bias_regularizer": null, "activity_regularizer": null, "kernel_constraint": null, "bias_constraint": null}, "inbound_nodes": [[["Openpose/MConv_Stage4_L2_2_depthwise", 0, 0, {}]]]}, {"name": "Openpose/MConv_Stage4_L1_2BatchNorm", "class_name": "BatchNormalization", "config": {"name": "Openpose/MConv_Stage4_L1_2BatchNorm", "trainable": true, "dtype": "float32", "axis": -1, "momentum": 0.999, "epsilon": 0.001, "center": true, "scale": false, "beta_initializer": {"class_name": "Zeros", "config": {}}, "gamma_initializer": {"class_name": "Ones", "config": {}}, "moving_mean_initializer": {"class_name": "Zeros", "config": {}}, "moving_variance_initializer": {"class_name": "Ones", "config": {}}, "beta_regularizer": null, "gamma_regularizer": null, "beta_constraint": null, "gamma_constraint": null}, "inbound_nodes": [[["Openpose/MConv_Stage4_L1_2_pointwise", 0, 0, {}]]]}, {"name": "Openpose/MConv_Stage4_L2_2BatchNorm", "class_name": "BatchNormalization", "config": {"name": "Openpose/MConv_Stage4_L2_2BatchNorm", "trainable": true, "dtype": "float32", "axis": -1, "momentum": 0.999, "epsilon": 0.001, "center": true, "scale": false, "beta_initializer": {"class_name": "Zeros", "config": {}}, "gamma_initializer": {"class_name": "Ones", "config": {}}, "moving_mean_initializer": {"class_name": "Zeros", "config": {}}, "moving_variance_initializer": {"class_name": "Ones", "config": {}}, "beta_regularizer": null, "gamma_regularizer": null, "beta_constraint": null, "gamma_constraint": null}, "inbound_nodes": [[["Openpose/MConv_Stage4_L2_2_pointwise", 0, 0, {}]]]}, {"name": "Openpose/MConv_Stage4_L1_3_depthwise", "class_name": "DepthwiseConv2D", "config": {"name": "Openpose/MConv_Stage4_L1_3_depthwise", "trainable": true, "dtype": "float32", "kernel_size": [3, 3], "strides": [1, 1], "padding": "same", "data_format": "channels_last", "dilation_rate": [1, 1], "activation": "linear", "use_bias": false, "bias_initializer": {"class_name": "Zeros", "config": {}}, "bias_regularizer": null, "activity_regularizer": null, "bias_constraint": null, "depth_multiplier": 1, "depthwise_initializer": {"class_name": "VarianceScaling", "config": {"scale": 1.0, "mode": "fan_avg", "distribution": "uniform", "seed": null}}, "depthwise_regularizer": {"class_name": "L1L2", "config": {"l1": 0.0, "l2": 3.9999998989515007e-05}}, "depthwise_constraint": null}, "inbound_nodes": [[["Openpose/MConv_Stage4_L1_2BatchNorm", 0, 0, {}]]]}, {"name": "Openpose/MConv_Stage4_L2_3_depthwise", "class_name": "DepthwiseConv2D", "config": {"name": "Openpose/MConv_Stage4_L2_3_depthwise", "trainable": true, "dtype": "float32", "kernel_size": [3, 3], "strides": [1, 1], "padding": "same", "data_format": "channels_last", "dilation_rate": [1, 1], "activation": "linear", "use_bias": false, "bias_initializer": {"class_name": "Zeros", "config": {}}, "bias_regularizer": null, "activity_regularizer": null, "bias_constraint": null, "depth_multiplier": 1, "depthwise_initializer": {"class_name": "VarianceScaling", "config": {"scale": 1.0, "mode": "fan_avg", "distribution": "uniform", "seed": null}}, "depthwise_regularizer": {"class_name": "L1L2", "config": {"l1": 0.0, "l2": 3.9999998989515007e-05}}, "depthwise_constraint": null}, "inbound_nodes": [[["Openpose/MConv_Stage4_L2_2BatchNorm", 0, 0, {}]]]}, {"name": "Openpose/MConv_Stage4_L1_3_pointwise", "class_name": "Conv2D", "config": {"name": "Openpose/MConv_Stage4_L1_3_pointwise", "trainable": true, "dtype": "float32", "filters": 64, "kernel_size": [1, 1], "strides": [1, 1], "padding": "same", "data_format": "channels_last", "dilation_rate": [1, 1], "activation": "relu", "use_bias": false, "kernel_initializer": {"class_name": "VarianceScaling", "config": {"scale": 1.0, "mode": "fan_avg", "distribution": "uniform", "seed": null}}, "bias_initializer": {"class_name": "Zeros", "config": {}}, "kernel_regularizer": {"class_name": "L1L2", "config": {"l1": 0.0, "l2": 3.9999998989515007e-05}}, "bias_regularizer": null, "activity_regularizer": null, "kernel_constraint": null, "bias_constraint": null}, "inbound_nodes": [[["Openpose/MConv_Stage4_L1_3_depthwise", 0, 0, {}]]]}, {"name": "Openpose/MConv_Stage4_L2_3_pointwise", "class_name": "Conv2D", "config": {"name": "Openpose/MConv_Stage4_L2_3_pointwise", "trainable": true, "dtype": "float32", "filters": 64, "kernel_size": [1, 1], "strides": [1, 1], "padding": "same", "data_format": "channels_last", "dilation_rate": [1, 1], "activation": "relu", "use_bias": false, "kernel_initializer": {"class_name": "VarianceScaling", "config": {"scale": 1.0, "mode": "fan_avg", "distribution": "uniform", "seed": null}}, "bias_initializer": {"class_name": "Zeros", "config": {}}, "kernel_regularizer": {"class_name": "L1L2", "config": {"l1": 0.0, "l2": 3.9999998989515007e-05}}, "bias_regularizer": null, "activity_regularizer": null, "kernel_constraint": null, "bias_constraint": null}, "inbound_nodes": [[["Openpose/MConv_Stage4_L2_3_depthwise", 0, 0, {}]]]}, {"name": "Openpose/MConv_Stage4_L1_3BatchNorm", "class_name": "BatchNormalization", "config": {"name": "Openpose/MConv_Stage4_L1_3BatchNorm", "trainable": true, "dtype": "float32", "axis": -1, "momentum": 0.999, "epsilon": 0.001, "center": true, "scale": false, "beta_initializer": {"class_name": "Zeros", "config": {}}, "gamma_initializer": {"class_name": "Ones", "config": {}}, "moving_mean_initializer": {"class_name": "Zeros", "config": {}}, "moving_variance_initializer": {"class_name": "Ones", "config": {}}, "beta_regularizer": null, "gamma_regularizer": null, "beta_constraint": null, "gamma_constraint": null}, "inbound_nodes": [[["Openpose/MConv_Stage4_L1_3_pointwise", 0, 0, {}]]]}, {"name": "Openpose/MConv_Stage4_L2_3BatchNorm", "class_name": "BatchNormalization", "config": {"name": "Openpose/MConv_Stage4_L2_3BatchNorm", "trainable": true, "dtype": "float32", "axis": -1, "momentum": 0.999, "epsilon": 0.001, "center": true, "scale": false, "beta_initializer": {"class_name": "Zeros", "config": {}}, "gamma_initializer": {"class_name": "Ones", "config": {}}, "moving_mean_initializer": {"class_name": "Zeros", "config": {}}, "moving_variance_initializer": {"class_name": "Ones", "config": {}}, "beta_regularizer": null, "gamma_regularizer": null, "beta_constraint": null, "gamma_constraint": null}, "inbound_nodes": [[["Openpose/MConv_Stage4_L2_3_pointwise", 0, 0, {}]]]}, {"name": "Openpose/MConv_Stage4_L1_4_depthwise", "class_name": "DepthwiseConv2D", "config": {"name": "Openpose/MConv_Stage4_L1_4_depthwise", "trainable": true, "dtype": "float32", "kernel_size": [1, 1], "strides": [1, 1], "padding": "same", "data_format": "channels_last", "dilation_rate": [1, 1], "activation": "linear", "use_bias": false, "bias_initializer": {"class_name": "Zeros", "config": {}}, "bias_regularizer": null, "activity_regularizer": null, "bias_constraint": null, "depth_multiplier": 1, "depthwise_initializer": {"class_name": "VarianceScaling", "config": {"scale": 1.0, "mode": "fan_avg", "distribution": "uniform", "seed": null}}, "depthwise_regularizer": {"class_name": "L1L2", "config": {"l1": 0.0, "l2": 3.9999998989515007e-05}}, "depthwise_constraint": null}, "inbound_nodes": [[["Openpose/MConv_Stage4_L1_3BatchNorm", 0, 0, {}]]]}, {"name": "Openpose/MConv_Stage4_L2_4_depthwise", "class_name": "DepthwiseConv2D", "config": {"name": "Openpose/MConv_Stage4_L2_4_depthwise", "trainable": true, "dtype": "float32", "kernel_size": [1, 1], "strides": [1, 1], "padding": "same", "data_format": "channels_last", "dilation_rate": [1, 1], "activation": "linear", "use_bias": false, "bias_initializer": {"class_name": "Zeros", "config": {}}, "bias_regularizer": null, "activity_regularizer": null, "bias_constraint": null, "depth_multiplier": 1, "depthwise_initializer": {"class_name": "VarianceScaling", "config": {"scale": 1.0, "mode": "fan_avg", "distribution": "uniform", "seed": null}}, "depthwise_regularizer": {"class_name": "L1L2", "config": {"l1": 0.0, "l2": 3.9999998989515007e-05}}, "depthwise_constraint": null}, "inbound_nodes": [[["Openpose/MConv_Stage4_L2_3BatchNorm", 0, 0, {}]]]}, {"name": "Openpose/MConv_Stage4_L1_4_pointwise", "class_name": "Conv2D", "config": {"name": "Openpose/MConv_Stage4_L1_4_pointwise", "trainable": true, "dtype": "float32", "filters": 64, "kernel_size": [1, 1], "strides": [1, 1], "padding": "same", "data_format": "channels_last", "dilation_rate": [1, 1], "activation": "relu", "use_bias": false, "kernel_initializer": {"class_name": "VarianceScaling", "config": {"scale": 1.0, "mode": "fan_avg", "distribution": "uniform", "seed": null}}, "bias_initializer": {"class_name": "Zeros", "config": {}}, "kernel_regularizer": {"class_name": "L1L2", "config": {"l1": 0.0, "l2": 3.9999998989515007e-05}}, "bias_regularizer": null, "activity_regularizer": null, "kernel_constraint": null, "bias_constraint": null}, "inbound_nodes": [[["Openpose/MConv_Stage4_L1_4_depthwise", 0, 0, {}]]]}, {"name": "Openpose/MConv_Stage4_L2_4_pointwise", "class_name": "Conv2D", "config": {"name": "Openpose/MConv_Stage4_L2_4_pointwise", "trainable": true, "dtype": "float32", "filters": 64, "kernel_size": [1, 1], "strides": [1, 1], "padding": "same", "data_format": "channels_last", "dilation_rate": [1, 1], "activation": "relu", "use_bias": false, "kernel_initializer": {"class_name": "VarianceScaling", "config": {"scale": 1.0, "mode": "fan_avg", "distribution": "uniform", "seed": null}}, "bias_initializer": {"class_name": "Zeros", "config": {}}, "kernel_regularizer": {"class_name": "L1L2", "config": {"l1": 0.0, "l2": 3.9999998989515007e-05}}, "bias_regularizer": null, "activity_regularizer": null, "kernel_constraint": null, "bias_constraint": null}, "inbound_nodes": [[["Openpose/MConv_Stage4_L2_4_depthwise", 0, 0, {}]]]}, {"name": "Openpose/MConv_Stage4_L1_4BatchNorm", "class_name": "BatchNormalization", "config": {"name": "Openpose/MConv_Stage4_L1_4BatchNorm", "trainable": true, "dtype": "float32", "axis": -1, "momentum": 0.999, "epsilon": 0.001, "center": true, "scale": false, "beta_initializer": {"class_name": "Zeros", "config": {}}, "gamma_initializer": {"class_name": "Ones", "config": {}}, "moving_mean_initializer": {"class_name": "Zeros", "config": {}}, "moving_variance_initializer": {"class_name": "Ones", "config": {}}, "beta_regularizer": null, "gamma_regularizer": null, "beta_constraint": null, "gamma_constraint": null}, "inbound_nodes": [[["Openpose/MConv_Stage4_L1_4_pointwise", 0, 0, {}]]]}, {"name": "Openpose/MConv_Stage4_L2_4BatchNorm", "class_name": "BatchNormalization", "config": {"name": "Openpose/MConv_Stage4_L2_4BatchNorm", "trainable": true, "dtype": "float32", "axis": -1, "momentum": 0.999, "epsilon": 0.001, "center": true, "scale": false, "beta_initializer": {"class_name": "Zeros", "config": {}}, "gamma_initializer": {"class_name": "Ones", "config": {}}, "moving_mean_initializer": {"class_name": "Zeros", "config": {}}, "moving_variance_initializer": {"class_name": "Ones", "config": {}}, "beta_regularizer": null, "gamma_regularizer": null, "beta_constraint": null, "gamma_constraint": null}, "inbound_nodes": [[["Openpose/MConv_Stage4_L2_4_pointwise", 0, 0, {}]]]}, {"name": "Openpose/MConv_Stage4_L1_5_depthwise", "class_name": "DepthwiseConv2D", "config": {"name": "Openpose/MConv_Stage4_L1_5_depthwise", "trainable": true, "dtype": "float32", "kernel_size": [1, 1], "strides": [1, 1], "padding": "same", "data_format": "channels_last", "dilation_rate": [1, 1], "activation": "linear", "use_bias": false, "bias_initializer": {"class_name": "Zeros", "config": {}}, "bias_regularizer": null, "activity_regularizer": null, "bias_constraint": null, "depth_multiplier": 1, "depthwise_initializer": {"class_name": "VarianceScaling", "config": {"scale": 1.0, "mode": "fan_avg", "distribution": "uniform", "seed": null}}, "depthwise_regularizer": {"class_name": "L1L2", "config": {"l1": 0.0, "l2": 3.9999998989515007e-05}}, "depthwise_constraint": null}, "inbound_nodes": [[["Openpose/MConv_Stage4_L1_4BatchNorm", 0, 0, {}]]]}, {"name": "Openpose/MConv_Stage4_L2_5_depthwise", "class_name": "DepthwiseConv2D", "config": {"name": "Openpose/MConv_Stage4_L2_5_depthwise", "trainable": true, "dtype": "float32", "kernel_size": [1, 1], "strides": [1, 1], "padding": "same", "data_format": "channels_last", "dilation_rate": [1, 1], "activation": "linear", "use_bias": false, "bias_initializer": {"class_name": "Zeros", "config": {}}, "bias_regularizer": null, "activity_regularizer": null, "bias_constraint": null, "depth_multiplier": 1, "depthwise_initializer": {"class_name": "VarianceScaling", "config": {"scale": 1.0, "mode": "fan_avg", "distribution": "uniform", "seed": null}}, "depthwise_regularizer": {"class_name": "L1L2", "config": {"l1": 0.0, "l2": 3.9999998989515007e-05}}, "depthwise_constraint": null}, "inbound_nodes": [[["Openpose/MConv_Stage4_L2_4BatchNorm", 0, 0, {}]]]}, {"name": "Openpose/MConv_Stage4_L1_5_pointwise", "class_name": "Conv2D", "config": {"name": "Openpose/MConv_Stage4_L1_5_pointwise", "trainable": true, "dtype": "float32", "filters": 38, "kernel_size": [1, 1], "strides": [1, 1], "padding": "same", "data_format": "channels_last", "dilation_rate": [1, 1], "activation": "linear", "use_bias": false, "kernel_initializer": {"class_name": "VarianceScaling", "config": {"scale": 1.0, "mode": "fan_avg", "distribution": "uniform", "seed": null}}, "bias_initializer": {"class_name": "Zeros", "config": {}}, "kernel_regularizer": {"class_name": "L1L2", "config": {"l1": 0.0, "l2": 3.9999998989515007e-05}}, "bias_regularizer": null, "activity_regularizer": null, "kernel_constraint": null, "bias_constraint": null}, "inbound_nodes": [[["Openpose/MConv_Stage4_L1_5_depthwise", 0, 0, {}]]]}, {"name": "Openpose/MConv_Stage4_L2_5_pointwise", "class_name": "Conv2D", "config": {"name": "Openpose/MConv_Stage4_L2_5_pointwise", "trainable": true, "dtype": "float32", "filters": 22, "kernel_size": [1, 1], "strides": [1, 1], "padding": "same", "data_format": "channels_last", "dilation_rate": [1, 1], "activation": "linear", "use_bias": false, "kernel_initializer": {"class_name": "VarianceScaling", "config": {"scale": 1.0, "mode": "fan_avg", "distribution": "uniform", "seed": null}}, "bias_initializer": {"class_name": "Zeros", "config": {}}, "kernel_regularizer": {"class_name": "L1L2", "config": {"l1": 0.0, "l2": 3.9999998989515007e-05}}, "bias_regularizer": null, "activity_regularizer": null, "kernel_constraint": null, "bias_constraint": null}, "inbound_nodes": [[["Openpose/MConv_Stage4_L2_5_depthwise", 0, 0, {}]]]}, {"name": "Openpose/MConv_Stage4_L1_5BatchNorm", "class_name": "BatchNormalization", "config": {"name": "Openpose/MConv_Stage4_L1_5BatchNorm", "trainable": true, "dtype": "float32", "axis": -1, "momentum": 0.999, "epsilon": 0.001, "center": true, "scale": false, "beta_initializer": {"class_name": "Zeros", "config": {}}, "gamma_initializer": {"class_name": "Ones", "config": {}}, "moving_mean_initializer": {"class_name": "Zeros", "config": {}}, "moving_variance_initializer": {"class_name": "Ones", "config": {}}, "beta_regularizer": null, "gamma_regularizer": null, "beta_constraint": null, "gamma_constraint": null}, "inbound_nodes": [[["Openpose/MConv_Stage4_L1_5_pointwise", 0, 0, {}]]]}, {"name": "Openpose/MConv_Stage4_L2_5BatchNorm", "class_name": "BatchNormalization", "config": {"name": "Openpose/MConv_Stage4_L2_5BatchNorm", "trainable": true, "dtype": "float32", "axis": -1, "momentum": 0.999, "epsilon": 0.001, "center": true, "scale": false, "beta_initializer": {"class_name": "Zeros", "config": {}}, "gamma_initializer": {"class_name": "Ones", "config": {}}, "moving_mean_initializer": {"class_name": "Zeros", "config": {}}, "moving_variance_initializer": {"class_name": "Ones", "config": {}}, "beta_regularizer": null, "gamma_regularizer": null, "beta_constraint": null, "gamma_constraint": null}, "inbound_nodes": [[["Openpose/MConv_Stage4_L2_5_pointwise", 0, 0, {}]]]}, {"name": "Openpose/MConv_Stage5_concat", "class_name": "Concatenate", "config": {"name": "Openpose/MConv_Stage5_concat", "trainable": true, "dtype": "float32", "axis": 3}, "inbound_nodes": [[["Openpose/MConv_Stage4_L1_5BatchNorm", 0, 0, {}], ["Openpose/MConv_Stage4_L2_5BatchNorm", 0, 0, {}], ["feat_concat", 0, 0, {}]]]}, {"name": "Openpose/MConv_Stage5_L1_1_depthwise", "class_name": "DepthwiseConv2D", "config": {"name": "Openpose/MConv_Stage5_L1_1_depthwise", "trainable": true, "dtype": "float32", "kernel_size": [3, 3], "strides": [1, 1], "padding": "same", "data_format": "channels_last", "dilation_rate": [1, 1], "activation": "linear", "use_bias": false, "bias_initializer": {"class_name": "Zeros", "config": {}}, "bias_regularizer": null, "activity_regularizer": null, "bias_constraint": null, "depth_multiplier": 1, "depthwise_initializer": {"class_name": "VarianceScaling", "config": {"scale": 1.0, "mode": "fan_avg", "distribution": "uniform", "seed": null}}, "depthwise_regularizer": {"class_name": "L1L2", "config": {"l1": 0.0, "l2": 3.9999998989515007e-05}}, "depthwise_constraint": null}, "inbound_nodes": [[["Openpose/MConv_Stage5_concat", 0, 0, {}]]]}, {"name": "Openpose/MConv_Stage5_L2_1_depthwise", "class_name": "DepthwiseConv2D", "config": {"name": "Openpose/MConv_Stage5_L2_1_depthwise", "trainable": true, "dtype": "float32", "kernel_size": [3, 3], "strides": [1, 1], "padding": "same", "data_format": "channels_last", "dilation_rate": [1, 1], "activation": "linear", "use_bias": false, "bias_initializer": {"class_name": "Zeros", "config": {}}, "bias_regularizer": null, "activity_regularizer": null, "bias_constraint": null, "depth_multiplier": 1, "depthwise_initializer": {"class_name": "VarianceScaling", "config": {"scale": 1.0, "mode": "fan_avg", "distribution": "uniform", "seed": null}}, "depthwise_regularizer": {"class_name": "L1L2", "config": {"l1": 0.0, "l2": 3.9999998989515007e-05}}, "depthwise_constraint": null}, "inbound_nodes": [[["Openpose/MConv_Stage5_concat", 0, 0, {}]]]}, {"name": "Openpose/MConv_Stage5_L1_1_pointwise", "class_name": "Conv2D", "config": {"name": "Openpose/MConv_Stage5_L1_1_pointwise", "trainable": true, "dtype": "float32", "filters": 64, "kernel_size": [1, 1], "strides": [1, 1], "padding": "same", "data_format": "channels_last", "dilation_rate": [1, 1], "activation": "relu", "use_bias": false, "kernel_initializer": {"class_name": "VarianceScaling", "config": {"scale": 1.0, "mode": "fan_avg", "distribution": "uniform", "seed": null}}, "bias_initializer": {"class_name": "Zeros", "config": {}}, "kernel_regularizer": {"class_name": "L1L2", "config": {"l1": 0.0, "l2": 3.9999998989515007e-05}}, "bias_regularizer": null, "activity_regularizer": null, "kernel_constraint": null, "bias_constraint": null}, "inbound_nodes": [[["Openpose/MConv_Stage5_L1_1_depthwise", 0, 0, {}]]]}, {"name": "Openpose/MConv_Stage5_L2_1_pointwise", "class_name": "Conv2D", "config": {"name": "Openpose/MConv_Stage5_L2_1_pointwise", "trainable": true, "dtype": "float32", "filters": 64, "kernel_size": [1, 1], "strides": [1, 1], "padding": "same", "data_format": "channels_last", "dilation_rate": [1, 1], "activation": "relu", "use_bias": false, "kernel_initializer": {"class_name": "VarianceScaling", "config": {"scale": 1.0, "mode": "fan_avg", "distribution": "uniform", "seed": null}}, "bias_initializer": {"class_name": "Zeros", "config": {}}, "kernel_regularizer": {"class_name": "L1L2", "config": {"l1": 0.0, "l2": 3.9999998989515007e-05}}, "bias_regularizer": null, "activity_regularizer": null, "kernel_constraint": null, "bias_constraint": null}, "inbound_nodes": [[["Openpose/MConv_Stage5_L2_1_depthwise", 0, 0, {}]]]}, {"name": "Openpose/MConv_Stage5_L1_1BatchNorm", "class_name": "BatchNormalization", "config": {"name": "Openpose/MConv_Stage5_L1_1BatchNorm", "trainable": true, "dtype": "float32", "axis": -1, "momentum": 0.999, "epsilon": 0.001, "center": true, "scale": false, "beta_initializer": {"class_name": "Zeros", "config": {}}, "gamma_initializer": {"class_name": "Ones", "config": {}}, "moving_mean_initializer": {"class_name": "Zeros", "config": {}}, "moving_variance_initializer": {"class_name": "Ones", "config": {}}, "beta_regularizer": null, "gamma_regularizer": null, "beta_constraint": null, "gamma_constraint": null}, "inbound_nodes": [[["Openpose/MConv_Stage5_L1_1_pointwise", 0, 0, {}]]]}, {"name": "Openpose/MConv_Stage5_L2_1BatchNorm", "class_name": "BatchNormalization", "config": {"name": "Openpose/MConv_Stage5_L2_1BatchNorm", "trainable": true, "dtype": "float32", "axis": -1, "momentum": 0.999, "epsilon": 0.001, "center": true, "scale": false, "beta_initializer": {"class_name": "Zeros", "config": {}}, "gamma_initializer": {"class_name": "Ones", "config": {}}, "moving_mean_initializer": {"class_name": "Zeros", "config": {}}, "moving_variance_initializer": {"class_name": "Ones", "config": {}}, "beta_regularizer": null, "gamma_regularizer": null, "beta_constraint": null, "gamma_constraint": null}, "inbound_nodes": [[["Openpose/MConv_Stage5_L2_1_pointwise", 0, 0, {}]]]}, {"name": "Openpose/MConv_Stage5_L1_2_depthwise", "class_name": "DepthwiseConv2D", "config": {"name": "Openpose/MConv_Stage5_L1_2_depthwise", "trainable": true, "dtype": "float32", "kernel_size": [3, 3], "strides": [1, 1], "padding": "same", "data_format": "channels_last", "dilation_rate": [1, 1], "activation": "linear", "use_bias": false, "bias_initializer": {"class_name": "Zeros", "config": {}}, "bias_regularizer": null, "activity_regularizer": null, "bias_constraint": null, "depth_multiplier": 1, "depthwise_initializer": {"class_name": "VarianceScaling", "config": {"scale": 1.0, "mode": "fan_avg", "distribution": "uniform", "seed": null}}, "depthwise_regularizer": {"class_name": "L1L2", "config": {"l1": 0.0, "l2": 3.9999998989515007e-05}}, "depthwise_constraint": null}, "inbound_nodes": [[["Openpose/MConv_Stage5_L1_1BatchNorm", 0, 0, {}]]]}, {"name": "Openpose/MConv_Stage5_L2_2_depthwise", "class_name": "DepthwiseConv2D", "config": {"name": "Openpose/MConv_Stage5_L2_2_depthwise", "trainable": true, "dtype": "float32", "kernel_size": [3, 3], "strides": [1, 1], "padding": "same", "data_format": "channels_last", "dilation_rate": [1, 1], "activation": "linear", "use_bias": false, "bias_initializer": {"class_name": "Zeros", "config": {}}, "bias_regularizer": null, "activity_regularizer": null, "bias_constraint": null, "depth_multiplier": 1, "depthwise_initializer": {"class_name": "VarianceScaling", "config": {"scale": 1.0, "mode": "fan_avg", "distribution": "uniform", "seed": null}}, "depthwise_regularizer": {"class_name": "L1L2", "config": {"l1": 0.0, "l2": 3.9999998989515007e-05}}, "depthwise_constraint": null}, "inbound_nodes": [[["Openpose/MConv_Stage5_L2_1BatchNorm", 0, 0, {}]]]}, {"name": "Openpose/MConv_Stage5_L1_2_pointwise", "class_name": "Conv2D", "config": {"name": "Openpose/MConv_Stage5_L1_2_pointwise", "trainable": true, "dtype": "float32", "filters": 64, "kernel_size": [1, 1], "strides": [1, 1], "padding": "same", "data_format": "channels_last", "dilation_rate": [1, 1], "activation": "relu", "use_bias": false, "kernel_initializer": {"class_name": "VarianceScaling", "config": {"scale": 1.0, "mode": "fan_avg", "distribution": "uniform", "seed": null}}, "bias_initializer": {"class_name": "Zeros", "config": {}}, "kernel_regularizer": {"class_name": "L1L2", "config": {"l1": 0.0, "l2": 3.9999998989515007e-05}}, "bias_regularizer": null, "activity_regularizer": null, "kernel_constraint": null, "bias_constraint": null}, "inbound_nodes": [[["Openpose/MConv_Stage5_L1_2_depthwise", 0, 0, {}]]]}, {"name": "Openpose/MConv_Stage5_L2_2_pointwise", "class_name": "Conv2D", "config": {"name": "Openpose/MConv_Stage5_L2_2_pointwise", "trainable": true, "dtype": "float32", "filters": 64, "kernel_size": [1, 1], "strides": [1, 1], "padding": "same", "data_format": "channels_last", "dilation_rate": [1, 1], "activation": "relu", "use_bias": false, "kernel_initializer": {"class_name": "VarianceScaling", "config": {"scale": 1.0, "mode": "fan_avg", "distribution": "uniform", "seed": null}}, "bias_initializer": {"class_name": "Zeros", "config": {}}, "kernel_regularizer": {"class_name": "L1L2", "config": {"l1": 0.0, "l2": 3.9999998989515007e-05}}, "bias_regularizer": null, "activity_regularizer": null, "kernel_constraint": null, "bias_constraint": null}, "inbound_nodes": [[["Openpose/MConv_Stage5_L2_2_depthwise", 0, 0, {}]]]}, {"name": "Openpose/MConv_Stage5_L1_2BatchNorm", "class_name": "BatchNormalization", "config": {"name": "Openpose/MConv_Stage5_L1_2BatchNorm", "trainable": true, "dtype": "float32", "axis": -1, "momentum": 0.999, "epsilon": 0.001, "center": true, "scale": false, "beta_initializer": {"class_name": "Zeros", "config": {}}, "gamma_initializer": {"class_name": "Ones", "config": {}}, "moving_mean_initializer": {"class_name": "Zeros", "config": {}}, "moving_variance_initializer": {"class_name": "Ones", "config": {}}, "beta_regularizer": null, "gamma_regularizer": null, "beta_constraint": null, "gamma_constraint": null}, "inbound_nodes": [[["Openpose/MConv_Stage5_L1_2_pointwise", 0, 0, {}]]]}, {"name": "Openpose/MConv_Stage5_L2_2BatchNorm", "class_name": "BatchNormalization", "config": {"name": "Openpose/MConv_Stage5_L2_2BatchNorm", "trainable": true, "dtype": "float32", "axis": -1, "momentum": 0.999, "epsilon": 0.001, "center": true, "scale": false, "beta_initializer": {"class_name": "Zeros", "config": {}}, "gamma_initializer": {"class_name": "Ones", "config": {}}, "moving_mean_initializer": {"class_name": "Zeros", "config": {}}, "moving_variance_initializer": {"class_name": "Ones", "config": {}}, "beta_regularizer": null, "gamma_regularizer": null, "beta_constraint": null, "gamma_constraint": null}, "inbound_nodes": [[["Openpose/MConv_Stage5_L2_2_pointwise", 0, 0, {}]]]}, {"name": "Openpose/MConv_Stage5_L1_3_depthwise", "class_name": "DepthwiseConv2D", "config": {"name": "Openpose/MConv_Stage5_L1_3_depthwise", "trainable": true, "dtype": "float32", "kernel_size": [3, 3], "strides": [1, 1], "padding": "same", "data_format": "channels_last", "dilation_rate": [1, 1], "activation": "linear", "use_bias": false, "bias_initializer": {"class_name": "Zeros", "config": {}}, "bias_regularizer": null, "activity_regularizer": null, "bias_constraint": null, "depth_multiplier": 1, "depthwise_initializer": {"class_name": "VarianceScaling", "config": {"scale": 1.0, "mode": "fan_avg", "distribution": "uniform", "seed": null}}, "depthwise_regularizer": {"class_name": "L1L2", "config": {"l1": 0.0, "l2": 3.9999998989515007e-05}}, "depthwise_constraint": null}, "inbound_nodes": [[["Openpose/MConv_Stage5_L1_2BatchNorm", 0, 0, {}]]]}, {"name": "Openpose/MConv_Stage5_L2_3_depthwise", "class_name": "DepthwiseConv2D", "config": {"name": "Openpose/MConv_Stage5_L2_3_depthwise", "trainable": true, "dtype": "float32", "kernel_size": [3, 3], "strides": [1, 1], "padding": "same", "data_format": "channels_last", "dilation_rate": [1, 1], "activation": "linear", "use_bias": false, "bias_initializer": {"class_name": "Zeros", "config": {}}, "bias_regularizer": null, "activity_regularizer": null, "bias_constraint": null, "depth_multiplier": 1, "depthwise_initializer": {"class_name": "VarianceScaling", "config": {"scale": 1.0, "mode": "fan_avg", "distribution": "uniform", "seed": null}}, "depthwise_regularizer": {"class_name": "L1L2", "config": {"l1": 0.0, "l2": 3.9999998989515007e-05}}, "depthwise_constraint": null}, "inbound_nodes": [[["Openpose/MConv_Stage5_L2_2BatchNorm", 0, 0, {}]]]}, {"name": "Openpose/MConv_Stage5_L1_3_pointwise", "class_name": "Conv2D", "config": {"name": "Openpose/MConv_Stage5_L1_3_pointwise", "trainable": true, "dtype": "float32", "filters": 64, "kernel_size": [1, 1], "strides": [1, 1], "padding": "same", "data_format": "channels_last", "dilation_rate": [1, 1], "activation": "relu", "use_bias": false, "kernel_initializer": {"class_name": "VarianceScaling", "config": {"scale": 1.0, "mode": "fan_avg", "distribution": "uniform", "seed": null}}, "bias_initializer": {"class_name": "Zeros", "config": {}}, "kernel_regularizer": {"class_name": "L1L2", "config": {"l1": 0.0, "l2": 3.9999998989515007e-05}}, "bias_regularizer": null, "activity_regularizer": null, "kernel_constraint": null, "bias_constraint": null}, "inbound_nodes": [[["Openpose/MConv_Stage5_L1_3_depthwise", 0, 0, {}]]]}, {"name": "Openpose/MConv_Stage5_L2_3_pointwise", "class_name": "Conv2D", "config": {"name": "Openpose/MConv_Stage5_L2_3_pointwise", "trainable": true, "dtype": "float32", "filters": 64, "kernel_size": [1, 1], "strides": [1, 1], "padding": "same", "data_format": "channels_last", "dilation_rate": [1, 1], "activation": "relu", "use_bias": false, "kernel_initializer": {"class_name": "VarianceScaling", "config": {"scale": 1.0, "mode": "fan_avg", "distribution": "uniform", "seed": null}}, "bias_initializer": {"class_name": "Zeros", "config": {}}, "kernel_regularizer": {"class_name": "L1L2", "config": {"l1": 0.0, "l2": 3.9999998989515007e-05}}, "bias_regularizer": null, "activity_regularizer": null, "kernel_constraint": null, "bias_constraint": null}, "inbound_nodes": [[["Openpose/MConv_Stage5_L2_3_depthwise", 0, 0, {}]]]}, {"name": "Openpose/MConv_Stage5_L1_3BatchNorm", "class_name": "BatchNormalization", "config": {"name": "Openpose/MConv_Stage5_L1_3BatchNorm", "trainable": true, "dtype": "float32", "axis": -1, "momentum": 0.999, "epsilon": 0.001, "center": true, "scale": false, "beta_initializer": {"class_name": "Zeros", "config": {}}, "gamma_initializer": {"class_name": "Ones", "config": {}}, "moving_mean_initializer": {"class_name": "Zeros", "config": {}}, "moving_variance_initializer": {"class_name": "Ones", "config": {}}, "beta_regularizer": null, "gamma_regularizer": null, "beta_constraint": null, "gamma_constraint": null}, "inbound_nodes": [[["Openpose/MConv_Stage5_L1_3_pointwise", 0, 0, {}]]]}, {"name": "Openpose/MConv_Stage5_L2_3BatchNorm", "class_name": "BatchNormalization", "config": {"name": "Openpose/MConv_Stage5_L2_3BatchNorm", "trainable": true, "dtype": "float32", "axis": -1, "momentum": 0.999, "epsilon": 0.001, "center": true, "scale": false, "beta_initializer": {"class_name": "Zeros", "config": {}}, "gamma_initializer": {"class_name": "Ones", "config": {}}, "moving_mean_initializer": {"class_name": "Zeros", "config": {}}, "moving_variance_initializer": {"class_name": "Ones", "config": {}}, "beta_regularizer": null, "gamma_regularizer": null, "beta_constraint": null, "gamma_constraint": null}, "inbound_nodes": [[["Openpose/MConv_Stage5_L2_3_pointwise", 0, 0, {}]]]}, {"name": "Openpose/MConv_Stage5_L1_4_depthwise", "class_name": "DepthwiseConv2D", "config": {"name": "Openpose/MConv_Stage5_L1_4_depthwise", "trainable": true, "dtype": "float32", "kernel_size": [1, 1], "strides": [1, 1], "padding": "same", "data_format": "channels_last", "dilation_rate": [1, 1], "activation": "linear", "use_bias": false, "bias_initializer": {"class_name": "Zeros", "config": {}}, "bias_regularizer": null, "activity_regularizer": null, "bias_constraint": null, "depth_multiplier": 1, "depthwise_initializer": {"class_name": "VarianceScaling", "config": {"scale": 1.0, "mode": "fan_avg", "distribution": "uniform", "seed": null}}, "depthwise_regularizer": {"class_name": "L1L2", "config": {"l1": 0.0, "l2": 3.9999998989515007e-05}}, "depthwise_constraint": null}, "inbound_nodes": [[["Openpose/MConv_Stage5_L1_3BatchNorm", 0, 0, {}]]]}, {"name": "Openpose/MConv_Stage5_L2_4_depthwise", "class_name": "DepthwiseConv2D", "config": {"name": "Openpose/MConv_Stage5_L2_4_depthwise", "trainable": true, "dtype": "float32", "kernel_size": [1, 1], "strides": [1, 1], "padding": "same", "data_format": "channels_last", "dilation_rate": [1, 1], "activation": "linear", "use_bias": false, "bias_initializer": {"class_name": "Zeros", "config": {}}, "bias_regularizer": null, "activity_regularizer": null, "bias_constraint": null, "depth_multiplier": 1, "depthwise_initializer": {"class_name": "VarianceScaling", "config": {"scale": 1.0, "mode": "fan_avg", "distribution": "uniform", "seed": null}}, "depthwise_regularizer": {"class_name": "L1L2", "config": {"l1": 0.0, "l2": 3.9999998989515007e-05}}, "depthwise_constraint": null}, "inbound_nodes": [[["Openpose/MConv_Stage5_L2_3BatchNorm", 0, 0, {}]]]}, {"name": "Openpose/MConv_Stage5_L1_4_pointwise", "class_name": "Conv2D", "config": {"name": "Openpose/MConv_Stage5_L1_4_pointwise", "trainable": true, "dtype": "float32", "filters": 64, "kernel_size": [1, 1], "strides": [1, 1], "padding": "same", "data_format": "channels_last", "dilation_rate": [1, 1], "activation": "relu", "use_bias": false, "kernel_initializer": {"class_name": "VarianceScaling", "config": {"scale": 1.0, "mode": "fan_avg", "distribution": "uniform", "seed": null}}, "bias_initializer": {"class_name": "Zeros", "config": {}}, "kernel_regularizer": {"class_name": "L1L2", "config": {"l1": 0.0, "l2": 3.9999998989515007e-05}}, "bias_regularizer": null, "activity_regularizer": null, "kernel_constraint": null, "bias_constraint": null}, "inbound_nodes": [[["Openpose/MConv_Stage5_L1_4_depthwise", 0, 0, {}]]]}, {"name": "Openpose/MConv_Stage5_L2_4_pointwise", "class_name": "Conv2D", "config": {"name": "Openpose/MConv_Stage5_L2_4_pointwise", "trainable": true, "dtype": "float32", "filters": 64, "kernel_size": [1, 1], "strides": [1, 1], "padding": "same", "data_format": "channels_last", "dilation_rate": [1, 1], "activation": "relu", "use_bias": false, "kernel_initializer": {"class_name": "VarianceScaling", "config": {"scale": 1.0, "mode": "fan_avg", "distribution": "uniform", "seed": null}}, "bias_initializer": {"class_name": "Zeros", "config": {}}, "kernel_regularizer": {"class_name": "L1L2", "config": {"l1": 0.0, "l2": 3.9999998989515007e-05}}, "bias_regularizer": null, "activity_regularizer": null, "kernel_constraint": null, "bias_constraint": null}, "inbound_nodes": [[["Openpose/MConv_Stage5_L2_4_depthwise", 0, 0, {}]]]}, {"name": "Openpose/MConv_Stage5_L1_4BatchNorm", "class_name": "BatchNormalization", "config": {"name": "Openpose/MConv_Stage5_L1_4BatchNorm", "trainable": true, "dtype": "float32", "axis": -1, "momentum": 0.999, "epsilon": 0.001, "center": true, "scale": false, "beta_initializer": {"class_name": "Zeros", "config": {}}, "gamma_initializer": {"class_name": "Ones", "config": {}}, "moving_mean_initializer": {"class_name": "Zeros", "config": {}}, "moving_variance_initializer": {"class_name": "Ones", "config": {}}, "beta_regularizer": null, "gamma_regularizer": null, "beta_constraint": null, "gamma_constraint": null}, "inbound_nodes": [[["Openpose/MConv_Stage5_L1_4_pointwise", 0, 0, {}]]]}, {"name": "Openpose/MConv_Stage5_L2_4BatchNorm", "class_name": "BatchNormalization", "config": {"name": "Openpose/MConv_Stage5_L2_4BatchNorm", "trainable": true, "dtype": "float32", "axis": -1, "momentum": 0.999, "epsilon": 0.001, "center": true, "scale": false, "beta_initializer": {"class_name": "Zeros", "config": {}}, "gamma_initializer": {"class_name": "Ones", "config": {}}, "moving_mean_initializer": {"class_name": "Zeros", "config": {}}, "moving_variance_initializer": {"class_name": "Ones", "config": {}}, "beta_regularizer": null, "gamma_regularizer": null, "beta_constraint": null, "gamma_constraint": null}, "inbound_nodes": [[["Openpose/MConv_Stage5_L2_4_pointwise", 0, 0, {}]]]}, {"name": "Openpose/MConv_Stage5_L1_5_depthwise", "class_name": "DepthwiseConv2D", "config": {"name": "Openpose/MConv_Stage5_L1_5_depthwise", "trainable": true, "dtype": "float32", "kernel_size": [1, 1], "strides": [1, 1], "padding": "same", "data_format": "channels_last", "dilation_rate": [1, 1], "activation": "linear", "use_bias": false, "bias_initializer": {"class_name": "Zeros", "config": {}}, "bias_regularizer": null, "activity_regularizer": null, "bias_constraint": null, "depth_multiplier": 1, "depthwise_initializer": {"class_name": "VarianceScaling", "config": {"scale": 1.0, "mode": "fan_avg", "distribution": "uniform", "seed": null}}, "depthwise_regularizer": {"class_name": "L1L2", "config": {"l1": 0.0, "l2": 3.9999998989515007e-05}}, "depthwise_constraint": null}, "inbound_nodes": [[["Openpose/MConv_Stage5_L1_4BatchNorm", 0, 0, {}]]]}, {"name": "Openpose/MConv_Stage5_L2_5_depthwise", "class_name": "DepthwiseConv2D", "config": {"name": "Openpose/MConv_Stage5_L2_5_depthwise", "trainable": true, "dtype": "float32", "kernel_size": [1, 1], "strides": [1, 1], "padding": "same", "data_format": "channels_last", "dilation_rate": [1, 1], "activation": "linear", "use_bias": false, "bias_initializer": {"class_name": "Zeros", "config": {}}, "bias_regularizer": null, "activity_regularizer": null, "bias_constraint": null, "depth_multiplier": 1, "depthwise_initializer": {"class_name": "VarianceScaling", "config": {"scale": 1.0, "mode": "fan_avg", "distribution": "uniform", "seed": null}}, "depthwise_regularizer": {"class_name": "L1L2", "config": {"l1": 0.0, "l2": 3.9999998989515007e-05}}, "depthwise_constraint": null}, "inbound_nodes": [[["Openpose/MConv_Stage5_L2_4BatchNorm", 0, 0, {}]]]}, {"name": "Openpose/MConv_Stage5_L1_5_pointwise", "class_name": "Conv2D", "config": {"name": "Openpose/MConv_Stage5_L1_5_pointwise", "trainable": true, "dtype": "float32", "filters": 38, "kernel_size": [1, 1], "strides": [1, 1], "padding": "same", "data_format": "channels_last", "dilation_rate": [1, 1], "activation": "linear", "use_bias": false, "kernel_initializer": {"class_name": "VarianceScaling", "config": {"scale": 1.0, "mode": "fan_avg", "distribution": "uniform", "seed": null}}, "bias_initializer": {"class_name": "Zeros", "config": {}}, "kernel_regularizer": {"class_name": "L1L2", "config": {"l1": 0.0, "l2": 3.9999998989515007e-05}}, "bias_regularizer": null, "activity_regularizer": null, "kernel_constraint": null, "bias_constraint": null}, "inbound_nodes": [[["Openpose/MConv_Stage5_L1_5_depthwise", 0, 0, {}]]]}, {"name": "Openpose/MConv_Stage5_L2_5_pointwise", "class_name": "Conv2D", "config": {"name": "Openpose/MConv_Stage5_L2_5_pointwise", "trainable": true, "dtype": "float32", "filters": 22, "kernel_size": [1, 1], "strides": [1, 1], "padding": "same", "data_format": "channels_last", "dilation_rate": [1, 1], "activation": "linear", "use_bias": false, "kernel_initializer": {"class_name": "VarianceScaling", "config": {"scale": 1.0, "mode": "fan_avg", "distribution": "uniform", "seed": null}}, "bias_initializer": {"class_name": "Zeros", "config": {}}, "kernel_regularizer": {"class_name": "L1L2", "config": {"l1": 0.0, "l2": 3.9999998989515007e-05}}, "bias_regularizer": null, "activity_regularizer": null, "kernel_constraint": null, "bias_constraint": null}, "inbound_nodes": [[["Openpose/MConv_Stage5_L2_5_depthwise", 0, 0, {}]]]}, {"name": "Openpose/MConv_Stage5_L1_5BatchNorm", "class_name": "BatchNormalization", "config": {"name": "Openpose/MConv_Stage5_L1_5BatchNorm", "trainable": true, "dtype": "float32", "axis": -1, "momentum": 0.999, "epsilon": 0.001, "center": true, "scale": false, "beta_initializer": {"class_name": "Zeros", "config": {}}, "gamma_initializer": {"class_name": "Ones", "config": {}}, "moving_mean_initializer": {"class_name": "Zeros", "config": {}}, "moving_variance_initializer": {"class_name": "Ones", "config": {}}, "beta_regularizer": null, "gamma_regularizer": null, "beta_constraint": null, "gamma_constraint": null}, "inbound_nodes": [[["Openpose/MConv_Stage5_L1_5_pointwise", 0, 0, {}]]]}, {"name": "Openpose/MConv_Stage5_L2_5BatchNorm", "class_name": "BatchNormalization", "config": {"name": "Openpose/MConv_Stage5_L2_5BatchNorm", "trainable": true, "dtype": "float32", "axis": -1, "momentum": 0.999, "epsilon": 0.001, "center": true, "scale": false, "beta_initializer": {"class_name": "Zeros", "config": {}}, "gamma_initializer": {"class_name": "Ones", "config": {}}, "moving_mean_initializer": {"class_name": "Zeros", "config": {}}, "moving_variance_initializer": {"class_name": "Ones", "config": {}}, "beta_regularizer": null, "gamma_regularizer": null, "beta_constraint": null, "gamma_constraint": null}, "inbound_nodes": [[["Openpose/MConv_Stage5_L2_5_pointwise", 0, 0, {}]]]}, {"name": "Openpose/MConv_Stage6_concat", "class_name": "Concatenate", "config": {"name": "Openpose/MConv_Stage6_concat", "trainable": true, "dtype": "float32", "axis": 3}, "inbound_nodes": [[["Openpose/MConv_Stage5_L1_5BatchNorm", 0, 0, {}], ["Openpose/MConv_Stage5_L2_5BatchNorm", 0, 0, {}], ["feat_concat", 0, 0, {}]]]}, {"name": "Openpose/MConv_Stage6_L2_1_depthwise", "class_name": "DepthwiseConv2D", "config": {"name": "Openpose/MConv_Stage6_L2_1_depthwise", "trainable": true, "dtype": "float32", "kernel_size": [3, 3], "strides": [1, 1], "padding": "same", "data_format": "channels_last", "dilation_rate": [1, 1], "activation": "linear", "use_bias": false, "bias_initializer": {"class_name": "Zeros", "config": {}}, "bias_regularizer": null, "activity_regularizer": null, "bias_constraint": null, "depth_multiplier": 1, "depthwise_initializer": {"class_name": "VarianceScaling", "config": {"scale": 1.0, "mode": "fan_avg", "distribution": "uniform", "seed": null}}, "depthwise_regularizer": {"class_name": "L1L2", "config": {"l1": 0.0, "l2": 3.9999998989515007e-05}}, "depthwise_constraint": null}, "inbound_nodes": [[["Openpose/MConv_Stage6_concat", 0, 0, {}]]]}, {"name": "Openpose/MConv_Stage6_L1_1_depthwise", "class_name": "DepthwiseConv2D", "config": {"name": "Openpose/MConv_Stage6_L1_1_depthwise", "trainable": true, "dtype": "float32", "kernel_size": [3, 3], "strides": [1, 1], "padding": "same", "data_format": "channels_last", "dilation_rate": [1, 1], "activation": "linear", "use_bias": false, "bias_initializer": {"class_name": "Zeros", "config": {}}, "bias_regularizer": null, "activity_regularizer": null, "bias_constraint": null, "depth_multiplier": 1, "depthwise_initializer": {"class_name": "VarianceScaling", "config": {"scale": 1.0, "mode": "fan_avg", "distribution": "uniform",…
r": {"class_name": "VarianceScaling", "config": {"scale": 1.0, "mode": "fan_avg", "distribution": "uniform", "seed": null}}, "depthwise_regularizer": {"class_name": "L1L2", "config": {"l1": 0.0, "l2": 3.9999998989515007e-05}}, "depthwise_constraint": null}, "inbound_nodes": [[["Openpose/MConv_Stage6_L2_2BatchNorm", 0, 0, {}]]]}, {"name": "Openpose/MConv_Stage6_L1_3_depthwise", "class_name": "DepthwiseConv2D", "config": {"name": "Openpose/MConv_Stage6_L1_3_depthwise", "trainable": true, "dtype": "float32", "kernel_size": [3, 3], "strides": [1, 1], "padding": "same", "data_format": "channels_last", "dilation_rate": [1, 1], "activation": "linear", "use_bias": false, "bias_initializer": {"class_name": "Zeros", "config": {}}, "bias_regularizer": null, "activity_regularizer": null, "bias_constraint": null, "depth_multiplier": 1, "depthwise_initializer": {"class_name": "VarianceScaling", "config": {"scale": 1.0, "mode": "fan_avg", "distribution": "uniform", "seed": null}}, "depthwise_regularizer": {"class_name": "L1L2", "config": {"l1": 0.0, "l2": 3.9999998989515007e-05}}, "depthwise_constraint": null}, "inbound_nodes": [[["Openpose/MConv_Stage6_L1_2BatchNorm", 0, 0, {}]]]}, {"name": "Openpose/MConv_Stage6_L2_3_pointwise", "class_name": "Conv2D", "config": {"name": "Openpose/MConv_Stage6_L2_3_pointwise", "trainable": true, "dtype": "float32", "filters": 64, "kernel_size": [1, 1], "strides": [1, 1], "padding": "same", "data_format": "channels_last", "dilation_rate": [1, 1], "activation": "relu", "use_bias": false, "kernel_initializer": {"class_name": "VarianceScaling", "config": {"scale": 1.0, "mode": "fan_avg", "distribution": "uniform", "seed": null}}, "bias_initializer": {"class_name": "Zeros", "config": {}}, "kernel_regularizer": {"class_name": "L1L2", "config": {"l1": 0.0, "l2": 3.9999998989515007e-05}}, "bias_regularizer": null, "activity_regularizer": null, "kernel_constraint": null, "bias_constraint": null}, "inbound_nodes": [[["Openpose/MConv_Stage6_L2_3_depthwise", 0, 0, {}]]]}, {"name": "Openpose/MConv_Stage6_L1_3_pointwise", "class_name": "Conv2D", "config": {"name": "Openpose/MConv_Stage6_L1_3_pointwise", "trainable": true, "dtype": "float32", "filters": 64, "kernel_size": [1, 1], "strides": [1, 1], "padding": "same", "data_format": "channels_last", "dilation_rate": [1, 1], "activation": "relu", "use_bias": false, "kernel_initializer": {"class_name": "VarianceScaling", "config": {"scale": 1.0, "mode": "fan_avg", "distribution": "uniform", "seed": null}}, "bias_initializer": {"class_name": "Zeros", "config": {}}, "kernel_regularizer": {"class_name": "L1L2", "config": {"l1": 0.0, "l2": 3.9999998989515007e-05}}, "bias_regularizer": null, "activity_regularizer": null, "kernel_constraint": null, "bias_constraint": null}, "inbound_nodes": [[["Openpose/MConv_Stage6_L1_3_depthwise", 0, 0, {}]]]}, {"name": "Openpose/MConv_Stage6_L2_3BatchNorm", "class_name": "BatchNormalization", "config": {"name": "Openpose/MConv_Stage6_L2_3BatchNorm", "trainable": true, "dtype": "float32", "axis": -1, "momentum": 0.999, "epsilon": 0.001, "center": true, "scale": false, "beta_initializer": {"class_name": "Zeros", "config": {}}, "gamma_initializer": {"class_name": "Ones", "config": {}}, "moving_mean_initializer": {"class_name": "Zeros", "config": {}}, "moving_variance_initializer": {"class_name": "Ones", "config": {}}, "beta_regularizer": null, "gamma_regularizer": null, "beta_constraint": null, "gamma_constraint": null}, "inbound_nodes": [[["Openpose/MConv_Stage6_L2_3_pointwise", 0, 0, {}]]]}, {"name": "Openpose/MConv_Stage6_L1_3BatchNorm", "class_name": "BatchNormalization", "config": {"name": "Openpose/MConv_Stage6_L1_3BatchNorm", "trainable": true, "dtype": "float32", "axis": -1, "momentum": 0.999, "epsilon": 0.001, "center": true, "scale": false, "beta_initializer": {"class_name": "Zeros", "config": {}}, "gamma_initializer": {"class_name": "Ones", "config": {}}, "moving_mean_initializer": {"class_name": "Zeros", "config": {}}, "moving_variance_initializer": {"class_name": "Ones", "config": {}}, "beta_regularizer": null, "gamma_regularizer": null, "beta_constraint": null, "gamma_constraint": null}, "inbound_nodes": [[["Openpose/MConv_Stage6_L1_3_pointwise", 0, 0, {}]]]}, {"name": "Openpose/MConv_Stage6_L2_4_depthwise", "class_name": "DepthwiseConv2D", "config": {"name": "Openpose/MConv_Stage6_L2_4_depthwise", "trainable": true, "dtype": "float32", "kernel_size": [1, 1], "strides": [1, 1], "padding": "same", "data_format": "channels_last", "dilation_rate": [1, 1], "activation": "linear", "use_bias": false, "bias_initializer": {"class_name": "Zeros", "config": {}}, "bias_regularizer": null, "activity_regularizer": null, "bias_constraint": null, "depth_multiplier": 1, "depthwise_initializer": {"class_name": "VarianceScaling", "config": {"scale": 1.0, "mode": "fan_avg", "distribution": "uniform", "seed": null}}, "depthwise_regularizer": {"class_name": "L1L2", "config": {"l1": 0.0, "l2": 3.9999998989515007e-05}}, "depthwise_constraint": null}, "inbound_nodes": [[["Openpose/MConv_Stage6_L2_3BatchNorm", 0, 0, {}]]]}, {"name": "Openpose/MConv_Stage6_L1_4_depthwise", "class_name": "DepthwiseConv2D", "config": {"name": "Openpose/MConv_Stage6_L1_4_depthwise", "trainable": true, "dtype": "float32", "kernel_size": [1, 1], "strides": [1, 1], "padding": "same", "data_format": "channels_last", "dilation_rate": [1, 1], "activation": "linear", "use_bias": false, "bias_initializer": {"class_name": "Zeros", "config": {}}, "bias_regularizer": null, "activity_regularizer": null, "bias_constraint": null, "depth_multiplier": 1, "depthwise_initializer": {"class_name": "VarianceScaling", "config": {"scale": 1.0, "mode": "fan_avg", "distribution": "uniform", "seed": null}}, "depthwise_regularizer": {"class_name": "L1L2", "config": {"l1": 0.0, "l2": 3.9999998989515007e-05}}, "depthwise_constraint": null}, "inbound_nodes": [[["Openpose/MConv_Stage6_L1_3BatchNorm", 0, 0, {}]]]}, {"name": "Openpose/MConv_Stage6_L2_4_pointwise", "class_name": "Conv2D", "config": {"name": "Openpose/MConv_Stage6_L2_4_pointwise", "trainable": true, "dtype": "float32", "filters": 64, "kernel_size": [1, 1], "strides": [1, 1], "padding": "same", "data_format": "channels_last", "dilation_rate": [1, 1], "activation": "relu", "use_bias": false, "kernel_initializer": {"class_name": "VarianceScaling", "config": {"scale": 1.0, "mode": "fan_avg", "distribution": "uniform", "seed": null}}, "bias_initializer": {"class_name": "Zeros", "config": {}}, "kernel_regularizer": {"class_name": "L1L2", "config": {"l1": 0.0, "l2": 3.9999998989515007e-05}}, "bias_regularizer": null, "activity_regularizer": null, "kernel_constraint": null, "bias_constraint": null}, "inbound_nodes": [[["Openpose/MConv_Stage6_L2_4_depthwise", 0, 0, {}]]]}, {"name": "Openpose/MConv_Stage6_L1_4_pointwise", "class_name": "Conv2D", "config": {"name": "Openpose/MConv_Stage6_L1_4_pointwise", "trainable": true, "dtype": "float32", "filters": 64, "kernel_size": [1, 1], "strides": [1, 1], "padding": "same", "data_format": "channels_last", "dilation_rate": [1, 1], "activation": "relu", "use_bias": false, "kernel_initializer": {"class_name": "VarianceScaling", "config": {"scale": 1.0, "mode": "fan_avg", "distribution": "uniform", "seed": null}}, "bias_initializer": {"class_name": "Zeros", "config": {}}, "kernel_regularizer": {"class_name": "L1L2", "config": {"l1": 0.0, "l2": 3.9999998989515007e-05}}, "bias_regularizer": null, "activity_regularizer": null, "kernel_constraint": null, "bias_constraint": null}, "inbound_nodes": [[["Openpose/MConv_Stage6_L1_4_depthwise", 0, 0, {}]]]}, {"name": "Openpose/MConv_Stage6_L2_4BatchNorm", "class_name": "BatchNormalization", "config": {"name": "Openpose/MConv_Stage6_L2_4BatchNorm", "trainable": true, "dtype": "float32", "axis": -1, "momentum": 0.999, "epsilon": 0.001, "center": true, "scale": false, "beta_initializer": {"class_name": "Zeros", "config": {}}, "gamma_initializer": {"class_name": "Ones", "config": {}}, "moving_mean_initializer": {"class_name": "Zeros", "config": {}}, "moving_variance_initializer": {"class_name": "Ones", "config": {}}, "beta_regularizer": null, "gamma_regularizer": null, "beta_constraint": null, "gamma_constraint": null}, "inbound_nodes": [[["Openpose/MConv_Stage6_L2_4_pointwise", 0, 0, {}]]]}, {"name": "Openpose/MConv_Stage6_L1_4BatchNorm", "class_name": "BatchNormalization", "config": {"name": "Openpose/MConv_Stage6_L1_4BatchNorm", "trainable": true, "dtype": "float32", "axis": -1, "momentum": 0.999, "epsilon": 0.001, "center": true, "scale": false, "beta_initializer": {"class_name": "Zeros", "config": {}}, "gamma_initializer": {"class_name": "Ones", "config": {}}, "moving_mean_initializer": {"class_name": "Zeros", "config": {}}, "moving_variance_initializer": {"class_name": "Ones", "config": {}}, "beta_regularizer": null, "gamma_regularizer": null, "beta_constraint": null, "gamma_constraint": null}, "inbound_nodes": [[["Openpose/MConv_Stage6_L1_4_pointwise", 0, 0, {}]]]}, {"name": "Openpose/MConv_Stage6_L2_5_depthwise", "class_name": "DepthwiseConv2D", "config": {"name": "Openpose/MConv_Stage6_L2_5_depthwise", "trainable": true, "dtype": "float32", "kernel_size": [1, 1], "strides": [1, 1], "padding": "same", "data_format": "channels_last", "dilation_rate": [1, 1], "activation": "linear", "use_bias": false, "bias_initializer": {"class_name": "Zeros", "config": {}}, "bias_regularizer": null, "activity_regularizer": null, "bias_constraint": null, "depth_multiplier": 1, "depthwise_initializer": {"class_name": "VarianceScaling", "config": {"scale": 1.0, "mode": "fan_avg", "distribution": "uniform", "seed": null}}, "depthwise_regularizer": {"class_name": "L1L2", "config": {"l1": 0.0, "l2": 3.9999998989515007e-05}}, "depthwise_constraint": null}, "inbound_nodes": [[["Openpose/MConv_Stage6_L2_4BatchNorm", 0, 0, {}]]]}, {"name": "Openpose/MConv_Stage6_L1_5_depthwise", "class_name": "DepthwiseConv2D", "config": {"name": "Openpose/MConv_Stage6_L1_5_depthwise", "trainable": true, "dtype": "float32", "kernel_size": [1, 1], "strides": [1, 1], "padding": "same", "data_format": "channels_last", "dilation_rate": [1, 1], "activation": "linear", "use_bias": false, "bias_initializer": {"class_name": "Zeros", "config": {}}, "bias_regularizer": null, "activity_regularizer": null, "bias_constraint": null, "depth_multiplier": 1, "depthwise_initializer": {"class_name": "VarianceScaling", "config": {"scale": 1.0, "mode": "fan_avg", "distribution": "uniform", "seed": null}}, "depthwise_regularizer": {"class_name": "L1L2", "config": {"l1": 0.0, "l2": 3.9999998989515007e-05}}, "depthwise_constraint": null}, "inbound_nodes": [[["Openpose/MConv_Stage6_L1_4BatchNorm", 0, 0, {}]]]}, {"name": "Openpose/MConv_Stage6_L2_5_pointwise", "class_name": "Conv2D", "config": {"name": "Openpose/MConv_Stage6_L2_5_pointwise", "trainable": true, "dtype": "float32", "filters": 22, "kernel_size": [1, 1], "strides": [1, 1], "padding": "same", "data_format": "channels_last", "dilation_rate": [1, 1], "activation": "linear", "use_bias": false, "kernel_initializer": {"class_name": "VarianceScaling", "config": {"scale": 1.0, "mode": "fan_avg", "distribution": "uniform", "seed": null}}, "bias_initializer": {"class_name": "Zeros", "config": {}}, "kernel_regularizer": {"class_name": "L1L2", "config": {"l1": 0.0, "l2": 3.9999998989515007e-05}}, "bias_regularizer": null, "activity_regularizer": null, "kernel_constraint": null, "bias_constraint": null}, "inbound_nodes": [[["Openpose/MConv_Stage6_L2_5_depthwise", 0, 0, {}]]]}, {"name": "Openpose/MConv_Stage6_L1_5_pointwise", "class_name": "Conv2D", "config": {"name": "Openpose/MConv_Stage6_L1_5_pointwise", "trainable": true, "dtype": "float32", "filters": 38, "kernel_size": [1, 1], "strides": [1, 1], "padding": "same", "data_format": "channels_last", "dilation_rate": [1, 1], "activation": "linear", "use_bias": false, "kernel_initializer": {"class_name": "VarianceScaling", "config": {"scale": 1.0, "mode": "fan_avg", "distribution": "uniform", "seed": null}}, "bias_initializer": {"class_name": "Zeros", "config": {}}, "kernel_regularizer": {"class_name": "L1L2", "config": {"l1": 0.0, "l2": 3.9999998989515007e-05}}, "bias_regularizer": null, "activity_regularizer": null, "kernel_constraint": null, "bias_constraint": null}, "inbound_nodes": [[["Openpose/MConv_Stage6_L1_5_depthwise", 0, 0, {}]]]}, {"name": "Openpose/MConv_Stage6_L2_5BatchNorm", "class_name": "BatchNormalization", "config": {"name": "Openpose/MConv_Stage6_L2_5BatchNorm", "trainable": true, "dtype": "float32", "axis": -1, "momentum": 0.999, "epsilon": 0.001, "center": true, "scale": false, "beta_initializer": {"class_name": "Zeros", "config": {}}, "gamma_initializer": {"class_name": "Ones", "config": {}}, "moving_mean_initializer": {"class_name": "Zeros", "config": {}}, "moving_variance_initializer": {"class_name": "Ones", "config": {}}, "beta_regularizer": null, "gamma_regularizer": null, "beta_constraint": null, "gamma_constraint": null}, "inbound_nodes": [[["Openpose/MConv_Stage6_L2_5_pointwise", 0, 0, {}]]]}, {"name": "Openpose/MConv_Stage6_L1_5BatchNorm", "class_name": "BatchNormalization", "config": {"name": "Openpose/MConv_Stage6_L1_5BatchNorm", "trainable": true, "dtype": "float32", "axis": -1, "momentum": 0.999, "epsilon": 0.001, "center": true, "scale": false, "beta_initializer": {"class_name": "Zeros", "config": {}}, "gamma_initializer": {"class_name": "Ones", "config": {}}, "moving_mean_initializer": {"class_name": "Zeros", "config": {}}, "moving_variance_initializer": {"class_name": "Ones", "config": {}}, "beta_regularizer": null, "gamma_regularizer": null, "beta_constraint": null, "gamma_constraint": null}, "inbound_nodes": [[["Openpose/MConv_Stage6_L1_5_pointwise", 0, 0, {}]]]}, {"name": "Openpose/concat_stage7", "class_name": "Concatenate", "config": {"name": "Openpose/concat_stage7", "trainable": true, "dtype": "float32", "axis": 3}, "inbound_nodes": [[["Openpose/MConv_Stage6_L2_5BatchNorm", 0, 0, {}], ["Openpose/MConv_Stage6_L1_5BatchNorm", 0, 0, {}]]]}], "input_layers": [["image", 0, 0]], "output_layers": [["Openpose/concat_stage7", 0, 0]]}}, "training_config": {"optimizer_config": {"class_name": "RMSprop", "config": {"lr": 0.0010000000474974513, "rho": 0.8999999761581421, "decay": 0.0, "epsilon": 1e-07}}, "loss": "categorical_crossentropy", "metrics": ["accuracy"], "weighted_metrics": null, "sample_weight_mode": null, "loss_weights": null}}, "weightsManifest": [{"paths": ["group1-shard1of2.bin", "group1-shard2of2.bin"], "weights": [{"name": "MobilenetV1/Conv2d_0/kernel", "shape": [3, 3, 3, 24], "dtype": "float32"}, {"name": "MobilenetV1/Conv2d_0BatchNorm/beta", "shape": [24], "dtype": "float32"}, {"name": "MobilenetV1/Conv2d_0BatchNorm/moving_mean", "shape": [24], "dtype": "float32"}, {"name": "MobilenetV1/Conv2d_0BatchNorm/moving_variance", "shape": [24], "dtype": "float32"}, {"name": "MobilenetV1/Conv2d_10BatchNorm/beta", "shape": [384], "dtype": "float32"}, {"name": "MobilenetV1/Conv2d_10BatchNorm/moving_mean", "shape": [384], "dtype": "float32"}, {"name": "MobilenetV1/Conv2d_10BatchNorm/moving_variance", "shape": [384], "dtype": "float32"}, {"name": "MobilenetV1/Conv2d_10_depthwise/depthwise_kernel", "shape": [3, 3, 384, 1], "dtype": "float32"}, {"name": "MobilenetV1/Conv2d_10_pointwise/kernel", "shape": [1, 1, 384, 384], "dtype": "float32"}, {"name": "MobilenetV1/Conv2d_11BatchNorm/beta", "shape": [384], "dtype": "float32"}, {"name": "MobilenetV1/Conv2d_11BatchNorm/moving_mean", "shape": [384], "dtype": "float32"}, {"name": "MobilenetV1/Conv2d_11BatchNorm/moving_variance", "shape": [384], "dtype": "float32"}, {"name": "MobilenetV1/Conv2d_11_depthwise/depthwise_kernel", "shape": [3, 3, 384, 1], "dtype": "float32"}, {"name": "MobilenetV1/Conv2d_11_pointwise/kernel", "shape": [1, 1, 384, 384], "dtype": "float32"}, {"name": "MobilenetV1/Conv2d_1BatchNorm/beta", "shape": [48], "dtype": "float32"}, {"name": "MobilenetV1/Conv2d_1BatchNorm/moving_mean", "shape": [48], "dtype": "float32"}, {"name": "MobilenetV1/Conv2d_1BatchNorm/moving_variance", "shape": [48], "dtype": "float32"}, {"name": "MobilenetV1/Conv2d_1_depthwise/depthwise_kernel", "shape": [3, 3, 24, 1], "dtype": "float32"}, {"name": "MobilenetV1/Conv2d_1_pointwise/kernel", "shape": [1, 1, 24, 48], "dtype": "float32"}, {"name": "MobilenetV1/Conv2d_2BatchNorm/beta", "shape": [96], "dtype": "float32"}, {"name": "MobilenetV1/Conv2d_2BatchNorm/moving_mean", "shape": [96], "dtype": "float32"}, {"name": "MobilenetV1/Conv2d_2BatchNorm/moving_variance", "shape": [96], "dtype": "float32"}, {"name": "MobilenetV1/Conv2d_2_depthwise/depthwise_kernel", "shape": [3, 3, 48, 1], "dtype": "float32"}, {"name": "MobilenetV1/Conv2d_2_pointwise/kernel", "shape": [1, 1, 48, 96], "dtype": "float32"}, {"name": "MobilenetV1/Conv2d_3BatchNorm/beta", "shape": [96], "dtype": "float32"}, {"name": "MobilenetV1/Conv2d_3BatchNorm/moving_mean", "shape": [96], "dtype": "float32"}, {"name": "MobilenetV1/Conv2d_3BatchNorm/moving_variance", "shape": [96], "dtype": "float32"}, {"name": "MobilenetV1/Conv2d_3_depthwise/depthwise_kernel", "shape": [3, 3, 96, 1], "dtype": "float32"}, {"name": "MobilenetV1/Conv2d_3_pointwise/kernel", "shape": [1, 1, 96, 96], "dtype": "float32"}, {"name": "MobilenetV1/Conv2d_4BatchNorm/beta", "shape": [192], "dtype": "float32"}, {"name": "MobilenetV1/Conv2d_4BatchNorm/moving_mean", "shape": [192], "dtype": "float32"}, {"name": "MobilenetV1/Conv2d_4BatchNorm/moving_variance", "shape": [192], "dtype": "float32"}, {"name": "MobilenetV1/Conv2d_4_depthwise/depthwise_kernel", "shape": [3, 3, 96, 1], "dtype": "float32"}, {"name": "MobilenetV1/Conv2d_4_pointwise/kernel", "shape": [1, 1, 96, 192], "dtype": "float32"}, {"name": "MobilenetV1/Conv2d_5BatchNorm/beta", "shape": [192], "dtype": "float32"}, {"name": "MobilenetV1/Conv2d_5BatchNorm/moving_mean", "shape": [192], "dtype": "float32"}, {"name": "MobilenetV1/Conv2d_5BatchNorm/moving_variance", "shape": [192], "dtype": "float32"}, {"name": "MobilenetV1/Conv2d_5_depthwise/depthwise_kernel", "shape": [3, 3, 192, 1], "dtype": "float32"}, {"name": "MobilenetV1/Conv2d_5_pointwise/kernel", "shape": [1, 1, 192, 192], "dtype": "float32"}, {"name": "MobilenetV1/Conv2d_6BatchNorm/beta", "shape": [384], "dtype": "float32"}, {"name": "MobilenetV1/Conv2d_6BatchNorm/moving_mean", "shape": [384], "dtype": "float32"}, {"name": "MobilenetV1/Conv2d_6BatchNorm/moving_variance", "shape": [384], "dtype": "float32"}, {"name": "MobilenetV1/Conv2d_6_depthwise/depthwise_kernel", "shape": [3, 3, 192, 1], "dtype": "float32"}, {"name": "MobilenetV1/Conv2d_6_pointwise/kernel", "shape": [1, 1, 192, 384], "dtype": "float32"}, {"name": "MobilenetV1/Conv2d_7BatchNorm/beta", "shape": [384], "dtype": "float32"}, {"name": "MobilenetV1/Conv2d_7BatchNorm/moving_mean", "shape": [384], "dtype": "float32"}, {"name": "MobilenetV1/Conv2d_7BatchNorm/moving_variance", "shape": [384], "dtype": "float32"}, {"name": "MobilenetV1/Conv2d_7_depthwise/depthwise_kernel", "shape": [3, 3, 384, 1], "dtype": "float32"}, {"name": "MobilenetV1/Conv2d_7_pointwise/kernel", "shape": [1, 1, 384, 384], "dtype": "float32"}, {"name": "MobilenetV1/Conv2d_8BatchNorm/beta", "shape": [384], "dtype": "float32"}, {"name": "MobilenetV1/Conv2d_8BatchNorm/moving_mean", "shape": [384], "dtype": "float32"}, {"name": "MobilenetV1/Conv2d_8BatchNorm/moving_variance", "shape": [384], "dtype": "float32"}, {"name": "MobilenetV1/Conv2d_8_depthwise/depthwise_kernel", "shape": [3, 3, 384, 1], "dtype": "float32"}, {"name": "MobilenetV1/Conv2d_8_pointwise/kernel", "shape": [1, 1, 384, 384], "dtype": "float32"}, {"name": "MobilenetV1/Conv2d_9BatchNorm/beta", "shape": [384], "dtype": "float32"}, {"name": "MobilenetV1/Conv2d_9BatchNorm/moving_mean", "shape": [384], "dtype": "float32"}, {"name": "MobilenetV1/Conv2d_9BatchNorm/moving_variance", "shape": [384], "dtype": "float32"}, {"name": "MobilenetV1/Conv2d_9_depthwise/depthwise_kernel", "shape": [3, 3, 384, 1], "dtype": "float32"}, {"name": "MobilenetV1/Conv2d_9_pointwise/kernel", "shape": [1, 1, 384, 384], "dtype": "float32"}, {"name": "Openpose/MConv_Stage1_L1_1BatchNorm/beta", "shape": [64], "dtype": "float32"}, {"name": "Openpose/MConv_Stage1_L1_1BatchNorm/moving_mean", "shape": [64], "dtype": "float32"}, {"name": "Openpose/MConv_Stage1_L1_1BatchNorm/moving_variance", "shape": [64], "dtype": "float32"}, {"name": "Openpose/MConv_Stage1_L1_1_depthwise/depthwise_kernel", "shape": [3, 3, 864, 1], "dtype": "float32"}, {"name": "Openpose/MConv_Stage1_L1_1_pointwise/kernel", "shape": [1, 1, 864, 64], "dtype": "float32"}, {"name": "Openpose/MConv_Stage1_L1_2BatchNorm/beta", "shape": [64], "dtype": "float32"}, {"name": "Openpose/MConv_Stage1_L1_2BatchNorm/moving_mean", "shape": [64], "dtype": "float32"}, {"name": "Openpose/MConv_Stage1_L1_2BatchNorm/moving_variance", "shape": [64], "dtype": "float32"}, {"name": "Openpose/MConv_Stage1_L1_2_depthwise/depthwise_kernel", "shape": [3, 3, 64, 1], "dtype": "float32"}, {"name": "Openpose/MConv_Stage1_L1_2_pointwise/kernel", "shape": [1, 1, 64, 64], "dtype": "float32"}, {"name": "Openpose/MConv_Stage1_L1_3BatchNorm/beta", "shape": [64], "dtype": "float32"}, {"name": "Openpose/MConv_Stage1_L1_3BatchNorm/moving_mean", "shape": [64], "dtype": "float32"}, {"name": "Openpose/MConv_Stage1_L1_3BatchNorm/moving_variance", "shape": [64], "dtype": "float32"}, {"name": "Openpose/MConv_Stage1_L1_3_depthwise/depthwise_kernel", "shape": [3, 3, 64, 1], "dtype": "float32"}, {"name": "Openpose/MConv_Stage1_L1_3_pointwise/kernel", "shape": [1, 1, 64, 64], "dtype": "float32"}, {"name": "Openpose/MConv_Stage1_L1_4BatchNorm/beta", "shape": [256], "dtype": "float32"}, {"name": "Openpose/MConv_Stage1_L1_4BatchNorm/moving_mean", "shape": [256], "dtype": "float32"}, {"name": "Openpose/MConv_Stage1_L1_4BatchNorm/moving_variance", "shape": [256], "dtype": "float32"}, {"name": "Openpose/MConv_Stage1_L1_4_depthwise/depthwise_kernel", "shape": [1, 1, 64, 1], "dtype": "float32"}, {"name": "Openpose/MConv_Stage1_L1_4_pointwise/kernel", "shape": [1, 1, 64, 256], "dtype": "float32"}, {"name": "Openpose/MConv_Stage1_L1_5BatchNorm/beta", "shape": [38], "dtype": "float32"}, {"name": "Openpose/MConv_Stage1_L1_5BatchNorm/moving_mean", "shape": [38], "dtype": "float32"}, {"name": "Openpose/MConv_Stage1_L1_5BatchNorm/moving_variance", "shape": [38], "dtype": "float32"}, {"name": "Openpose/MConv_Stage1_L1_5_depthwise/depthwise_kernel", "shape": [1, 1, 256, 1], "dtype": "float32"}, {"name": "Openpose/MConv_Stage1_L1_5_pointwise/kernel", "shape": [1, 1, 256, 38], "dtype": "float32"}, {"name": "Openpose/MConv_Stage1_L2_1BatchNorm/beta", "shape": [64], "dtype": "float32"}, {"name": "Openpose/MConv_Stage1_L2_1BatchNorm/moving_mean", "shape": [64], "dtype": "float32"}, {"name": "Openpose/MConv_Stage1_L2_1BatchNorm/moving_variance", "shape": [64], "dtype": "float32"}, {"name": "Openpose/MConv_Stage1_L2_1_depthwise/depthwise_kernel", "shape": [3, 3, 864, 1], "dtype": "float32"}, {"name": "Openpose/MConv_Stage1_L2_1_pointwise/kernel", "shape": [1, 1, 864, 64], "dtype": "float32"}, {"name": "Openpose/MConv_Stage1_L2_2BatchNorm/beta", "shape": [64], "dtype": "float32"}, {"name": "Openpose/MConv_Stage1_L2_2BatchNorm/moving_mean", "shape": [64], "dtype": "float32"}, {"name": "Openpose/MConv_Stage1_L2_2BatchNorm/moving_variance", "shape": [64], "dtype": "float32"}, {"name": "Openpose/MConv_Stage1_L2_2_depthwise/depthwise_kernel", "shape": [3, 3, 64, 1], "dtype": "float32"}, {"name": "Openpose/MConv_Stage1_L2_2_pointwise/kernel", "shape": [1, 1, 64, 64], "dtype": "float32"}, {"name": "Openpose/MConv_Stage1_L2_3BatchNorm/beta", "shape": [64], "dtype": "float32"}, {"name": "Openpose/MConv_Stage1_L2_3BatchNorm/moving_mean", "shape": [64], "dtype": "float32"}, {"name": "Openpose/MConv_Stage1_L2_3BatchNorm/moving_variance", "shape": [64], "dtype": "float32"}, {"name": "Openpose/MConv_Stage1_L2_3_depthwise/depthwise_kernel", "shape": [3, 3, 64, 1], "dtype": "float32"}, {"name": "Openpose/MConv_Stage1_L2_3_pointwise/kernel", "shape": [1, 1, 64, 64], "dtype": "float32"}, {"name": "Openpose/MConv_Stage1_L2_4BatchNorm/beta", "shape": [256], "dtype": "float32"}, {"name": "Openpose/MConv_Stage1_L2_4BatchNorm/moving_mean", "shape": [256], "dtype": "float32"}, {"name": "Openpose/MConv_Stage1_L2_4BatchNorm/moving_variance", "shape": [256], "dtype": "float32"}, {"name": "Openpose/MConv_Stage1_L2_4_depthwise/depthwise_kernel", "shape": [1, 1, 64, 1], "dtype": "float32"}, {"name": "Openpose/MConv_Stage1_L2_4_pointwise/kernel", "shape": [1, 1, 64, 256], "dtype": "float32"}, {"name": "Openpose/MConv_Stage1_L2_5BatchNorm/beta", "shape": [22], "dtype": "float32"}, {"name": "Openpose/MConv_Stage1_L2_5BatchNorm/moving_mean", "shape": [22], "dtype": "float32"}, {"name": "Openpose/MConv_Stage1_L2_5BatchNorm/moving_variance", "shape": [22], "dtype": "float32"}, {"name": "Openpose/MConv_Stage1_L2_5_depthwise/depthwise_kernel", "shape": [1, 1, 256, 1], "dtype": "float32"}, {"name": "Openpose/MConv_Stage1_L2_5_pointwise/kernel", "shape": [1, 1, 256, 22], "dtype": "float32"}, {"name": "Openpose/MConv_Stage2_L1_1BatchNorm/beta", "shape": [64], "dtype": "float32"}, {"name": "Openpose/MConv_Stage2_L1_1BatchNorm/moving_mean", "shape": [64], "dtype": "float32"}, {"name": "Openpose/MConv_Stage2_L1_1BatchNorm/moving_variance", "shape": [64], "dtype": "float32"}, {"name": "Openpose/MConv_Stage2_L1_1_depthwise/depthwise_kernel", "shape": [3, 3, 924, 1], "dtype": "float32"}, {"name": "Openpose/MConv_Stage2_L1_1_pointwise/kernel", "shape": [1, 1, 924, 64], "dtype": "float32"}, {"name": "Openpose/MConv_Stage2_L1_2BatchNorm/beta", "shape": [64], "dtype": "float32"}, {"name": "Openpose/MConv_Stage2_L1_2BatchNorm/moving_mean", "shape": [64], "dtype": "float32"}, {"name": "Openpose/MConv_Stage2_L1_2BatchNorm/moving_variance", "shape": [64], "dtype": "float32"}, {"name": "Openpose/MConv_Stage2_L1_2_depthwise/depthwise_kernel", "shape": [3, 3, 64, 1], "dtype": "float32"}, {"name": "Openpose/MConv_Stage2_L1_2_pointwise/kernel", "shape": [1, 1, 64, 64], "dtype": "float32"}, {"name": "Openpose/MConv_Stage2_L1_3BatchNorm/beta", "shape": [64], "dtype": "float32"}, {"name": "Openpose/MConv_Stage2_L1_3BatchNorm/moving_mean", "shape": [64], "dtype": "float32"}, {"name": "Openpose/MConv_Stage2_L1_3BatchNorm/moving_variance", "shape": [64], "dtype": "float32"}, {"name": "Openpose/MConv_Stage2_L1_3_depthwise/depthwise_kernel", "shape": [3, 3, 64, 1], "dtype": "float32"}, {"name": "Openpose/MConv_Stage2_L1_3_pointwise/kernel", "shape": [1, 1, 64, 64], "dtype": "float32"}, {"name": "Openpose/MConv_Stage2_L1_4BatchNorm/beta", "shape": [64], "dtype": "float32"}, {"name": "Openpose/MConv_Stage2_L1_4BatchNorm/moving_mean", "shape": [64], "dtype": "float32"}, {"name": "Openpose/MConv_Stage2_L1_4BatchNorm/moving_variance", "shape": [64], "dtype": "float32"}, {"name": "Openpose/MConv_Stage2_L1_4_depthwise/depthwise_kernel", "shape": [1, 1, 64, 1], "dtype": "float32"}, {"name": "Openpose/MConv_Stage2_L1_4_pointwise/kernel", "shape": [1, 1, 64, 64], "dtype": "float32"}, {"name": "Openpose/MConv_Stage2_L1_5BatchNorm/beta", "shape": [38], "dtype": "float32"}, {"name": "Openpose/MConv_Stage2_L1_5BatchNorm/moving_mean", "shape": [38], "dtype": "float32"}, {"name": "Openpose/MConv_Stage2_L1_5BatchNorm/moving_variance", "shape": [38], "dtype": "float32"}, {"name": "Openpose/MConv_Stage2_L1_5_depthwise/depthwise_kernel", "shape": [1, 1, 64, 1], "dtype": "float32"}, {"name": "Openpose/MConv_Stage2_L1_5_pointwise/kernel", "shape": [1, 1, 64, 38], "dtype": "float32"}, {"name": "Openpose/MConv_Stage2_L2_1BatchNorm/beta", "shape": [64], "dtype": "float32"}, {"name": "Openpose/MConv_Stage2_L2_1BatchNorm/moving_mean", "shape": [64], "dtype": "float32"}, {"name": "Openpose/MConv_Stage2_L2_1BatchNorm/moving_variance", "shape": [64], "dtype": "float32"}, {"name": "Openpose/MConv_Stage2_L2_1_depthwise/depthwise_kernel", "shape": [3, 3, 924, 1], "dtype": "float32"}, {"name": "Openpose/MConv_Stage2_L2_1_pointwise/kernel", "shape": [1, 1, 924, 64], "dtype": "float32"}, {"name": "Openpose/MConv_Stage2_L2_2BatchNorm/beta", "shape": [64], "dtype": "float32"}, {"name": "Openpose/MConv_Stage2_L2_2BatchNorm/moving_mean", "shape": [64], "dtype": "float32"}, {"name": "Openpose/MConv_Stage2_L2_2BatchNorm/moving_variance", "shape": [64], "dtype": "float32"}, {"name": "Openpose/MConv_Stage2_L2_2_depthwise/depthwise_kernel", "shape": [3, 3, 64, 1], "dtype": "float32"}, {"name": "Openpose/MConv_Stage2_L2_2_pointwise/kernel", "shape": [1, 1, 64, 64], "dtype": "float32"}, {"name": "Openpose/MConv_Stage2_L2_3BatchNorm/beta", "shape": [64], "dtype": "float32"}, {"name": "Openpose/MConv_Stage2_L2_3BatchNorm/moving_mean", "shape": [64], "dtype": "float32"}, {"name": "Openpose/MConv_Stage2_L2_3BatchNorm/moving_variance", "shape": [64], "dtype": "float32"}, {"name": "Openpose/MConv_Stage2_L2_3_depthwise/depthwise_kernel", "shape": [3, 3, 64, 1], "dtype": "float32"}, {"name": "Openpose/MConv_Stage2_L2_3_pointwise/kernel", "shape": [1, 1, 64, 64], "dtype": "float32"}, {"name": "Openpose/MConv_Stage2_L2_4BatchNorm/beta", "shape": [64], "dtype": "float32"}, {"name": "Openpose/MConv_Stage2_L2_4BatchNorm/moving_mean", "shape": [64], "dtype": "float32"}, {"name": "Openpose/MConv_Stage2_L2_4BatchNorm/moving_variance", "shape": [64], "dtype": "float32"}, {"name": "Openpose/MConv_Stage2_L2_4_depthwise/depthwise_kernel", "shape": [1, 1, 64, 1], "dtype": "float32"}, {"name": "Openpose/MConv_Stage2_L2_4_pointwise/kernel", "shape": [1, 1, 64, 64], "dtype": "float32"}, {"name": "Openpose/MConv_Stage2_L2_5BatchNorm/beta", "shape": [22], "dtype": "float32"}, {"name": "Openpose/MConv_Stage2_L2_5BatchNorm/moving_mean", "shape": [22], "dtype": "float32"}, {"name": "Openpose/MConv_Stage2_L2_5BatchNorm/moving_variance", "shape": [22], "dtype": "float32"}, {"name": "Openpose/MConv_Stage2_L2_5_depthwise/depthwise_kernel", "shape": [1, 1, 64, 1], "dtype": "float32"}, {"name": "Openpose/MConv_Stage2_L2_5_pointwise/kernel", "shape": [1, 1, 64, 22], "dtype": "float32"}, {"name": "Openpose/MConv_Stage3_L1_1BatchNorm/beta", "shape": [64], "dtype": "float32"}, {"name": "Openpose/MConv_Stage3_L1_1BatchNorm/moving_mean", "shape": [64], "dtype": "float32"}, {"name": "Openpose/MConv_Stage3_L1_1BatchNorm/moving_variance", "shape": [64], "dtype": "float32"}, {"name": "Openpose/MConv_Stage3_L1_1_depthwise/depthwise_kernel", "shape": [3, 3, 924, 1], "dtype": "float32"}, {"name": "Openpose/MConv_Stage3_L1_1_pointwise/kernel", "shape": [1, 1, 924, 64], "dtype": "float32"}, {"name": "Openpose/MConv_Stage3_L1_2BatchNorm/beta", "shape": [64], "dtype": "float32"}, {"name": "Openpose/MConv_Stage3_L1_2BatchNorm/moving_mean", "shape": [64], "dtype": "float32"}, {"name": "Openpose/MConv_Stage3_L1_2BatchNorm/moving_variance", "shape": [64], "dtype": "float32"}, {"name": "Openpose/MConv_Stage3_L1_2_depthwise/depthwise_kernel", "shape": [3, 3, 64, 1], "dtype": "float32"}, {"name": "Openpose/MConv_Stage3_L1_2_pointwise/kernel", "shape": [1, 1, 64, 64], "dtype": "float32"}, {"name": "Openpose/MConv_Stage3_L1_3BatchNorm/beta", "shape": [64], "dtype": "float32"}, {"name": "Openpose/MConv_Stage3_L1_3BatchNorm/moving_mean", "shape": [64], "dtype": "float32"}, {"name": "Openpose/MConv_Stage3_L1_3BatchNorm/moving_variance", "shape": [64], "dtype": "float32"}, {"name": "Openpose/MConv_Stage3_L1_3_depthwise/depthwise_kernel", "shape": [3, 3, 64, 1], "dtype": "float32"}, {"name": "Openpose/MConv_Stage3_L1_3_pointwise/kernel", "shape": [1, 1, 64, 64], "dtype": "float32"}, {"name": "Openpose/MConv_Stage3_L1_4BatchNorm/beta", "shape": [64], "dtype": "float32"}, {"name": "Openpose/MConv_Stage3_L1_4BatchNorm/moving_mean", "shape": [64], "dtype": "float32"}, {"name": "Openpose/MConv_Stage3_L1_4BatchNorm/moving_variance", "shape": [64], "dtype": "float32"}, {"name": "Openpose/MConv_Stage3_L1_4_depthwise/depthwise_kernel", "shape": [1, 1, 64, 1], "dtype": "float32"}, {"name": "Openpose/MConv_Stage3_L1_4_pointwise/kernel", "shape": [1, 1, 64, 64], "dtype": "float32"}, {"name": "Openpose/MConv_Stage3_L1_5BatchNorm/beta", "shape": [38], "dtype": "float32"}, {"name": "Openpose/MConv_Stage3_L1_5BatchNorm/moving_mean", "shape": [38], "dtype": "float32"}, {"name": "Openpose/MConv_Stage3_L1_5BatchNorm/moving_variance", "shape": [38], "dtype": "float32"}, {"name": "Openpose/MConv_Stage3_L1_5_depthwise/depthwise_kernel", "shape": [1, 1, 64, 1], "dtype": "float32"}, {"name": "Openpose/MConv_Stage3_L1_5_pointwise/kernel", "shape": [1, 1, 64, 38], "dtype": "float32"}, {"name": "Openpose/MConv_Stage3_L2_1BatchNorm/beta", "shape": [64], "dtype": "float32"}, {"name": "Openpose/MConv_Stage3_L2_1BatchNorm/moving_mean", "shape": [64], "dtype": "float32"}, {"name": "Openpose/MConv_Stage3_L2_1BatchNorm/moving_variance", "shape": [64], "dtype": "float32"}, {"name": "Openpose/MConv_Stage3_L2_1_depthwise/depthwise_kernel", "shape": [3, 3, 924, 1], "dtype": "float32"}, {"name": "Openpose/MConv_Stage3_L2_1_pointwise/kernel", "shape": [1, 1, 924, 64], "dtype": "float32"}, {"name": "Openpose/MConv_Stage3_L2_2BatchNorm/beta", "shape": [64], "dtype": "float32"}, {"name": "Openpose/MConv_Stage3_L2_2BatchNorm/moving_mean", "shape": [64], "dtype": "float32"}, {"name": "Openpose/MConv_Stage3_L2_2BatchNorm/moving_variance", "shape": [64], "dtype": "float32"}, {"name": "Openpose/MConv_Stage3_L2_2_depthwise/depthwise_kernel", "shape": [3, 3, 64, 1], "dtype": "float32"}, {"name": "Openpose/MConv_Stage3_L2_2_pointwise/kernel", "shape": [1, 1, 64, 64], "dtype": "float32"}, {"name": "Openpose/MConv_Stage3_L2_3BatchNorm/beta", "shape": [64], "dtype": "float32"}, {"name": "Openpose/MConv_Stage3_L2_3BatchNorm/moving_mean", "shape": [64], "dtype": "float32"}, {"name": "Openpose/MConv_Stage3_L2_3BatchNorm/moving_variance", "shape": [64], "dtype": "float32"}, {"name": "Openpose/MConv_Stage3_L2_3_depthwise/depthwise_kernel", "shape": [3, 3, 64, 1], "dtype": "float32"}, {"name": "Openpose/MConv_Stage3_L2_3_pointwise/kernel", "shape": [1, 1, 64, 64], "dtype": "float32"}, {"name": "Openpose/MConv_Stage3_L2_4BatchNorm/beta", "shape": [64], "dtype": "float32"}, {"name": "Openpose/MConv_Stage3_L2_4BatchNorm/moving_mean", "shape": [64], "dtype": "float32"}, {"name": "Openpose/MConv_Stage3_L2_4BatchNorm/moving_variance", "shape": [64], "dtype": "float32"}, {"name": "Openpose/MConv_Stage3_L2_4_depthwise/depthwise_kernel", "shape": [1, 1, 64, 1], "dtype": "float32"}, {"name": "Openpose/MConv_Stage3_L2_4_pointwise/kernel", "shape": [1, 1, 64, 64], "dtype": "float32"}, {"name": "Openpose/MConv_Stage3_L2_5BatchNorm/beta", "shape": [22], "dtype": "float32"}, {"name": "Openpose/MConv_Stage3_L2_5BatchNorm/moving_mean", "shape": [22], "dtype": "float32"}, {"name": "Openpose/MConv_Stage3_L2_5BatchNorm/moving_variance", "shape": [22], "dtype": "float32"}, {"name": "Openpose/MConv_Stage3_L2_5_depthwise/depthwise_kernel", "shape": [1, 1, 64, 1], "dtype": "float32"}, {"name": "Openpose/MConv_Stage3_L2_5_pointwise/kernel", "shape": [1, 1, 64, 22], "dtype": "float32"}, {"name": "Openpose/MConv_Stage4_L1_1BatchNorm/beta", "shape": [64], "dtype": "float32"}, {"name": "Openpose/MConv_Stage4_L1_1BatchNorm/moving_mean", "shape": [64], "dtype": "float32"}, {"name": "Openpose/MConv_Stage4_L1_1BatchNorm/moving_variance", "shape": [64], "dtype": "float32"}, {"name": "Openpose/MConv_Stage4_L1_1_depthwise/depthwise_kernel", "shape": [3, 3, 924, 1], "dtype": "float32"}, {"name": "Openpose/MConv_Stage4_L1_1_pointwise/kernel", "shape": [1, 1, 924, 64], "dtype": "float32"}, {"name": "Openpose/MConv_Stage4_L1_2BatchNorm/beta", "shape": [64], "dtype": "float32"}, {"name": "Openpose/MConv_Stage4_L1_2BatchNorm/moving_mean", "shape": [64], "dtype": "float32"}, {"name": "Openpose/MConv_Stage4_L1_2BatchNorm/moving_variance", "shape": [64], "dtype": "float32"}, {"name": "Openpose/MConv_Stage4_L1_2_depthwise/depthwise_kernel", "shape": [3, 3, 64, 1], "dtype": "float32"}, {"name": "Openpose/MConv_Stage4_L1_2_pointwise/kernel", "shape": [1, 1, 64, 64], "dtype": "float32"}, {"name": "Openpose/MConv_Stage4_L1_3BatchNorm/beta", "shape": [64], "dtype": "float32"}, {"name": "Openpose/MConv_Stage4_L1_3BatchNorm/moving_mean", "shape": [64], "dtype": "float32"}, {"name": "Openpose/MConv_Stage4_L1_3BatchNorm/moving_variance", "shape": [64], "dtype": "float32"}, {"name": "Openpose/MConv_Stage4_L1_3_depthwise/depthwise_kernel", "shape": [3, 3, 64, 1], "dtype": "float32"}, {"name": "Openpose/MConv_Stage4_L1_3_pointwise/kernel", "shape": [1, 1, 64, 64], "dtype": "float32"}, {"name": "Openpose/MConv_Stage4_L1_4BatchNorm/beta", "shape": [64], "dtype": "float32"}, {"name": "Openpose/MConv_Stage4_L1_4BatchNorm/moving_mean", "shape": [64], "dtype": "float32"}, {"name": "Openpose/MConv_Stage4_L1_4BatchNorm/moving_variance", "shape": [64], "dtype": "float32"}, {"name": "Openpose/MConv_Stage4_L1_4_depthwise/depthwise_kernel", "shape": [1, 1, 64, 1], "dtype": "float32"}, {"name": "Openpose/MConv_Stage4_L1_4_pointwise/kernel", "shape": [1, 1, 64, 64], "dtype": "float32"}, {"name": "Openpose/MConv_Stage4_L1_5BatchNorm/beta", "shape": [38], "dtype": "float32"}, {"name": "Openpose/MConv_Stage4_L1_5BatchNorm/moving_mean", "shape": [38], "dtype": "float32"}, {"name": "Openpose/MConv_Stage4_L1_5BatchNorm/moving_variance", "shape": [38], "dtype": "float32"}, {"name": "Openpose/MConv_Stage4_L1_5_depthwise/depthwise_kernel", "shape": [1, 1, 64, 1], "dtype": "float32"}, {"name": "Openpose/MConv_Stage4_L1_5_pointwise/kernel", "shape": [1, 1, 64, 38], "dtype": "float32"}, {"name": "Openpose/MConv_Stage4_L2_1BatchNorm/beta", "shape": [64], "dtype": "float32"}, {"name": "Openpose/MConv_Stage4_L2_1BatchNorm/moving_mean", "shape": [64], "dtype": "float32"}, {"name": "Openpose/MConv_Stage4_L2_1BatchNorm/moving_variance", "shape": [64], "dtype": "float32"}, {"name": "Openpose/MConv_Stage4_L2_1_depthwise/depthwise_kernel", "shape": [3, 3, 924, 1], "dtype": "float32"}, {"name": "Openpose/MConv_Stage4_L2_1_pointwise/kernel", "shape": [1, 1, 924, 64], "dtype": "float32"}, {"name": "Openpose/MConv_Stage4_L2_2BatchNorm/beta", "shape": [64], "dtype": "float32"}, {"name": "Openpose/MConv_Stage4_L2_2BatchNorm/moving_mean", "shape": [64], "dtype": "float32"}, {"name": "Openpose/MConv_Stage4_L2_2BatchNorm/moving_variance", "shape": [64], "dtype": "float32"}, {"name": "Openpose/MConv_Stage4_L2_2_depthwise/depthwise_kernel", "shape": [3, 3, 64, 1], "dtype": "float32"}, {"name": "Openpose/MConv_Stage4_L2_2_pointwise/kernel", "shape": [1, 1, 64, 64], "dtype": "float32"}, {"name": "Openpose/MConv_Stage4_L2_3BatchNorm/beta", "shape": [64], "dtype": "float32"}, {"name": "Openpose/MConv_Stage4_L2_3BatchNorm/moving_mean", "shape": [64], "dtype": "float32"}, {"name": "Openpose/MConv_Stage4_L2_3BatchNorm/moving_variance", "shape": [64], "dtype": "float32"}, {"name": "Openpose/MConv_Stage4_L2_3_depthwise/depthwise_kernel", "shape": [3, 3, 64, 1], "dtype": "float32"}, {"name": "Openpose/MConv_Stage4_L2_3_pointwise/kernel", "shape": [1, 1, 64, 64], "dtype": "float32"}, {"name": "Openpose/MConv_Stage4_L2_4BatchNorm/beta", "shape": [64], "dtype": "float32"}, {"name": "Openpose/MConv_Stage4_L2_4BatchNorm/moving_mean", "shape": [64], "dtype": "float32"}, {"name": "Openpose/MConv_Stage4_L2_4BatchNorm/moving_variance", "shape": [64], "dtype": "float32"}, {"name": "Openpose/MConv_Stage4_L2_4_depthwise/depthwise_kernel", "shape": [1, 1, 64, 1], "dtype": "float32"}, {"name": "Openpose/MConv_Stage4_L2_4_pointwise/kernel", "shape": [1, 1, 64, 64], "dtype": "float32"}, {"name": "Openpose/MConv_Stage4_L2_5BatchNorm/beta", "shape": [22], "dtype": "float32"}, {"name": "Openpose/MConv_Stage4_L2_5BatchNorm/moving_mean", "shape": [22], "dtype": "float32"}, {"name": "Openpose/MConv_Stage4_L2_5BatchNorm/moving_variance", "shape": [22], "dtype": "float32"}, {"name": "Openpose/MConv_Stage4_L2_5_depthwise/depthwise_kernel", "shape": [1, 1, 64, 1], "dtype": "float32"}, {"name": "Openpose/MConv_Stage4_L2_5_pointwise/kernel", "shape": [1, 1, 64, 22], "dtype": "float32"}, {"name": "Openpose/MConv_Stage5_L1_1BatchNorm/beta", "shape": [64], "dtype": "float32"}, {"name": "Openpose/MConv_Stage5_L1_1BatchNorm/moving_mean", "shape": [64], "dtype": "float32"}, {"name": "Openpose/MConv_Stage5_L1_1BatchNorm/moving_variance", "shape": [64], "dtype": "float32"}, {"name": "Openpose/MConv_Stage5_L1_1_depthwise/depthwise_kernel", "shape": [3, 3, 924, 1], "dtype": "float32"}, {"name": "Openpose/MConv_Stage5_L1_1_pointwise/kernel", "shape": [1, 1, 924, 64], "dtype": "float32"}, {"name": "Openpose/MConv_Stage5_L1_2BatchNorm/beta", "shape": [64], "dtype": "float32"}, {"name": "Openpose/MConv_Stage5_L1_2BatchNorm/moving_mean", "shape": [64], "dtype": "float32"}, {"name": "Openpose/MConv_Stage5_L1_2BatchNorm/moving_variance", "shape": [64], "dtype": "float32"}, {"name": "Openpose/MConv_Stage5_L1_2_depthwise/depthwise_kernel", "shape": [3, 3, 64, 1], "dtype": "float32"}, {"name": "Openpose/MConv_Stage5_L1_2_pointwise/kernel", "shape": [1, 1, 64, 64], "dtype": "float32"}, {"name": "Openpose/MConv_Stage5_L1_3BatchNorm/beta", "shape": [64], "dtype": "float32"}, {"name": "Openpose/MConv_Stage5_L1_3BatchNorm/moving_mean", "shape": [64], "dtype": "float32"}, {"name": "Openpose/MConv_Stage5_L1_3BatchNorm/moving_variance", "shape": [64], "dtype": "float32"}, {"name": "Openpose/MConv_Stage5_L1_3_depthwise/depthwise_kernel", "shape": [3, 3, 64, 1], "dtype": "float32"}, {"name": "Openpose/MConv_Stage5_L1_3_pointwise/kernel", "shape": [1, 1, 64, 64], "dtype": "float32"}, {"name": "Openpose/MConv_Stage5_L1_4BatchNorm/beta", "shape": [64], "dtype": "float32"}, {"name": "Openpose/MConv_Stage5_L1_4BatchNorm/moving_mean", "shape": [64], "dtype": "float32"}, {"name": "Openpose/MConv_Stage5_L1_4BatchNorm/moving_variance", "shape": [64], "dtype": "float32"}, {"name": "Openpose/MConv_Stage5_L1_4_depthwise/depthwise_kernel", "shape": [1, 1, 64, 1], "dtype": "float32"}, {"name": "Openpose/MConv_Stage5_L1_4_pointwise/kernel", "shape": [1, 1, 64, 64], "dtype": "float32"}, {"name": "Openpose/MConv_Stage5_L1_5BatchNorm/beta", "shape": [38], "dtype": "float32"}, {"name": "Openpose/MConv_Stage5_L1_5BatchNorm/moving_mean", "shape": [38], "dtype": "float32"}, {"name": "Openpose/MConv_Stage5_L1_5BatchNorm/moving_variance", "shape": [38], "dtype": "float32"}, {"name": "Openpose/MConv_Stage5_L1_5_depthwise/depthwise_kernel", "shape": [1, 1, 64, 1], "dtype": "float32"}, {"name": "Openpose/MConv_Stage5_L1_5_pointwise/kernel", "shape": [1, 1, 64, 38], "dtype": "float32"}, {"name": "Openpose/MConv_Stage5_L2_1BatchNorm/beta", "shape": [64], "dtype": "float32"}, {"name": "Openpose/MConv_Stage5_L2_1BatchNorm/moving_mean", "shape": [64], "dtype": "float32"}, {"name": "Openpose/MConv_Stage5_L2_1BatchNorm/moving_variance", "shape": [64], "dtype": "float32"}, {"name": "Openpose/MConv_Stage5_L2_1_depthwise/depthwise_kernel", "shape": [3, 3, 924, 1], "dtype": "float32"}, {"name": "Openpose/MConv_Stage5_L2_1_pointwise/kernel", "shape": [1, 1, 924, 64], "dtype": "float32"}, {"name": "Openpose/MConv_Stage5_L2_2BatchNorm/beta", "shape": [64], "dtype": "float32"}, {"name": "Openpose/MConv_Stage5_L2_2BatchNorm/moving_mean", "shape": [64], "dtype": "float32"}, {"name": "Openpose/MConv_Stage5_L2_2BatchNorm/moving_variance", "shape": [64], "dtype": "float32"}, {"name": "Openpose/MConv_Stage5_L2_2_depthwise/depthwise_kernel", "shape": [3, 3, 64, 1], "dtype": "float32"}, {"name": "Openpose/MConv_Stage5_L2_2_pointwise/kernel", "shape": [1, 1, 64, 64], "dtype": "float32"}, {"name": "Openpose/MConv_Stage5_L2_3BatchNorm/beta", "shape": [64], "dtype": "float32"}, {"name": "Openpose/MConv_Stage5_L2_3BatchNorm/moving_mean", "shape": [64], "dtype": "float32"}, {"name": "Openpose/MConv_Stage5_L2_3BatchNorm/moving_variance", "shape": [64], "dtype": "float32"}, {"name": "Openpose/MConv_Stage5_L2_3_depthwise/depthwise_kernel", "shape": [3, 3, 64, 1], "dtype": "float32"}, {"name": "Openpose/MConv_Stage5_L2_3_pointwise/kernel", "shape": [1, 1, 64, 64], "dtype": "float32"}, {"name": "Openpose/MConv_Stage5_L2_4BatchNorm/beta", "shape": [64], "dtype": "float32"}, {"name": "Openpose/MConv_Stage5_L2_4BatchNorm/moving_mean", "shape": [64], "dtype": "float32"}, {"name": "Openpose/MConv_Stage5_L2_4BatchNorm/moving_variance", "shape": [64], "dtype": "float32"}, {"name": "Openpose/MConv_Stage5_L2_4_depthwise/depthwise_kernel", "shape": [1, 1, 64, 1], "dtype": "float32"}, {"name": "Openpose/MConv_Stage5_L2_4_pointwise/kernel", "shape": [1, 1, 64, 64], "dtype": "float32"}, {"name": "Openpose/MConv_Stage5_L2_5BatchNorm/beta", "shape": [22], "dtype": "float32"}, {"name": "Openpose/MConv_Stage5_L2_5BatchNorm/moving_mean", "shape": [22], "dtype": "float32"}, {"name": "Openpose/MConv_Stage5_L2_5BatchNorm/moving_variance", "shape": [22], "dtype": "float32"}, {"name": "Openpose/MConv_Stage5_L2_5_depthwise/depthwise_kernel", "shape": [1, 1, 64, 1], "dtype": "float32"}, {"name": "Openpose/MConv_Stage5_L2_5_pointwise/kernel", "shape": [1, 1, 64, 22], "dtype": "float32"}, {"name": "Openpose/MConv_Stage6_L1_1BatchNorm/beta", "shape": [64], "dtype": "float32"}, {"name": "Openpose/MConv_Stage6_L1_1BatchNorm/moving_mean", "shape": [64], "dtype": "float32"}, {"name": "Openpose/MConv_Stage6_L1_1BatchNorm/moving_variance", "shape": [64], "dtype": "float32"}, {"name": "Openpose/MConv_Stage6_L1_1_depthwise/depthwise_kernel", "shape": [3, 3, 924, 1], "dtype": "float32"}, {"name": "Openpose/MConv_Stage6_L1_1_pointwise/kernel", "shape": [1, 1, 924, 64], "dtype": "float32"}, {"name": "Openpose/MConv_Stage6_L1_2BatchNorm/beta", "shape": [64], "dtype": "float32"}, {"name": "Openpose/MConv_Stage6_L1_2BatchNorm/moving_mean", "shape": [64], "dtype": "float32"}, {"name": "Openpose/MConv_Stage6_L1_2BatchNorm/moving_variance", "shape": [64], "dtype": "float32"}, {"name": "Openpose/MConv_Stage6_L1_2_depthwise/depthwise_kernel", "shape": [3, 3, 64, 1], "dtype": "float32"}, {"name": "Openpose/MConv_Stage6_L1_2_pointwise/kernel", "shape": [1, 1, 64, 64], "dtype": "float32"}, {"name": "Openpose/MConv_Stage6_L1_3BatchNorm/beta", "shape": [64], "dtype": "float32"}, {"name": "Openpose/MConv_Stage6_L1_3BatchNorm/moving_mean", "shape": [64], "dtype": "float32"}, {"name": "Openpose/MConv_Stage6_L1_3BatchNorm/moving_variance", "shape": [64], "dtype": "float32"}, {"name": "Openpose/MConv_Stage6_L1_3_depthwise/depthwise_kernel", "shape": [3, 3, 64, 1], "dtype": "float32"}, {"name": "Openpose/MConv_Stage6_L1_3_pointwise/kernel", "shape": [1, 1, 64, 64], "dtype": "float32"}, {"name": "Openpose/MConv_Stage6_L1_4BatchNorm/beta", "shape": [64], "dtype": "float32"}, {"name": "Openpose/MConv_Stage6_L1_4BatchNorm/moving_mean", "shape": [64], "dtype": "float32"}, {"name": "Openpose/MConv_Stage6_L1_4BatchNorm/moving_variance", "shape": [64], "dtype": "float32"}, {"name": "Openpose/MConv_Stage6_L1_4_depthwise/depthwise_kernel", "shape": [1, 1, 64, 1], "dtype": "float32"}, {"name": "Openpose/MConv_Stage6_L1_4_pointwise/kernel", "shape": [1, 1, 64, 64], "dtype": "float32"}, {"name": "Openpose/MConv_Stage6_L1_5BatchNorm/beta", "shape": [38], "dtype": "float32"}, {"name": "Openpose/MConv_Stage6_L1_5BatchNorm/moving_mean", "shape": [38], "dtype": "float32"}, {"name": "Openpose/MConv_Stage6_L1_5BatchNorm/moving_variance", "shape": [38], "dtype": "float32"}, {"name": "Openpose/MConv_Stage6_L1_5_depthwise/depthwise_kernel", "shape": [1, 1, 64, 1], "dtype": "float32"}, {"name": "Openpose/MConv_Stage6_L1_5_pointwise/kernel", "shape": [1, 1, 64, 38], "dtype": "float32"}, {"name": "Openpose/MConv_Stage6_L2_1BatchNorm/beta", "shape": [64], "dtype": "float32"}, {"name": "Openpose/MConv_Stage6_L2_1BatchNorm/moving_mean", "shape": [64], "dtype": "float32"}, {"name": "Openpose/MConv_Stage6_L2_1BatchNorm/moving_variance", "shape": [64], "dtype": "float32"}, {"name": "Openpose/MConv_Stage6_L2_1_depthwise/depthwise_kernel", "shape": [3, 3, 924, 1], "dtype": "float32"}, {"name": "Openpose/MConv_Stage6_L2_1_pointwise/kernel", "shape": [1, 1, 924, 64], "dtype": "float32"}, {"name": "Openpose/MConv_Stage6_L2_2BatchNorm/beta", "shape": [64], "dtype": "float32"}, {"name": "Openpose/MConv_Stage6_L2_2BatchNorm/moving_mean", "shape": [64], "dtype": "float32"}, {"name": "Openpose/MConv_Stage6_L2_2BatchNorm/moving_variance", "shape": [64], "dtype": "float32"}, {"name": "Openpose/MConv_Stage6_L2_2_depthwise/depthwise_kernel", "shape": [3, 3, 64, 1], "dtype": "float32"}, {"name": "Openpose/MConv_Stage6_L2_2_pointwise/kernel", "shape": [1, 1, 64, 64], "dtype": "float32"}, {"name": "Openpose/MConv_Stage6_L2_3BatchNorm/beta", "shape": [64], "dtype": "float32"}, {"name": "Openpose/MConv_Stage6_L2_3BatchNorm/moving_mean", "shape": [64], "dtype": "float32"}, {"name": "Openpose/MConv_Stage6_L2_3BatchNorm/moving_variance", "shape": [64], "dtype": "float32"}, {"name": "Openpose/MConv_Stage6_L2_3_depthwise/depthwise_kernel", "shape": [3, 3, 64, 1], "dtype": "float32"}, {"name": "Openpose/MConv_Stage6_L2_3_pointwise/kernel", "shape": [1, 1, 64, 64], "dtype": "float32"}, {"name": "Openpose/MConv_Stage6_L2_4BatchNorm/beta", "shape": [64], "dtype": "float32"}, {"name": "Openpose/MConv_Stage6_L2_4BatchNorm/moving_mean", "shape": [64], "dtype": "float32"}, {"name": "Openpose/MConv_Stage6_L2_4BatchNorm/moving_variance", "shape": [64], "dtype": "float32"}, {"name": "Openpose/MConv_Stage6_L2_4_depthwise/depthwise_kernel", "shape": [1, 1, 64, 1], "dtype": "float32"}, {"name": "Openpose/MConv_Stage6_L2_4_pointwise/kernel", "shape": [1, 1, 64, 64], "dtype": "float32"}, {"name": "Openpose/MConv_Stage6_L2_5BatchNorm/beta", "shape": [22], "dtype": "float32"}, {"name": "Openpose/MConv_Stage6_L2_5BatchNorm/moving_mean", "shape": [22], "dtype": "float32"}, {"name": "Openpose/MConv_Stage6_L2_5BatchNorm/moving_variance", "shape": [22], "dtype": "float32"}, {"name": "Openpose/MConv_Stage6_L2_5_depthwise/depthwise_kernel", "shape": [1, 1, 64, 1], "dtype": "float32"}, {"name": "Openpose/MConv_Stage6_L2_5_pointwise/kernel", "shape": [1, 1, 64, 22], "dtype": "float32"}]}]}